node {
  name: "data/wav_filename"
  op: "Placeholder"
  attr {
    key: "dtype"
    value {
      type: DT_STRING
    }
  }
  attr {
    key: "shape"
    value {
      shape {
      }
    }
  }
}
node {
  name: "data/ReadFile"
  op: "ReadFile"
  input: "data/wav_filename"
}
node {
  name: "data/DecodeWav"
  op: "DecodeWav"
  input: "data/ReadFile"
  attr {
    key: "desired_channels"
    value {
      i: 1
    }
  }
  attr {
    key: "desired_samples"
    value {
      i: 16000
    }
  }
}
node {
  name: "data/foreground_volume"
  op: "Placeholder"
  attr {
    key: "dtype"
    value {
      type: DT_FLOAT
    }
  }
  attr {
    key: "shape"
    value {
      shape {
      }
    }
  }
}
node {
  name: "data/Placeholder"
  op: "Placeholder"
  attr {
    key: "dtype"
    value {
      type: DT_FLOAT
    }
  }
  attr {
    key: "shape"
    value {
      shape {
      }
    }
  }
}
node {
  name: "data/ExpandDims/dim"
  op: "Const"
  attr {
    key: "dtype"
    value {
      type: DT_INT32
    }
  }
  attr {
    key: "value"
    value {
      tensor {
        dtype: DT_INT32
        tensor_shape {
        }
        int_val: 0
      }
    }
  }
}
node {
  name: "data/ExpandDims"
  op: "ExpandDims"
  input: "data/DecodeWav"
  input: "data/ExpandDims/dim"
  attr {
    key: "T"
    value {
      type: DT_FLOAT
    }
  }
  attr {
    key: "Tdim"
    value {
      type: DT_INT32
    }
  }
}
node {
  name: "data/ExpandDims_1/dim"
  op: "Const"
  attr {
    key: "dtype"
    value {
      type: DT_INT32
    }
  }
  attr {
    key: "value"
    value {
      tensor {
        dtype: DT_INT32
        tensor_shape {
        }
        int_val: 2
      }
    }
  }
}
node {
  name: "data/ExpandDims_1"
  op: "ExpandDims"
  input: "data/ExpandDims"
  input: "data/ExpandDims_1/dim"
  attr {
    key: "T"
    value {
      type: DT_FLOAT
    }
  }
  attr {
    key: "Tdim"
    value {
      type: DT_INT32
    }
  }
}
node {
  name: "data/Shape"
  op: "Const"
  attr {
    key: "dtype"
    value {
      type: DT_INT32
    }
  }
  attr {
    key: "value"
    value {
      tensor {
        dtype: DT_INT32
        tensor_shape {
          dim {
            size: 2
          }
        }
        tensor_content: "\200>\000\000\001\000\000\000"
      }
    }
  }
}
node {
  name: "data/strided_slice/stack"
  op: "Const"
  attr {
    key: "dtype"
    value {
      type: DT_INT32
    }
  }
  attr {
    key: "value"
    value {
      tensor {
        dtype: DT_INT32
        tensor_shape {
          dim {
            size: 1
          }
        }
        int_val: 0
      }
    }
  }
}
node {
  name: "data/strided_slice/stack_1"
  op: "Const"
  attr {
    key: "dtype"
    value {
      type: DT_INT32
    }
  }
  attr {
    key: "value"
    value {
      tensor {
        dtype: DT_INT32
        tensor_shape {
          dim {
            size: 1
          }
        }
        int_val: 1
      }
    }
  }
}
node {
  name: "data/strided_slice/stack_2"
  op: "Const"
  attr {
    key: "dtype"
    value {
      type: DT_INT32
    }
  }
  attr {
    key: "value"
    value {
      tensor {
        dtype: DT_INT32
        tensor_shape {
          dim {
            size: 1
          }
        }
        int_val: 1
      }
    }
  }
}
node {
  name: "data/strided_slice"
  op: "StridedSlice"
  input: "data/Shape"
  input: "data/strided_slice/stack"
  input: "data/strided_slice/stack_1"
  input: "data/strided_slice/stack_2"
  attr {
    key: "Index"
    value {
      type: DT_INT32
    }
  }
  attr {
    key: "T"
    value {
      type: DT_INT32
    }
  }
  attr {
    key: "begin_mask"
    value {
      i: 0
    }
  }
  attr {
    key: "ellipsis_mask"
    value {
      i: 0
    }
  }
  attr {
    key: "end_mask"
    value {
      i: 0
    }
  }
  attr {
    key: "new_axis_mask"
    value {
      i: 0
    }
  }
  attr {
    key: "shrink_axis_mask"
    value {
      i: 1
    }
  }
}
node {
  name: "data/Cast"
  op: "Cast"
  input: "data/strided_slice"
  attr {
    key: "DstT"
    value {
      type: DT_FLOAT
    }
  }
  attr {
    key: "SrcT"
    value {
      type: DT_INT32
    }
  }
  attr {
    key: "Truncate"
    value {
      b: false
    }
  }
}
node {
  name: "data/mul"
  op: "Mul"
  input: "data/Cast"
  input: "data/Placeholder"
  attr {
    key: "T"
    value {
      type: DT_FLOAT
    }
  }
}
node {
  name: "data/Cast_1"
  op: "Cast"
  input: "data/mul"
  attr {
    key: "DstT"
    value {
      type: DT_INT32
    }
  }
  attr {
    key: "SrcT"
    value {
      type: DT_FLOAT
    }
  }
  attr {
    key: "Truncate"
    value {
      b: false
    }
  }
}
node {
  name: "data/resize/size/1"
  op: "Const"
  attr {
    key: "dtype"
    value {
      type: DT_INT32
    }
  }
  attr {
    key: "value"
    value {
      tensor {
        dtype: DT_INT32
        tensor_shape {
        }
        int_val: 1
      }
    }
  }
}
node {
  name: "data/resize/size"
  op: "Pack"
  input: "data/Cast_1"
  input: "data/resize/size/1"
  attr {
    key: "N"
    value {
      i: 2
    }
  }
  attr {
    key: "T"
    value {
      type: DT_INT32
    }
  }
  attr {
    key: "axis"
    value {
      i: 0
    }
  }
}
node {
  name: "data/resize/ResizeBilinear"
  op: "ResizeBilinear"
  input: "data/ExpandDims_1"
  input: "data/resize/size"
  attr {
    key: "T"
    value {
      type: DT_FLOAT
    }
  }
  attr {
    key: "align_corners"
    value {
      b: false
    }
  }
  attr {
    key: "half_pixel_centers"
    value {
      b: false
    }
  }
}
node {
  name: "data/resize_image_with_crop_or_pad/Shape"
  op: "Shape"
  input: "data/resize/ResizeBilinear"
  attr {
    key: "T"
    value {
      type: DT_FLOAT
    }
  }
  attr {
    key: "out_type"
    value {
      type: DT_INT32
    }
  }
}
node {
  name: "data/resize_image_with_crop_or_pad/strided_slice/stack"
  op: "Const"
  attr {
    key: "dtype"
    value {
      type: DT_INT32
    }
  }
  attr {
    key: "value"
    value {
      tensor {
        dtype: DT_INT32
        tensor_shape {
          dim {
            size: 1
          }
        }
        int_val: -3
      }
    }
  }
}
node {
  name: "data/resize_image_with_crop_or_pad/strided_slice/stack_1"
  op: "Const"
  attr {
    key: "dtype"
    value {
      type: DT_INT32
    }
  }
  attr {
    key: "value"
    value {
      tensor {
        dtype: DT_INT32
        tensor_shape {
          dim {
            size: 1
          }
        }
        int_val: 0
      }
    }
  }
}
node {
  name: "data/resize_image_with_crop_or_pad/strided_slice/stack_2"
  op: "Const"
  attr {
    key: "dtype"
    value {
      type: DT_INT32
    }
  }
  attr {
    key: "value"
    value {
      tensor {
        dtype: DT_INT32
        tensor_shape {
          dim {
            size: 1
          }
        }
        int_val: 1
      }
    }
  }
}
node {
  name: "data/resize_image_with_crop_or_pad/strided_slice"
  op: "StridedSlice"
  input: "data/resize_image_with_crop_or_pad/Shape"
  input: "data/resize_image_with_crop_or_pad/strided_slice/stack"
  input: "data/resize_image_with_crop_or_pad/strided_slice/stack_1"
  input: "data/resize_image_with_crop_or_pad/strided_slice/stack_2"
  attr {
    key: "Index"
    value {
      type: DT_INT32
    }
  }
  attr {
    key: "T"
    value {
      type: DT_INT32
    }
  }
  attr {
    key: "begin_mask"
    value {
      i: 0
    }
  }
  attr {
    key: "ellipsis_mask"
    value {
      i: 0
    }
  }
  attr {
    key: "end_mask"
    value {
      i: 1
    }
  }
  attr {
    key: "new_axis_mask"
    value {
      i: 0
    }
  }
  attr {
    key: "shrink_axis_mask"
    value {
      i: 0
    }
  }
}
node {
  name: "data/resize_image_with_crop_or_pad/assert_positive/Const"
  op: "Const"
  attr {
    key: "dtype"
    value {
      type: DT_INT32
    }
  }
  attr {
    key: "value"
    value {
      tensor {
        dtype: DT_INT32
        tensor_shape {
        }
        int_val: 0
      }
    }
  }
}
node {
  name: "data/resize_image_with_crop_or_pad/assert_positive/assert_less/Less"
  op: "Less"
  input: "data/resize_image_with_crop_or_pad/assert_positive/Const"
  input: "data/resize_image_with_crop_or_pad/strided_slice"
  attr {
    key: "T"
    value {
      type: DT_INT32
    }
  }
}
node {
  name: "data/resize_image_with_crop_or_pad/assert_positive/assert_less/Const"
  op: "Const"
  attr {
    key: "dtype"
    value {
      type: DT_INT32
    }
  }
  attr {
    key: "value"
    value {
      tensor {
        dtype: DT_INT32
        tensor_shape {
          dim {
            size: 1
          }
        }
        int_val: 0
      }
    }
  }
}
node {
  name: "data/resize_image_with_crop_or_pad/assert_positive/assert_less/All"
  op: "All"
  input: "data/resize_image_with_crop_or_pad/assert_positive/assert_less/Less"
  input: "data/resize_image_with_crop_or_pad/assert_positive/assert_less/Const"
  attr {
    key: "Tidx"
    value {
      type: DT_INT32
    }
  }
  attr {
    key: "keep_dims"
    value {
      b: false
    }
  }
}
node {
  name: "data/resize_image_with_crop_or_pad/assert_positive/assert_less/Assert/Const"
  op: "Const"
  attr {
    key: "dtype"
    value {
      type: DT_STRING
    }
  }
  attr {
    key: "value"
    value {
      tensor {
        dtype: DT_STRING
        tensor_shape {
        }
        string_val: "inner 3 dims of \'image.shape\' must be > 0."
      }
    }
  }
}
node {
  name: "data/resize_image_with_crop_or_pad/assert_positive/assert_less/Assert/Assert/data_0"
  op: "Const"
  attr {
    key: "dtype"
    value {
      type: DT_STRING
    }
  }
  attr {
    key: "value"
    value {
      tensor {
        dtype: DT_STRING
        tensor_shape {
        }
        string_val: "inner 3 dims of \'image.shape\' must be > 0."
      }
    }
  }
}
node {
  name: "data/resize_image_with_crop_or_pad/assert_positive/assert_less/Assert/Assert"
  op: "Assert"
  input: "data/resize_image_with_crop_or_pad/assert_positive/assert_less/All"
  input: "data/resize_image_with_crop_or_pad/assert_positive/assert_less/Assert/Assert/data_0"
  attr {
    key: "T"
    value {
      list {
        type: DT_STRING
      }
    }
  }
  attr {
    key: "_has_manual_control_dependencies"
    value {
      b: true
    }
  }
  attr {
    key: "summarize"
    value {
      i: 3
    }
  }
}
node {
  name: "data/resize_image_with_crop_or_pad/Rank"
  op: "Const"
  attr {
    key: "dtype"
    value {
      type: DT_INT32
    }
  }
  attr {
    key: "value"
    value {
      tensor {
        dtype: DT_INT32
        tensor_shape {
        }
        int_val: 4
      }
    }
  }
}
node {
  name: "data/resize_image_with_crop_or_pad/assert_greater_equal/y"
  op: "Const"
  attr {
    key: "dtype"
    value {
      type: DT_INT32
    }
  }
  attr {
    key: "value"
    value {
      tensor {
        dtype: DT_INT32
        tensor_shape {
        }
        int_val: 3
      }
    }
  }
}
node {
  name: "data/resize_image_with_crop_or_pad/assert_greater_equal/GreaterEqual"
  op: "GreaterEqual"
  input: "data/resize_image_with_crop_or_pad/Rank"
  input: "data/resize_image_with_crop_or_pad/assert_greater_equal/y"
  attr {
    key: "T"
    value {
      type: DT_INT32
    }
  }
}
node {
  name: "data/resize_image_with_crop_or_pad/assert_greater_equal/Rank"
  op: "Const"
  attr {
    key: "dtype"
    value {
      type: DT_INT32
    }
  }
  attr {
    key: "value"
    value {
      tensor {
        dtype: DT_INT32
        tensor_shape {
        }
        int_val: 0
      }
    }
  }
}
node {
  name: "data/resize_image_with_crop_or_pad/assert_greater_equal/range/start"
  op: "Const"
  attr {
    key: "dtype"
    value {
      type: DT_INT32
    }
  }
  attr {
    key: "value"
    value {
      tensor {
        dtype: DT_INT32
        tensor_shape {
        }
        int_val: 0
      }
    }
  }
}
node {
  name: "data/resize_image_with_crop_or_pad/assert_greater_equal/range/delta"
  op: "Const"
  attr {
    key: "dtype"
    value {
      type: DT_INT32
    }
  }
  attr {
    key: "value"
    value {
      tensor {
        dtype: DT_INT32
        tensor_shape {
        }
        int_val: 1
      }
    }
  }
}
node {
  name: "data/resize_image_with_crop_or_pad/assert_greater_equal/range"
  op: "Range"
  input: "data/resize_image_with_crop_or_pad/assert_greater_equal/range/start"
  input: "data/resize_image_with_crop_or_pad/assert_greater_equal/Rank"
  input: "data/resize_image_with_crop_or_pad/assert_greater_equal/range/delta"
  attr {
    key: "Tidx"
    value {
      type: DT_INT32
    }
  }
}
node {
  name: "data/resize_image_with_crop_or_pad/assert_greater_equal/All"
  op: "All"
  input: "data/resize_image_with_crop_or_pad/assert_greater_equal/GreaterEqual"
  input: "data/resize_image_with_crop_or_pad/assert_greater_equal/range"
  attr {
    key: "Tidx"
    value {
      type: DT_INT32
    }
  }
  attr {
    key: "keep_dims"
    value {
      b: false
    }
  }
}
node {
  name: "data/resize_image_with_crop_or_pad/assert_greater_equal/Assert/Const"
  op: "Const"
  attr {
    key: "dtype"
    value {
      type: DT_STRING
    }
  }
  attr {
    key: "value"
    value {
      tensor {
        dtype: DT_STRING
        tensor_shape {
        }
        string_val: "\'image\' must be at least three-dimensional."
      }
    }
  }
}
node {
  name: "data/resize_image_with_crop_or_pad/assert_greater_equal/Assert/Const_1"
  op: "Const"
  attr {
    key: "dtype"
    value {
      type: DT_STRING
    }
  }
  attr {
    key: "value"
    value {
      tensor {
        dtype: DT_STRING
        tensor_shape {
        }
        string_val: "Condition x >= y did not hold element-wise:"
      }
    }
  }
}
node {
  name: "data/resize_image_with_crop_or_pad/assert_greater_equal/Assert/Const_2"
  op: "Const"
  attr {
    key: "dtype"
    value {
      type: DT_STRING
    }
  }
  attr {
    key: "value"
    value {
      tensor {
        dtype: DT_STRING
        tensor_shape {
        }
        string_val: "x (data/resize_image_with_crop_or_pad/Rank:0) = "
      }
    }
  }
}
node {
  name: "data/resize_image_with_crop_or_pad/assert_greater_equal/Assert/Const_3"
  op: "Const"
  attr {
    key: "dtype"
    value {
      type: DT_STRING
    }
  }
  attr {
    key: "value"
    value {
      tensor {
        dtype: DT_STRING
        tensor_shape {
        }
        string_val: "y (data/resize_image_with_crop_or_pad/assert_greater_equal/y:0) = "
      }
    }
  }
}
node {
  name: "data/resize_image_with_crop_or_pad/assert_greater_equal/Assert/Assert/data_0"
  op: "Const"
  attr {
    key: "dtype"
    value {
      type: DT_STRING
    }
  }
  attr {
    key: "value"
    value {
      tensor {
        dtype: DT_STRING
        tensor_shape {
        }
        string_val: "\'image\' must be at least three-dimensional."
      }
    }
  }
}
node {
  name: "data/resize_image_with_crop_or_pad/assert_greater_equal/Assert/Assert/data_1"
  op: "Const"
  attr {
    key: "dtype"
    value {
      type: DT_STRING
    }
  }
  attr {
    key: "value"
    value {
      tensor {
        dtype: DT_STRING
        tensor_shape {
        }
        string_val: "Condition x >= y did not hold element-wise:"
      }
    }
  }
}
node {
  name: "data/resize_image_with_crop_or_pad/assert_greater_equal/Assert/Assert/data_2"
  op: "Const"
  attr {
    key: "dtype"
    value {
      type: DT_STRING
    }
  }
  attr {
    key: "value"
    value {
      tensor {
        dtype: DT_STRING
        tensor_shape {
        }
        string_val: "x (data/resize_image_with_crop_or_pad/Rank:0) = "
      }
    }
  }
}
node {
  name: "data/resize_image_with_crop_or_pad/assert_greater_equal/Assert/Assert/data_4"
  op: "Const"
  attr {
    key: "dtype"
    value {
      type: DT_STRING
    }
  }
  attr {
    key: "value"
    value {
      tensor {
        dtype: DT_STRING
        tensor_shape {
        }
        string_val: "y (data/resize_image_with_crop_or_pad/assert_greater_equal/y:0) = "
      }
    }
  }
}
node {
  name: "data/resize_image_with_crop_or_pad/assert_greater_equal/Assert/Assert"
  op: "Assert"
  input: "data/resize_image_with_crop_or_pad/assert_greater_equal/All"
  input: "data/resize_image_with_crop_or_pad/assert_greater_equal/Assert/Assert/data_0"
  input: "data/resize_image_with_crop_or_pad/assert_greater_equal/Assert/Assert/data_1"
  input: "data/resize_image_with_crop_or_pad/assert_greater_equal/Assert/Assert/data_2"
  input: "data/resize_image_with_crop_or_pad/Rank"
  input: "data/resize_image_with_crop_or_pad/assert_greater_equal/Assert/Assert/data_4"
  input: "data/resize_image_with_crop_or_pad/assert_greater_equal/y"
  attr {
    key: "T"
    value {
      list {
        type: DT_STRING
        type: DT_STRING
        type: DT_STRING
        type: DT_INT32
        type: DT_STRING
        type: DT_INT32
      }
    }
  }
  attr {
    key: "_has_manual_control_dependencies"
    value {
      b: true
    }
  }
  attr {
    key: "summarize"
    value {
      i: 3
    }
  }
}
node {
  name: "data/resize_image_with_crop_or_pad/control_dependency"
  op: "Identity"
  input: "data/resize/ResizeBilinear"
  input: "^data/resize_image_with_crop_or_pad/assert_greater_equal/Assert/Assert"
  input: "^data/resize_image_with_crop_or_pad/assert_positive/assert_less/Assert/Assert"
  attr {
    key: "T"
    value {
      type: DT_FLOAT
    }
  }
  attr {
    key: "_class"
    value {
      list {
        s: "loc:@data/resize/ResizeBilinear"
      }
    }
  }
}
node {
  name: "data/resize_image_with_crop_or_pad/Shape_1"
  op: "Shape"
  input: "data/resize_image_with_crop_or_pad/control_dependency"
  attr {
    key: "T"
    value {
      type: DT_FLOAT
    }
  }
  attr {
    key: "out_type"
    value {
      type: DT_INT32
    }
  }
}
node {
  name: "data/resize_image_with_crop_or_pad/unstack"
  op: "Unpack"
  input: "data/resize_image_with_crop_or_pad/Shape_1"
  attr {
    key: "T"
    value {
      type: DT_INT32
    }
  }
  attr {
    key: "axis"
    value {
      i: 0
    }
  }
  attr {
    key: "num"
    value {
      i: 4
    }
  }
}
node {
  name: "data/resize_image_with_crop_or_pad/sub/x"
  op: "Const"
  attr {
    key: "dtype"
    value {
      type: DT_INT32
    }
  }
  attr {
    key: "value"
    value {
      tensor {
        dtype: DT_INT32
        tensor_shape {
        }
        int_val: 16000
      }
    }
  }
}
node {
  name: "data/resize_image_with_crop_or_pad/sub"
  op: "Sub"
  input: "data/resize_image_with_crop_or_pad/sub/x"
  input: "data/resize_image_with_crop_or_pad/unstack:1"
  attr {
    key: "T"
    value {
      type: DT_INT32
    }
  }
}
node {
  name: "data/resize_image_with_crop_or_pad/Neg"
  op: "Neg"
  input: "data/resize_image_with_crop_or_pad/sub"
  attr {
    key: "T"
    value {
      type: DT_INT32
    }
  }
}
node {
  name: "data/resize_image_with_crop_or_pad/floordiv/y"
  op: "Const"
  attr {
    key: "dtype"
    value {
      type: DT_INT32
    }
  }
  attr {
    key: "value"
    value {
      tensor {
        dtype: DT_INT32
        tensor_shape {
        }
        int_val: 2
      }
    }
  }
}
node {
  name: "data/resize_image_with_crop_or_pad/floordiv"
  op: "FloorDiv"
  input: "data/resize_image_with_crop_or_pad/Neg"
  input: "data/resize_image_with_crop_or_pad/floordiv/y"
  attr {
    key: "T"
    value {
      type: DT_INT32
    }
  }
}
node {
  name: "data/resize_image_with_crop_or_pad/Maximum/y"
  op: "Const"
  attr {
    key: "dtype"
    value {
      type: DT_INT32
    }
  }
  attr {
    key: "value"
    value {
      tensor {
        dtype: DT_INT32
        tensor_shape {
        }
        int_val: 0
      }
    }
  }
}
node {
  name: "data/resize_image_with_crop_or_pad/Maximum"
  op: "Maximum"
  input: "data/resize_image_with_crop_or_pad/floordiv"
  input: "data/resize_image_with_crop_or_pad/Maximum/y"
  attr {
    key: "T"
    value {
      type: DT_INT32
    }
  }
}
node {
  name: "data/resize_image_with_crop_or_pad/floordiv_1/y"
  op: "Const"
  attr {
    key: "dtype"
    value {
      type: DT_INT32
    }
  }
  attr {
    key: "value"
    value {
      tensor {
        dtype: DT_INT32
        tensor_shape {
        }
        int_val: 2
      }
    }
  }
}
node {
  name: "data/resize_image_with_crop_or_pad/floordiv_1"
  op: "FloorDiv"
  input: "data/resize_image_with_crop_or_pad/sub"
  input: "data/resize_image_with_crop_or_pad/floordiv_1/y"
  attr {
    key: "T"
    value {
      type: DT_INT32
    }
  }
}
node {
  name: "data/resize_image_with_crop_or_pad/Maximum_1/y"
  op: "Const"
  attr {
    key: "dtype"
    value {
      type: DT_INT32
    }
  }
  attr {
    key: "value"
    value {
      tensor {
        dtype: DT_INT32
        tensor_shape {
        }
        int_val: 0
      }
    }
  }
}
node {
  name: "data/resize_image_with_crop_or_pad/Maximum_1"
  op: "Maximum"
  input: "data/resize_image_with_crop_or_pad/floordiv_1"
  input: "data/resize_image_with_crop_or_pad/Maximum_1/y"
  attr {
    key: "T"
    value {
      type: DT_INT32
    }
  }
}
node {
  name: "data/resize_image_with_crop_or_pad/Minimum/x"
  op: "Const"
  attr {
    key: "dtype"
    value {
      type: DT_INT32
    }
  }
  attr {
    key: "value"
    value {
      tensor {
        dtype: DT_INT32
        tensor_shape {
        }
        int_val: 16000
      }
    }
  }
}
node {
  name: "data/resize_image_with_crop_or_pad/Minimum"
  op: "Minimum"
  input: "data/resize_image_with_crop_or_pad/Minimum/x"
  input: "data/resize_image_with_crop_or_pad/unstack:1"
  attr {
    key: "T"
    value {
      type: DT_INT32
    }
  }
}
node {
  name: "data/resize_image_with_crop_or_pad/crop_to_bounding_box/Shape"
  op: "Shape"
  input: "data/resize_image_with_crop_or_pad/control_dependency"
  attr {
    key: "T"
    value {
      type: DT_FLOAT
    }
  }
  attr {
    key: "out_type"
    value {
      type: DT_INT32
    }
  }
}
node {
  name: "data/resize_image_with_crop_or_pad/crop_to_bounding_box/strided_slice/stack"
  op: "Const"
  attr {
    key: "dtype"
    value {
      type: DT_INT32
    }
  }
  attr {
    key: "value"
    value {
      tensor {
        dtype: DT_INT32
        tensor_shape {
          dim {
            size: 1
          }
        }
        int_val: -3
      }
    }
  }
}
node {
  name: "data/resize_image_with_crop_or_pad/crop_to_bounding_box/strided_slice/stack_1"
  op: "Const"
  attr {
    key: "dtype"
    value {
      type: DT_INT32
    }
  }
  attr {
    key: "value"
    value {
      tensor {
        dtype: DT_INT32
        tensor_shape {
          dim {
            size: 1
          }
        }
        int_val: 0
      }
    }
  }
}
node {
  name: "data/resize_image_with_crop_or_pad/crop_to_bounding_box/strided_slice/stack_2"
  op: "Const"
  attr {
    key: "dtype"
    value {
      type: DT_INT32
    }
  }
  attr {
    key: "value"
    value {
      tensor {
        dtype: DT_INT32
        tensor_shape {
          dim {
            size: 1
          }
        }
        int_val: 1
      }
    }
  }
}
node {
  name: "data/resize_image_with_crop_or_pad/crop_to_bounding_box/strided_slice"
  op: "StridedSlice"
  input: "data/resize_image_with_crop_or_pad/crop_to_bounding_box/Shape"
  input: "data/resize_image_with_crop_or_pad/crop_to_bounding_box/strided_slice/stack"
  input: "data/resize_image_with_crop_or_pad/crop_to_bounding_box/strided_slice/stack_1"
  input: "data/resize_image_with_crop_or_pad/crop_to_bounding_box/strided_slice/stack_2"
  attr {
    key: "Index"
    value {
      type: DT_INT32
    }
  }
  attr {
    key: "T"
    value {
      type: DT_INT32
    }
  }
  attr {
    key: "begin_mask"
    value {
      i: 0
    }
  }
  attr {
    key: "ellipsis_mask"
    value {
      i: 0
    }
  }
  attr {
    key: "end_mask"
    value {
      i: 1
    }
  }
  attr {
    key: "new_axis_mask"
    value {
      i: 0
    }
  }
  attr {
    key: "shrink_axis_mask"
    value {
      i: 0
    }
  }
}
node {
  name: "data/resize_image_with_crop_or_pad/crop_to_bounding_box/assert_positive/Const"
  op: "Const"
  attr {
    key: "dtype"
    value {
      type: DT_INT32
    }
  }
  attr {
    key: "value"
    value {
      tensor {
        dtype: DT_INT32
        tensor_shape {
        }
        int_val: 0
      }
    }
  }
}
node {
  name: "data/resize_image_with_crop_or_pad/crop_to_bounding_box/assert_positive/assert_less/Less"
  op: "Less"
  input: "data/resize_image_with_crop_or_pad/crop_to_bounding_box/assert_positive/Const"
  input: "data/resize_image_with_crop_or_pad/crop_to_bounding_box/strided_slice"
  attr {
    key: "T"
    value {
      type: DT_INT32
    }
  }
}
node {
  name: "data/resize_image_with_crop_or_pad/crop_to_bounding_box/assert_positive/assert_less/Const"
  op: "Const"
  attr {
    key: "dtype"
    value {
      type: DT_INT32
    }
  }
  attr {
    key: "value"
    value {
      tensor {
        dtype: DT_INT32
        tensor_shape {
          dim {
            size: 1
          }
        }
        int_val: 0
      }
    }
  }
}
node {
  name: "data/resize_image_with_crop_or_pad/crop_to_bounding_box/assert_positive/assert_less/All"
  op: "All"
  input: "data/resize_image_with_crop_or_pad/crop_to_bounding_box/assert_positive/assert_less/Less"
  input: "data/resize_image_with_crop_or_pad/crop_to_bounding_box/assert_positive/assert_less/Const"
  attr {
    key: "Tidx"
    value {
      type: DT_INT32
    }
  }
  attr {
    key: "keep_dims"
    value {
      b: false
    }
  }
}
node {
  name: "data/resize_image_with_crop_or_pad/crop_to_bounding_box/assert_positive/assert_less/Assert/Const"
  op: "Const"
  attr {
    key: "dtype"
    value {
      type: DT_STRING
    }
  }
  attr {
    key: "value"
    value {
      tensor {
        dtype: DT_STRING
        tensor_shape {
        }
        string_val: "inner 3 dims of \'image.shape\' must be > 0."
      }
    }
  }
}
node {
  name: "data/resize_image_with_crop_or_pad/crop_to_bounding_box/assert_positive/assert_less/Assert/Assert/data_0"
  op: "Const"
  attr {
    key: "dtype"
    value {
      type: DT_STRING
    }
  }
  attr {
    key: "value"
    value {
      tensor {
        dtype: DT_STRING
        tensor_shape {
        }
        string_val: "inner 3 dims of \'image.shape\' must be > 0."
      }
    }
  }
}
node {
  name: "data/resize_image_with_crop_or_pad/crop_to_bounding_box/assert_positive/assert_less/Assert/Assert"
  op: "Assert"
  input: "data/resize_image_with_crop_or_pad/crop_to_bounding_box/assert_positive/assert_less/All"
  input: "data/resize_image_with_crop_or_pad/crop_to_bounding_box/assert_positive/assert_less/Assert/Assert/data_0"
  attr {
    key: "T"
    value {
      list {
        type: DT_STRING
      }
    }
  }
  attr {
    key: "_has_manual_control_dependencies"
    value {
      b: true
    }
  }
  attr {
    key: "summarize"
    value {
      i: 3
    }
  }
}
node {
  name: "data/resize_image_with_crop_or_pad/crop_to_bounding_box/Rank"
  op: "Const"
  attr {
    key: "dtype"
    value {
      type: DT_INT32
    }
  }
  attr {
    key: "value"
    value {
      tensor {
        dtype: DT_INT32
        tensor_shape {
        }
        int_val: 4
      }
    }
  }
}
node {
  name: "data/resize_image_with_crop_or_pad/crop_to_bounding_box/assert_greater_equal/y"
  op: "Const"
  attr {
    key: "dtype"
    value {
      type: DT_INT32
    }
  }
  attr {
    key: "value"
    value {
      tensor {
        dtype: DT_INT32
        tensor_shape {
        }
        int_val: 3
      }
    }
  }
}
node {
  name: "data/resize_image_with_crop_or_pad/crop_to_bounding_box/assert_greater_equal/GreaterEqual"
  op: "GreaterEqual"
  input: "data/resize_image_with_crop_or_pad/crop_to_bounding_box/Rank"
  input: "data/resize_image_with_crop_or_pad/crop_to_bounding_box/assert_greater_equal/y"
  attr {
    key: "T"
    value {
      type: DT_INT32
    }
  }
}
node {
  name: "data/resize_image_with_crop_or_pad/crop_to_bounding_box/assert_greater_equal/Rank"
  op: "Const"
  attr {
    key: "dtype"
    value {
      type: DT_INT32
    }
  }
  attr {
    key: "value"
    value {
      tensor {
        dtype: DT_INT32
        tensor_shape {
        }
        int_val: 0
      }
    }
  }
}
node {
  name: "data/resize_image_with_crop_or_pad/crop_to_bounding_box/assert_greater_equal/range/start"
  op: "Const"
  attr {
    key: "dtype"
    value {
      type: DT_INT32
    }
  }
  attr {
    key: "value"
    value {
      tensor {
        dtype: DT_INT32
        tensor_shape {
        }
        int_val: 0
      }
    }
  }
}
node {
  name: "data/resize_image_with_crop_or_pad/crop_to_bounding_box/assert_greater_equal/range/delta"
  op: "Const"
  attr {
    key: "dtype"
    value {
      type: DT_INT32
    }
  }
  attr {
    key: "value"
    value {
      tensor {
        dtype: DT_INT32
        tensor_shape {
        }
        int_val: 1
      }
    }
  }
}
node {
  name: "data/resize_image_with_crop_or_pad/crop_to_bounding_box/assert_greater_equal/range"
  op: "Range"
  input: "data/resize_image_with_crop_or_pad/crop_to_bounding_box/assert_greater_equal/range/start"
  input: "data/resize_image_with_crop_or_pad/crop_to_bounding_box/assert_greater_equal/Rank"
  input: "data/resize_image_with_crop_or_pad/crop_to_bounding_box/assert_greater_equal/range/delta"
  attr {
    key: "Tidx"
    value {
      type: DT_INT32
    }
  }
}
node {
  name: "data/resize_image_with_crop_or_pad/crop_to_bounding_box/assert_greater_equal/All"
  op: "All"
  input: "data/resize_image_with_crop_or_pad/crop_to_bounding_box/assert_greater_equal/GreaterEqual"
  input: "data/resize_image_with_crop_or_pad/crop_to_bounding_box/assert_greater_equal/range"
  attr {
    key: "Tidx"
    value {
      type: DT_INT32
    }
  }
  attr {
    key: "keep_dims"
    value {
      b: false
    }
  }
}
node {
  name: "data/resize_image_with_crop_or_pad/crop_to_bounding_box/assert_greater_equal/Assert/Const"
  op: "Const"
  attr {
    key: "dtype"
    value {
      type: DT_STRING
    }
  }
  attr {
    key: "value"
    value {
      tensor {
        dtype: DT_STRING
        tensor_shape {
        }
        string_val: "\'image\' must be at least three-dimensional."
      }
    }
  }
}
node {
  name: "data/resize_image_with_crop_or_pad/crop_to_bounding_box/assert_greater_equal/Assert/Const_1"
  op: "Const"
  attr {
    key: "dtype"
    value {
      type: DT_STRING
    }
  }
  attr {
    key: "value"
    value {
      tensor {
        dtype: DT_STRING
        tensor_shape {
        }
        string_val: "Condition x >= y did not hold element-wise:"
      }
    }
  }
}
node {
  name: "data/resize_image_with_crop_or_pad/crop_to_bounding_box/assert_greater_equal/Assert/Const_2"
  op: "Const"
  attr {
    key: "dtype"
    value {
      type: DT_STRING
    }
  }
  attr {
    key: "value"
    value {
      tensor {
        dtype: DT_STRING
        tensor_shape {
        }
        string_val: "x (data/resize_image_with_crop_or_pad/crop_to_bounding_box/Rank:0) = "
      }
    }
  }
}
node {
  name: "data/resize_image_with_crop_or_pad/crop_to_bounding_box/assert_greater_equal/Assert/Const_3"
  op: "Const"
  attr {
    key: "dtype"
    value {
      type: DT_STRING
    }
  }
  attr {
    key: "value"
    value {
      tensor {
        dtype: DT_STRING
        tensor_shape {
        }
        string_val: "y (data/resize_image_with_crop_or_pad/crop_to_bounding_box/assert_greater_equal/y:0) = "
      }
    }
  }
}
node {
  name: "data/resize_image_with_crop_or_pad/crop_to_bounding_box/assert_greater_equal/Assert/Assert/data_0"
  op: "Const"
  attr {
    key: "dtype"
    value {
      type: DT_STRING
    }
  }
  attr {
    key: "value"
    value {
      tensor {
        dtype: DT_STRING
        tensor_shape {
        }
        string_val: "\'image\' must be at least three-dimensional."
      }
    }
  }
}
node {
  name: "data/resize_image_with_crop_or_pad/crop_to_bounding_box/assert_greater_equal/Assert/Assert/data_1"
  op: "Const"
  attr {
    key: "dtype"
    value {
      type: DT_STRING
    }
  }
  attr {
    key: "value"
    value {
      tensor {
        dtype: DT_STRING
        tensor_shape {
        }
        string_val: "Condition x >= y did not hold element-wise:"
      }
    }
  }
}
node {
  name: "data/resize_image_with_crop_or_pad/crop_to_bounding_box/assert_greater_equal/Assert/Assert/data_2"
  op: "Const"
  attr {
    key: "dtype"
    value {
      type: DT_STRING
    }
  }
  attr {
    key: "value"
    value {
      tensor {
        dtype: DT_STRING
        tensor_shape {
        }
        string_val: "x (data/resize_image_with_crop_or_pad/crop_to_bounding_box/Rank:0) = "
      }
    }
  }
}
node {
  name: "data/resize_image_with_crop_or_pad/crop_to_bounding_box/assert_greater_equal/Assert/Assert/data_4"
  op: "Const"
  attr {
    key: "dtype"
    value {
      type: DT_STRING
    }
  }
  attr {
    key: "value"
    value {
      tensor {
        dtype: DT_STRING
        tensor_shape {
        }
        string_val: "y (data/resize_image_with_crop_or_pad/crop_to_bounding_box/assert_greater_equal/y:0) = "
      }
    }
  }
}
node {
  name: "data/resize_image_with_crop_or_pad/crop_to_bounding_box/assert_greater_equal/Assert/Assert"
  op: "Assert"
  input: "data/resize_image_with_crop_or_pad/crop_to_bounding_box/assert_greater_equal/All"
  input: "data/resize_image_with_crop_or_pad/crop_to_bounding_box/assert_greater_equal/Assert/Assert/data_0"
  input: "data/resize_image_with_crop_or_pad/crop_to_bounding_box/assert_greater_equal/Assert/Assert/data_1"
  input: "data/resize_image_with_crop_or_pad/crop_to_bounding_box/assert_greater_equal/Assert/Assert/data_2"
  input: "data/resize_image_with_crop_or_pad/crop_to_bounding_box/Rank"
  input: "data/resize_image_with_crop_or_pad/crop_to_bounding_box/assert_greater_equal/Assert/Assert/data_4"
  input: "data/resize_image_with_crop_or_pad/crop_to_bounding_box/assert_greater_equal/y"
  attr {
    key: "T"
    value {
      list {
        type: DT_STRING
        type: DT_STRING
        type: DT_STRING
        type: DT_INT32
        type: DT_STRING
        type: DT_INT32
      }
    }
  }
  attr {
    key: "_has_manual_control_dependencies"
    value {
      b: true
    }
  }
  attr {
    key: "summarize"
    value {
      i: 3
    }
  }
}
node {
  name: "data/resize_image_with_crop_or_pad/crop_to_bounding_box/Shape_1"
  op: "Shape"
  input: "data/resize_image_with_crop_or_pad/control_dependency"
  attr {
    key: "T"
    value {
      type: DT_FLOAT
    }
  }
  attr {
    key: "out_type"
    value {
      type: DT_INT32
    }
  }
}
node {
  name: "data/resize_image_with_crop_or_pad/crop_to_bounding_box/unstack"
  op: "Unpack"
  input: "data/resize_image_with_crop_or_pad/crop_to_bounding_box/Shape_1"
  attr {
    key: "T"
    value {
      type: DT_INT32
    }
  }
  attr {
    key: "axis"
    value {
      i: 0
    }
  }
  attr {
    key: "num"
    value {
      i: 4
    }
  }
}
node {
  name: "data/resize_image_with_crop_or_pad/crop_to_bounding_box/GreaterEqual/y"
  op: "Const"
  attr {
    key: "dtype"
    value {
      type: DT_INT32
    }
  }
  attr {
    key: "value"
    value {
      tensor {
        dtype: DT_INT32
        tensor_shape {
        }
        int_val: 0
      }
    }
  }
}
node {
  name: "data/resize_image_with_crop_or_pad/crop_to_bounding_box/GreaterEqual"
  op: "GreaterEqual"
  input: "data/resize_image_with_crop_or_pad/Maximum"
  input: "data/resize_image_with_crop_or_pad/crop_to_bounding_box/GreaterEqual/y"
  attr {
    key: "T"
    value {
      type: DT_INT32
    }
  }
}
node {
  name: "data/resize_image_with_crop_or_pad/crop_to_bounding_box/Assert/Const"
  op: "Const"
  attr {
    key: "dtype"
    value {
      type: DT_STRING
    }
  }
  attr {
    key: "value"
    value {
      tensor {
        dtype: DT_STRING
        tensor_shape {
        }
        string_val: "offset_height must be >= 0."
      }
    }
  }
}
node {
  name: "data/resize_image_with_crop_or_pad/crop_to_bounding_box/Assert/Assert/data_0"
  op: "Const"
  attr {
    key: "dtype"
    value {
      type: DT_STRING
    }
  }
  attr {
    key: "value"
    value {
      tensor {
        dtype: DT_STRING
        tensor_shape {
        }
        string_val: "offset_height must be >= 0."
      }
    }
  }
}
node {
  name: "data/resize_image_with_crop_or_pad/crop_to_bounding_box/Assert/Assert"
  op: "Assert"
  input: "data/resize_image_with_crop_or_pad/crop_to_bounding_box/GreaterEqual"
  input: "data/resize_image_with_crop_or_pad/crop_to_bounding_box/Assert/Assert/data_0"
  attr {
    key: "T"
    value {
      list {
        type: DT_STRING
      }
    }
  }
  attr {
    key: "_has_manual_control_dependencies"
    value {
      b: true
    }
  }
  attr {
    key: "summarize"
    value {
      i: 3
    }
  }
}
node {
  name: "data/resize_image_with_crop_or_pad/crop_to_bounding_box/Greater/y"
  op: "Const"
  attr {
    key: "dtype"
    value {
      type: DT_INT32
    }
  }
  attr {
    key: "value"
    value {
      tensor {
        dtype: DT_INT32
        tensor_shape {
        }
        int_val: 0
      }
    }
  }
}
node {
  name: "data/resize_image_with_crop_or_pad/crop_to_bounding_box/Greater"
  op: "Greater"
  input: "data/resize_image_with_crop_or_pad/Minimum"
  input: "data/resize_image_with_crop_or_pad/crop_to_bounding_box/Greater/y"
  attr {
    key: "T"
    value {
      type: DT_INT32
    }
  }
}
node {
  name: "data/resize_image_with_crop_or_pad/crop_to_bounding_box/Assert_1/Const"
  op: "Const"
  attr {
    key: "dtype"
    value {
      type: DT_STRING
    }
  }
  attr {
    key: "value"
    value {
      tensor {
        dtype: DT_STRING
        tensor_shape {
        }
        string_val: "target_height must be > 0."
      }
    }
  }
}
node {
  name: "data/resize_image_with_crop_or_pad/crop_to_bounding_box/Assert_1/Assert/data_0"
  op: "Const"
  attr {
    key: "dtype"
    value {
      type: DT_STRING
    }
  }
  attr {
    key: "value"
    value {
      tensor {
        dtype: DT_STRING
        tensor_shape {
        }
        string_val: "target_height must be > 0."
      }
    }
  }
}
node {
  name: "data/resize_image_with_crop_or_pad/crop_to_bounding_box/Assert_1/Assert"
  op: "Assert"
  input: "data/resize_image_with_crop_or_pad/crop_to_bounding_box/Greater"
  input: "data/resize_image_with_crop_or_pad/crop_to_bounding_box/Assert_1/Assert/data_0"
  attr {
    key: "T"
    value {
      list {
        type: DT_STRING
      }
    }
  }
  attr {
    key: "_has_manual_control_dependencies"
    value {
      b: true
    }
  }
  attr {
    key: "summarize"
    value {
      i: 3
    }
  }
}
node {
  name: "data/resize_image_with_crop_or_pad/crop_to_bounding_box/add"
  op: "AddV2"
  input: "data/resize_image_with_crop_or_pad/Minimum"
  input: "data/resize_image_with_crop_or_pad/Maximum"
  attr {
    key: "T"
    value {
      type: DT_INT32
    }
  }
}
node {
  name: "data/resize_image_with_crop_or_pad/crop_to_bounding_box/GreaterEqual_1"
  op: "GreaterEqual"
  input: "data/resize_image_with_crop_or_pad/crop_to_bounding_box/unstack:1"
  input: "data/resize_image_with_crop_or_pad/crop_to_bounding_box/add"
  attr {
    key: "T"
    value {
      type: DT_INT32
    }
  }
}
node {
  name: "data/resize_image_with_crop_or_pad/crop_to_bounding_box/Assert_2/Const"
  op: "Const"
  attr {
    key: "dtype"
    value {
      type: DT_STRING
    }
  }
  attr {
    key: "value"
    value {
      tensor {
        dtype: DT_STRING
        tensor_shape {
        }
        string_val: "height must be >= target + offset."
      }
    }
  }
}
node {
  name: "data/resize_image_with_crop_or_pad/crop_to_bounding_box/Assert_2/Assert/data_0"
  op: "Const"
  attr {
    key: "dtype"
    value {
      type: DT_STRING
    }
  }
  attr {
    key: "value"
    value {
      tensor {
        dtype: DT_STRING
        tensor_shape {
        }
        string_val: "height must be >= target + offset."
      }
    }
  }
}
node {
  name: "data/resize_image_with_crop_or_pad/crop_to_bounding_box/Assert_2/Assert"
  op: "Assert"
  input: "data/resize_image_with_crop_or_pad/crop_to_bounding_box/GreaterEqual_1"
  input: "data/resize_image_with_crop_or_pad/crop_to_bounding_box/Assert_2/Assert/data_0"
  attr {
    key: "T"
    value {
      list {
        type: DT_STRING
      }
    }
  }
  attr {
    key: "_has_manual_control_dependencies"
    value {
      b: true
    }
  }
  attr {
    key: "summarize"
    value {
      i: 3
    }
  }
}
node {
  name: "data/resize_image_with_crop_or_pad/crop_to_bounding_box/control_dependency"
  op: "Identity"
  input: "data/resize_image_with_crop_or_pad/control_dependency"
  input: "^data/resize_image_with_crop_or_pad/crop_to_bounding_box/Assert/Assert"
  input: "^data/resize_image_with_crop_or_pad/crop_to_bounding_box/Assert_1/Assert"
  input: "^data/resize_image_with_crop_or_pad/crop_to_bounding_box/Assert_2/Assert"
  input: "^data/resize_image_with_crop_or_pad/crop_to_bounding_box/assert_greater_equal/Assert/Assert"
  input: "^data/resize_image_with_crop_or_pad/crop_to_bounding_box/assert_positive/assert_less/Assert/Assert"
  attr {
    key: "T"
    value {
      type: DT_FLOAT
    }
  }
  attr {
    key: "_class"
    value {
      list {
        s: "loc:@data/resize/ResizeBilinear"
      }
    }
  }
}
node {
  name: "data/resize_image_with_crop_or_pad/crop_to_bounding_box/stack/0"
  op: "Const"
  attr {
    key: "dtype"
    value {
      type: DT_INT32
    }
  }
  attr {
    key: "value"
    value {
      tensor {
        dtype: DT_INT32
        tensor_shape {
        }
        int_val: 0
      }
    }
  }
}
node {
  name: "data/resize_image_with_crop_or_pad/crop_to_bounding_box/stack/2"
  op: "Const"
  attr {
    key: "dtype"
    value {
      type: DT_INT32
    }
  }
  attr {
    key: "value"
    value {
      tensor {
        dtype: DT_INT32
        tensor_shape {
        }
        int_val: 0
      }
    }
  }
}
node {
  name: "data/resize_image_with_crop_or_pad/crop_to_bounding_box/stack/3"
  op: "Const"
  attr {
    key: "dtype"
    value {
      type: DT_INT32
    }
  }
  attr {
    key: "value"
    value {
      tensor {
        dtype: DT_INT32
        tensor_shape {
        }
        int_val: 0
      }
    }
  }
}
node {
  name: "data/resize_image_with_crop_or_pad/crop_to_bounding_box/stack"
  op: "Pack"
  input: "data/resize_image_with_crop_or_pad/crop_to_bounding_box/stack/0"
  input: "data/resize_image_with_crop_or_pad/Maximum"
  input: "data/resize_image_with_crop_or_pad/crop_to_bounding_box/stack/2"
  input: "data/resize_image_with_crop_or_pad/crop_to_bounding_box/stack/3"
  attr {
    key: "N"
    value {
      i: 4
    }
  }
  attr {
    key: "T"
    value {
      type: DT_INT32
    }
  }
  attr {
    key: "axis"
    value {
      i: 0
    }
  }
}
node {
  name: "data/resize_image_with_crop_or_pad/crop_to_bounding_box/Shape_2"
  op: "Shape"
  input: "data/resize_image_with_crop_or_pad/crop_to_bounding_box/control_dependency"
  attr {
    key: "T"
    value {
      type: DT_FLOAT
    }
  }
  attr {
    key: "out_type"
    value {
      type: DT_INT32
    }
  }
}
node {
  name: "data/resize_image_with_crop_or_pad/crop_to_bounding_box/strided_slice_1/stack"
  op: "Const"
  attr {
    key: "dtype"
    value {
      type: DT_INT32
    }
  }
  attr {
    key: "value"
    value {
      tensor {
        dtype: DT_INT32
        tensor_shape {
          dim {
            size: 1
          }
        }
        int_val: 0
      }
    }
  }
}
node {
  name: "data/resize_image_with_crop_or_pad/crop_to_bounding_box/strided_slice_1/stack_1"
  op: "Const"
  attr {
    key: "dtype"
    value {
      type: DT_INT32
    }
  }
  attr {
    key: "value"
    value {
      tensor {
        dtype: DT_INT32
        tensor_shape {
          dim {
            size: 1
          }
        }
        int_val: 1
      }
    }
  }
}
node {
  name: "data/resize_image_with_crop_or_pad/crop_to_bounding_box/strided_slice_1/stack_2"
  op: "Const"
  attr {
    key: "dtype"
    value {
      type: DT_INT32
    }
  }
  attr {
    key: "value"
    value {
      tensor {
        dtype: DT_INT32
        tensor_shape {
          dim {
            size: 1
          }
        }
        int_val: 1
      }
    }
  }
}
node {
  name: "data/resize_image_with_crop_or_pad/crop_to_bounding_box/strided_slice_1"
  op: "StridedSlice"
  input: "data/resize_image_with_crop_or_pad/crop_to_bounding_box/Shape_2"
  input: "data/resize_image_with_crop_or_pad/crop_to_bounding_box/strided_slice_1/stack"
  input: "data/resize_image_with_crop_or_pad/crop_to_bounding_box/strided_slice_1/stack_1"
  input: "data/resize_image_with_crop_or_pad/crop_to_bounding_box/strided_slice_1/stack_2"
  attr {
    key: "Index"
    value {
      type: DT_INT32
    }
  }
  attr {
    key: "T"
    value {
      type: DT_INT32
    }
  }
  attr {
    key: "begin_mask"
    value {
      i: 0
    }
  }
  attr {
    key: "ellipsis_mask"
    value {
      i: 0
    }
  }
  attr {
    key: "end_mask"
    value {
      i: 0
    }
  }
  attr {
    key: "new_axis_mask"
    value {
      i: 0
    }
  }
  attr {
    key: "shrink_axis_mask"
    value {
      i: 1
    }
  }
}
node {
  name: "data/resize_image_with_crop_or_pad/crop_to_bounding_box/Shape_3"
  op: "Shape"
  input: "data/resize_image_with_crop_or_pad/crop_to_bounding_box/control_dependency"
  attr {
    key: "T"
    value {
      type: DT_FLOAT
    }
  }
  attr {
    key: "out_type"
    value {
      type: DT_INT32
    }
  }
}
node {
  name: "data/resize_image_with_crop_or_pad/crop_to_bounding_box/strided_slice_2/stack"
  op: "Const"
  attr {
    key: "dtype"
    value {
      type: DT_INT32
    }
  }
  attr {
    key: "value"
    value {
      tensor {
        dtype: DT_INT32
        tensor_shape {
          dim {
            size: 1
          }
        }
        int_val: 3
      }
    }
  }
}
node {
  name: "data/resize_image_with_crop_or_pad/crop_to_bounding_box/strided_slice_2/stack_1"
  op: "Const"
  attr {
    key: "dtype"
    value {
      type: DT_INT32
    }
  }
  attr {
    key: "value"
    value {
      tensor {
        dtype: DT_INT32
        tensor_shape {
          dim {
            size: 1
          }
        }
        int_val: 4
      }
    }
  }
}
node {
  name: "data/resize_image_with_crop_or_pad/crop_to_bounding_box/strided_slice_2/stack_2"
  op: "Const"
  attr {
    key: "dtype"
    value {
      type: DT_INT32
    }
  }
  attr {
    key: "value"
    value {
      tensor {
        dtype: DT_INT32
        tensor_shape {
          dim {
            size: 1
          }
        }
        int_val: 1
      }
    }
  }
}
node {
  name: "data/resize_image_with_crop_or_pad/crop_to_bounding_box/strided_slice_2"
  op: "StridedSlice"
  input: "data/resize_image_with_crop_or_pad/crop_to_bounding_box/Shape_3"
  input: "data/resize_image_with_crop_or_pad/crop_to_bounding_box/strided_slice_2/stack"
  input: "data/resize_image_with_crop_or_pad/crop_to_bounding_box/strided_slice_2/stack_1"
  input: "data/resize_image_with_crop_or_pad/crop_to_bounding_box/strided_slice_2/stack_2"
  attr {
    key: "Index"
    value {
      type: DT_INT32
    }
  }
  attr {
    key: "T"
    value {
      type: DT_INT32
    }
  }
  attr {
    key: "begin_mask"
    value {
      i: 0
    }
  }
  attr {
    key: "ellipsis_mask"
    value {
      i: 0
    }
  }
  attr {
    key: "end_mask"
    value {
      i: 0
    }
  }
  attr {
    key: "new_axis_mask"
    value {
      i: 0
    }
  }
  attr {
    key: "shrink_axis_mask"
    value {
      i: 1
    }
  }
}
node {
  name: "data/resize_image_with_crop_or_pad/crop_to_bounding_box/stack_1/2"
  op: "Const"
  attr {
    key: "dtype"
    value {
      type: DT_INT32
    }
  }
  attr {
    key: "value"
    value {
      tensor {
        dtype: DT_INT32
        tensor_shape {
        }
        int_val: 1
      }
    }
  }
}
node {
  name: "data/resize_image_with_crop_or_pad/crop_to_bounding_box/stack_1"
  op: "Pack"
  input: "data/resize_image_with_crop_or_pad/crop_to_bounding_box/strided_slice_1"
  input: "data/resize_image_with_crop_or_pad/Minimum"
  input: "data/resize_image_with_crop_or_pad/crop_to_bounding_box/stack_1/2"
  input: "data/resize_image_with_crop_or_pad/crop_to_bounding_box/strided_slice_2"
  attr {
    key: "N"
    value {
      i: 4
    }
  }
  attr {
    key: "T"
    value {
      type: DT_INT32
    }
  }
  attr {
    key: "axis"
    value {
      i: 0
    }
  }
}
node {
  name: "data/resize_image_with_crop_or_pad/crop_to_bounding_box/Slice"
  op: "Slice"
  input: "data/resize_image_with_crop_or_pad/crop_to_bounding_box/control_dependency"
  input: "data/resize_image_with_crop_or_pad/crop_to_bounding_box/stack"
  input: "data/resize_image_with_crop_or_pad/crop_to_bounding_box/stack_1"
  attr {
    key: "Index"
    value {
      type: DT_INT32
    }
  }
  attr {
    key: "T"
    value {
      type: DT_FLOAT
    }
  }
}
node {
  name: "data/resize_image_with_crop_or_pad/pad_to_bounding_box/Shape"
  op: "Shape"
  input: "data/resize_image_with_crop_or_pad/crop_to_bounding_box/Slice"
  attr {
    key: "T"
    value {
      type: DT_FLOAT
    }
  }
  attr {
    key: "out_type"
    value {
      type: DT_INT32
    }
  }
}
node {
  name: "data/resize_image_with_crop_or_pad/pad_to_bounding_box/unstack"
  op: "Unpack"
  input: "data/resize_image_with_crop_or_pad/pad_to_bounding_box/Shape"
  attr {
    key: "T"
    value {
      type: DT_INT32
    }
  }
  attr {
    key: "axis"
    value {
      i: 0
    }
  }
  attr {
    key: "num"
    value {
      i: 4
    }
  }
}
node {
  name: "data/resize_image_with_crop_or_pad/pad_to_bounding_box/sub/x"
  op: "Const"
  attr {
    key: "dtype"
    value {
      type: DT_INT32
    }
  }
  attr {
    key: "value"
    value {
      tensor {
        dtype: DT_INT32
        tensor_shape {
        }
        int_val: 16000
      }
    }
  }
}
node {
  name: "data/resize_image_with_crop_or_pad/pad_to_bounding_box/sub"
  op: "Sub"
  input: "data/resize_image_with_crop_or_pad/pad_to_bounding_box/sub/x"
  input: "data/resize_image_with_crop_or_pad/Maximum_1"
  attr {
    key: "T"
    value {
      type: DT_INT32
    }
  }
}
node {
  name: "data/resize_image_with_crop_or_pad/pad_to_bounding_box/sub_1"
  op: "Sub"
  input: "data/resize_image_with_crop_or_pad/pad_to_bounding_box/sub"
  input: "data/resize_image_with_crop_or_pad/pad_to_bounding_box/unstack:1"
  attr {
    key: "T"
    value {
      type: DT_INT32
    }
  }
}
node {
  name: "data/resize_image_with_crop_or_pad/pad_to_bounding_box/Shape_1"
  op: "Shape"
  input: "data/resize_image_with_crop_or_pad/crop_to_bounding_box/Slice"
  attr {
    key: "T"
    value {
      type: DT_FLOAT
    }
  }
  attr {
    key: "out_type"
    value {
      type: DT_INT32
    }
  }
}
node {
  name: "data/resize_image_with_crop_or_pad/pad_to_bounding_box/strided_slice/stack"
  op: "Const"
  attr {
    key: "dtype"
    value {
      type: DT_INT32
    }
  }
  attr {
    key: "value"
    value {
      tensor {
        dtype: DT_INT32
        tensor_shape {
          dim {
            size: 1
          }
        }
        int_val: -3
      }
    }
  }
}
node {
  name: "data/resize_image_with_crop_or_pad/pad_to_bounding_box/strided_slice/stack_1"
  op: "Const"
  attr {
    key: "dtype"
    value {
      type: DT_INT32
    }
  }
  attr {
    key: "value"
    value {
      tensor {
        dtype: DT_INT32
        tensor_shape {
          dim {
            size: 1
          }
        }
        int_val: 0
      }
    }
  }
}
node {
  name: "data/resize_image_with_crop_or_pad/pad_to_bounding_box/strided_slice/stack_2"
  op: "Const"
  attr {
    key: "dtype"
    value {
      type: DT_INT32
    }
  }
  attr {
    key: "value"
    value {
      tensor {
        dtype: DT_INT32
        tensor_shape {
          dim {
            size: 1
          }
        }
        int_val: 1
      }
    }
  }
}
node {
  name: "data/resize_image_with_crop_or_pad/pad_to_bounding_box/strided_slice"
  op: "StridedSlice"
  input: "data/resize_image_with_crop_or_pad/pad_to_bounding_box/Shape_1"
  input: "data/resize_image_with_crop_or_pad/pad_to_bounding_box/strided_slice/stack"
  input: "data/resize_image_with_crop_or_pad/pad_to_bounding_box/strided_slice/stack_1"
  input: "data/resize_image_with_crop_or_pad/pad_to_bounding_box/strided_slice/stack_2"
  attr {
    key: "Index"
    value {
      type: DT_INT32
    }
  }
  attr {
    key: "T"
    value {
      type: DT_INT32
    }
  }
  attr {
    key: "begin_mask"
    value {
      i: 0
    }
  }
  attr {
    key: "ellipsis_mask"
    value {
      i: 0
    }
  }
  attr {
    key: "end_mask"
    value {
      i: 1
    }
  }
  attr {
    key: "new_axis_mask"
    value {
      i: 0
    }
  }
  attr {
    key: "shrink_axis_mask"
    value {
      i: 0
    }
  }
}
node {
  name: "data/resize_image_with_crop_or_pad/pad_to_bounding_box/assert_positive/Const"
  op: "Const"
  attr {
    key: "dtype"
    value {
      type: DT_INT32
    }
  }
  attr {
    key: "value"
    value {
      tensor {
        dtype: DT_INT32
        tensor_shape {
        }
        int_val: 0
      }
    }
  }
}
node {
  name: "data/resize_image_with_crop_or_pad/pad_to_bounding_box/assert_positive/assert_less/Less"
  op: "Less"
  input: "data/resize_image_with_crop_or_pad/pad_to_bounding_box/assert_positive/Const"
  input: "data/resize_image_with_crop_or_pad/pad_to_bounding_box/strided_slice"
  attr {
    key: "T"
    value {
      type: DT_INT32
    }
  }
}
node {
  name: "data/resize_image_with_crop_or_pad/pad_to_bounding_box/assert_positive/assert_less/Const"
  op: "Const"
  attr {
    key: "dtype"
    value {
      type: DT_INT32
    }
  }
  attr {
    key: "value"
    value {
      tensor {
        dtype: DT_INT32
        tensor_shape {
          dim {
            size: 1
          }
        }
        int_val: 0
      }
    }
  }
}
node {
  name: "data/resize_image_with_crop_or_pad/pad_to_bounding_box/assert_positive/assert_less/All"
  op: "All"
  input: "data/resize_image_with_crop_or_pad/pad_to_bounding_box/assert_positive/assert_less/Less"
  input: "data/resize_image_with_crop_or_pad/pad_to_bounding_box/assert_positive/assert_less/Const"
  attr {
    key: "Tidx"
    value {
      type: DT_INT32
    }
  }
  attr {
    key: "keep_dims"
    value {
      b: false
    }
  }
}
node {
  name: "data/resize_image_with_crop_or_pad/pad_to_bounding_box/assert_positive/assert_less/Assert/Const"
  op: "Const"
  attr {
    key: "dtype"
    value {
      type: DT_STRING
    }
  }
  attr {
    key: "value"
    value {
      tensor {
        dtype: DT_STRING
        tensor_shape {
        }
        string_val: "inner 3 dims of \'image.shape\' must be > 0."
      }
    }
  }
}
node {
  name: "data/resize_image_with_crop_or_pad/pad_to_bounding_box/assert_positive/assert_less/Assert/Assert/data_0"
  op: "Const"
  attr {
    key: "dtype"
    value {
      type: DT_STRING
    }
  }
  attr {
    key: "value"
    value {
      tensor {
        dtype: DT_STRING
        tensor_shape {
        }
        string_val: "inner 3 dims of \'image.shape\' must be > 0."
      }
    }
  }
}
node {
  name: "data/resize_image_with_crop_or_pad/pad_to_bounding_box/assert_positive/assert_less/Assert/Assert"
  op: "Assert"
  input: "data/resize_image_with_crop_or_pad/pad_to_bounding_box/assert_positive/assert_less/All"
  input: "data/resize_image_with_crop_or_pad/pad_to_bounding_box/assert_positive/assert_less/Assert/Assert/data_0"
  attr {
    key: "T"
    value {
      list {
        type: DT_STRING
      }
    }
  }
  attr {
    key: "_has_manual_control_dependencies"
    value {
      b: true
    }
  }
  attr {
    key: "summarize"
    value {
      i: 3
    }
  }
}
node {
  name: "data/resize_image_with_crop_or_pad/pad_to_bounding_box/Rank"
  op: "Const"
  attr {
    key: "dtype"
    value {
      type: DT_INT32
    }
  }
  attr {
    key: "value"
    value {
      tensor {
        dtype: DT_INT32
        tensor_shape {
        }
        int_val: 4
      }
    }
  }
}
node {
  name: "data/resize_image_with_crop_or_pad/pad_to_bounding_box/assert_greater_equal/y"
  op: "Const"
  attr {
    key: "dtype"
    value {
      type: DT_INT32
    }
  }
  attr {
    key: "value"
    value {
      tensor {
        dtype: DT_INT32
        tensor_shape {
        }
        int_val: 3
      }
    }
  }
}
node {
  name: "data/resize_image_with_crop_or_pad/pad_to_bounding_box/assert_greater_equal/GreaterEqual"
  op: "GreaterEqual"
  input: "data/resize_image_with_crop_or_pad/pad_to_bounding_box/Rank"
  input: "data/resize_image_with_crop_or_pad/pad_to_bounding_box/assert_greater_equal/y"
  attr {
    key: "T"
    value {
      type: DT_INT32
    }
  }
}
node {
  name: "data/resize_image_with_crop_or_pad/pad_to_bounding_box/assert_greater_equal/Rank"
  op: "Const"
  attr {
    key: "dtype"
    value {
      type: DT_INT32
    }
  }
  attr {
    key: "value"
    value {
      tensor {
        dtype: DT_INT32
        tensor_shape {
        }
        int_val: 0
      }
    }
  }
}
node {
  name: "data/resize_image_with_crop_or_pad/pad_to_bounding_box/assert_greater_equal/range/start"
  op: "Const"
  attr {
    key: "dtype"
    value {
      type: DT_INT32
    }
  }
  attr {
    key: "value"
    value {
      tensor {
        dtype: DT_INT32
        tensor_shape {
        }
        int_val: 0
      }
    }
  }
}
node {
  name: "data/resize_image_with_crop_or_pad/pad_to_bounding_box/assert_greater_equal/range/delta"
  op: "Const"
  attr {
    key: "dtype"
    value {
      type: DT_INT32
    }
  }
  attr {
    key: "value"
    value {
      tensor {
        dtype: DT_INT32
        tensor_shape {
        }
        int_val: 1
      }
    }
  }
}
node {
  name: "data/resize_image_with_crop_or_pad/pad_to_bounding_box/assert_greater_equal/range"
  op: "Range"
  input: "data/resize_image_with_crop_or_pad/pad_to_bounding_box/assert_greater_equal/range/start"
  input: "data/resize_image_with_crop_or_pad/pad_to_bounding_box/assert_greater_equal/Rank"
  input: "data/resize_image_with_crop_or_pad/pad_to_bounding_box/assert_greater_equal/range/delta"
  attr {
    key: "Tidx"
    value {
      type: DT_INT32
    }
  }
}
node {
  name: "data/resize_image_with_crop_or_pad/pad_to_bounding_box/assert_greater_equal/All"
  op: "All"
  input: "data/resize_image_with_crop_or_pad/pad_to_bounding_box/assert_greater_equal/GreaterEqual"
  input: "data/resize_image_with_crop_or_pad/pad_to_bounding_box/assert_greater_equal/range"
  attr {
    key: "Tidx"
    value {
      type: DT_INT32
    }
  }
  attr {
    key: "keep_dims"
    value {
      b: false
    }
  }
}
node {
  name: "data/resize_image_with_crop_or_pad/pad_to_bounding_box/assert_greater_equal/Assert/Const"
  op: "Const"
  attr {
    key: "dtype"
    value {
      type: DT_STRING
    }
  }
  attr {
    key: "value"
    value {
      tensor {
        dtype: DT_STRING
        tensor_shape {
        }
        string_val: "\'image\' must be at least three-dimensional."
      }
    }
  }
}
node {
  name: "data/resize_image_with_crop_or_pad/pad_to_bounding_box/assert_greater_equal/Assert/Const_1"
  op: "Const"
  attr {
    key: "dtype"
    value {
      type: DT_STRING
    }
  }
  attr {
    key: "value"
    value {
      tensor {
        dtype: DT_STRING
        tensor_shape {
        }
        string_val: "Condition x >= y did not hold element-wise:"
      }
    }
  }
}
node {
  name: "data/resize_image_with_crop_or_pad/pad_to_bounding_box/assert_greater_equal/Assert/Const_2"
  op: "Const"
  attr {
    key: "dtype"
    value {
      type: DT_STRING
    }
  }
  attr {
    key: "value"
    value {
      tensor {
        dtype: DT_STRING
        tensor_shape {
        }
        string_val: "x (data/resize_image_with_crop_or_pad/pad_to_bounding_box/Rank:0) = "
      }
    }
  }
}
node {
  name: "data/resize_image_with_crop_or_pad/pad_to_bounding_box/assert_greater_equal/Assert/Const_3"
  op: "Const"
  attr {
    key: "dtype"
    value {
      type: DT_STRING
    }
  }
  attr {
    key: "value"
    value {
      tensor {
        dtype: DT_STRING
        tensor_shape {
        }
        string_val: "y (data/resize_image_with_crop_or_pad/pad_to_bounding_box/assert_greater_equal/y:0) = "
      }
    }
  }
}
node {
  name: "data/resize_image_with_crop_or_pad/pad_to_bounding_box/assert_greater_equal/Assert/Assert/data_0"
  op: "Const"
  attr {
    key: "dtype"
    value {
      type: DT_STRING
    }
  }
  attr {
    key: "value"
    value {
      tensor {
        dtype: DT_STRING
        tensor_shape {
        }
        string_val: "\'image\' must be at least three-dimensional."
      }
    }
  }
}
node {
  name: "data/resize_image_with_crop_or_pad/pad_to_bounding_box/assert_greater_equal/Assert/Assert/data_1"
  op: "Const"
  attr {
    key: "dtype"
    value {
      type: DT_STRING
    }
  }
  attr {
    key: "value"
    value {
      tensor {
        dtype: DT_STRING
        tensor_shape {
        }
        string_val: "Condition x >= y did not hold element-wise:"
      }
    }
  }
}
node {
  name: "data/resize_image_with_crop_or_pad/pad_to_bounding_box/assert_greater_equal/Assert/Assert/data_2"
  op: "Const"
  attr {
    key: "dtype"
    value {
      type: DT_STRING
    }
  }
  attr {
    key: "value"
    value {
      tensor {
        dtype: DT_STRING
        tensor_shape {
        }
        string_val: "x (data/resize_image_with_crop_or_pad/pad_to_bounding_box/Rank:0) = "
      }
    }
  }
}
node {
  name: "data/resize_image_with_crop_or_pad/pad_to_bounding_box/assert_greater_equal/Assert/Assert/data_4"
  op: "Const"
  attr {
    key: "dtype"
    value {
      type: DT_STRING
    }
  }
  attr {
    key: "value"
    value {
      tensor {
        dtype: DT_STRING
        tensor_shape {
        }
        string_val: "y (data/resize_image_with_crop_or_pad/pad_to_bounding_box/assert_greater_equal/y:0) = "
      }
    }
  }
}
node {
  name: "data/resize_image_with_crop_or_pad/pad_to_bounding_box/assert_greater_equal/Assert/Assert"
  op: "Assert"
  input: "data/resize_image_with_crop_or_pad/pad_to_bounding_box/assert_greater_equal/All"
  input: "data/resize_image_with_crop_or_pad/pad_to_bounding_box/assert_greater_equal/Assert/Assert/data_0"
  input: "data/resize_image_with_crop_or_pad/pad_to_bounding_box/assert_greater_equal/Assert/Assert/data_1"
  input: "data/resize_image_with_crop_or_pad/pad_to_bounding_box/assert_greater_equal/Assert/Assert/data_2"
  input: "data/resize_image_with_crop_or_pad/pad_to_bounding_box/Rank"
  input: "data/resize_image_with_crop_or_pad/pad_to_bounding_box/assert_greater_equal/Assert/Assert/data_4"
  input: "data/resize_image_with_crop_or_pad/pad_to_bounding_box/assert_greater_equal/y"
  attr {
    key: "T"
    value {
      list {
        type: DT_STRING
        type: DT_STRING
        type: DT_STRING
        type: DT_INT32
        type: DT_STRING
        type: DT_INT32
      }
    }
  }
  attr {
    key: "_has_manual_control_dependencies"
    value {
      b: true
    }
  }
  attr {
    key: "summarize"
    value {
      i: 3
    }
  }
}
node {
  name: "data/resize_image_with_crop_or_pad/pad_to_bounding_box/GreaterEqual/y"
  op: "Const"
  attr {
    key: "dtype"
    value {
      type: DT_INT32
    }
  }
  attr {
    key: "value"
    value {
      tensor {
        dtype: DT_INT32
        tensor_shape {
        }
        int_val: 0
      }
    }
  }
}
node {
  name: "data/resize_image_with_crop_or_pad/pad_to_bounding_box/GreaterEqual"
  op: "GreaterEqual"
  input: "data/resize_image_with_crop_or_pad/Maximum_1"
  input: "data/resize_image_with_crop_or_pad/pad_to_bounding_box/GreaterEqual/y"
  attr {
    key: "T"
    value {
      type: DT_INT32
    }
  }
}
node {
  name: "data/resize_image_with_crop_or_pad/pad_to_bounding_box/Assert/Const"
  op: "Const"
  attr {
    key: "dtype"
    value {
      type: DT_STRING
    }
  }
  attr {
    key: "value"
    value {
      tensor {
        dtype: DT_STRING
        tensor_shape {
        }
        string_val: "offset_height must be >= 0"
      }
    }
  }
}
node {
  name: "data/resize_image_with_crop_or_pad/pad_to_bounding_box/Assert/Assert/data_0"
  op: "Const"
  attr {
    key: "dtype"
    value {
      type: DT_STRING
    }
  }
  attr {
    key: "value"
    value {
      tensor {
        dtype: DT_STRING
        tensor_shape {
        }
        string_val: "offset_height must be >= 0"
      }
    }
  }
}
node {
  name: "data/resize_image_with_crop_or_pad/pad_to_bounding_box/Assert/Assert"
  op: "Assert"
  input: "data/resize_image_with_crop_or_pad/pad_to_bounding_box/GreaterEqual"
  input: "data/resize_image_with_crop_or_pad/pad_to_bounding_box/Assert/Assert/data_0"
  attr {
    key: "T"
    value {
      list {
        type: DT_STRING
      }
    }
  }
  attr {
    key: "_has_manual_control_dependencies"
    value {
      b: true
    }
  }
  attr {
    key: "summarize"
    value {
      i: 3
    }
  }
}
node {
  name: "data/resize_image_with_crop_or_pad/pad_to_bounding_box/GreaterEqual_1/y"
  op: "Const"
  attr {
    key: "dtype"
    value {
      type: DT_INT32
    }
  }
  attr {
    key: "value"
    value {
      tensor {
        dtype: DT_INT32
        tensor_shape {
        }
        int_val: 0
      }
    }
  }
}
node {
  name: "data/resize_image_with_crop_or_pad/pad_to_bounding_box/GreaterEqual_1"
  op: "GreaterEqual"
  input: "data/resize_image_with_crop_or_pad/pad_to_bounding_box/sub_1"
  input: "data/resize_image_with_crop_or_pad/pad_to_bounding_box/GreaterEqual_1/y"
  attr {
    key: "T"
    value {
      type: DT_INT32
    }
  }
}
node {
  name: "data/resize_image_with_crop_or_pad/pad_to_bounding_box/Assert_1/Const"
  op: "Const"
  attr {
    key: "dtype"
    value {
      type: DT_STRING
    }
  }
  attr {
    key: "value"
    value {
      tensor {
        dtype: DT_STRING
        tensor_shape {
        }
        string_val: "height must be <= target - offset"
      }
    }
  }
}
node {
  name: "data/resize_image_with_crop_or_pad/pad_to_bounding_box/Assert_1/Assert/data_0"
  op: "Const"
  attr {
    key: "dtype"
    value {
      type: DT_STRING
    }
  }
  attr {
    key: "value"
    value {
      tensor {
        dtype: DT_STRING
        tensor_shape {
        }
        string_val: "height must be <= target - offset"
      }
    }
  }
}
node {
  name: "data/resize_image_with_crop_or_pad/pad_to_bounding_box/Assert_1/Assert"
  op: "Assert"
  input: "data/resize_image_with_crop_or_pad/pad_to_bounding_box/GreaterEqual_1"
  input: "data/resize_image_with_crop_or_pad/pad_to_bounding_box/Assert_1/Assert/data_0"
  attr {
    key: "T"
    value {
      list {
        type: DT_STRING
      }
    }
  }
  attr {
    key: "_has_manual_control_dependencies"
    value {
      b: true
    }
  }
  attr {
    key: "summarize"
    value {
      i: 3
    }
  }
}
node {
  name: "data/resize_image_with_crop_or_pad/pad_to_bounding_box/control_dependency"
  op: "Identity"
  input: "data/resize_image_with_crop_or_pad/crop_to_bounding_box/Slice"
  input: "^data/resize_image_with_crop_or_pad/pad_to_bounding_box/Assert/Assert"
  input: "^data/resize_image_with_crop_or_pad/pad_to_bounding_box/Assert_1/Assert"
  input: "^data/resize_image_with_crop_or_pad/pad_to_bounding_box/assert_greater_equal/Assert/Assert"
  input: "^data/resize_image_with_crop_or_pad/pad_to_bounding_box/assert_positive/assert_less/Assert/Assert"
  attr {
    key: "T"
    value {
      type: DT_FLOAT
    }
  }
  attr {
    key: "_class"
    value {
      list {
        s: "loc:@data/resize_image_with_crop_or_pad/crop_to_bounding_box/Slice"
      }
    }
  }
}
node {
  name: "data/resize_image_with_crop_or_pad/pad_to_bounding_box/stack/0"
  op: "Const"
  attr {
    key: "dtype"
    value {
      type: DT_INT32
    }
  }
  attr {
    key: "value"
    value {
      tensor {
        dtype: DT_INT32
        tensor_shape {
        }
        int_val: 0
      }
    }
  }
}
node {
  name: "data/resize_image_with_crop_or_pad/pad_to_bounding_box/stack/1"
  op: "Const"
  attr {
    key: "dtype"
    value {
      type: DT_INT32
    }
  }
  attr {
    key: "value"
    value {
      tensor {
        dtype: DT_INT32
        tensor_shape {
        }
        int_val: 0
      }
    }
  }
}
node {
  name: "data/resize_image_with_crop_or_pad/pad_to_bounding_box/stack/4"
  op: "Const"
  attr {
    key: "dtype"
    value {
      type: DT_INT32
    }
  }
  attr {
    key: "value"
    value {
      tensor {
        dtype: DT_INT32
        tensor_shape {
        }
        int_val: 0
      }
    }
  }
}
node {
  name: "data/resize_image_with_crop_or_pad/pad_to_bounding_box/stack/5"
  op: "Const"
  attr {
    key: "dtype"
    value {
      type: DT_INT32
    }
  }
  attr {
    key: "value"
    value {
      tensor {
        dtype: DT_INT32
        tensor_shape {
        }
        int_val: 0
      }
    }
  }
}
node {
  name: "data/resize_image_with_crop_or_pad/pad_to_bounding_box/stack/6"
  op: "Const"
  attr {
    key: "dtype"
    value {
      type: DT_INT32
    }
  }
  attr {
    key: "value"
    value {
      tensor {
        dtype: DT_INT32
        tensor_shape {
        }
        int_val: 0
      }
    }
  }
}
node {
  name: "data/resize_image_with_crop_or_pad/pad_to_bounding_box/stack/7"
  op: "Const"
  attr {
    key: "dtype"
    value {
      type: DT_INT32
    }
  }
  attr {
    key: "value"
    value {
      tensor {
        dtype: DT_INT32
        tensor_shape {
        }
        int_val: 0
      }
    }
  }
}
node {
  name: "data/resize_image_with_crop_or_pad/pad_to_bounding_box/stack"
  op: "Pack"
  input: "data/resize_image_with_crop_or_pad/pad_to_bounding_box/stack/0"
  input: "data/resize_image_with_crop_or_pad/pad_to_bounding_box/stack/1"
  input: "data/resize_image_with_crop_or_pad/Maximum_1"
  input: "data/resize_image_with_crop_or_pad/pad_to_bounding_box/sub_1"
  input: "data/resize_image_with_crop_or_pad/pad_to_bounding_box/stack/4"
  input: "data/resize_image_with_crop_or_pad/pad_to_bounding_box/stack/5"
  input: "data/resize_image_with_crop_or_pad/pad_to_bounding_box/stack/6"
  input: "data/resize_image_with_crop_or_pad/pad_to_bounding_box/stack/7"
  attr {
    key: "N"
    value {
      i: 8
    }
  }
  attr {
    key: "T"
    value {
      type: DT_INT32
    }
  }
  attr {
    key: "axis"
    value {
      i: 0
    }
  }
}
node {
  name: "data/resize_image_with_crop_or_pad/pad_to_bounding_box/Reshape/shape"
  op: "Const"
  attr {
    key: "dtype"
    value {
      type: DT_INT32
    }
  }
  attr {
    key: "value"
    value {
      tensor {
        dtype: DT_INT32
        tensor_shape {
          dim {
            size: 2
          }
        }
        tensor_content: "\004\000\000\000\002\000\000\000"
      }
    }
  }
}
node {
  name: "data/resize_image_with_crop_or_pad/pad_to_bounding_box/Reshape"
  op: "Reshape"
  input: "data/resize_image_with_crop_or_pad/pad_to_bounding_box/stack"
  input: "data/resize_image_with_crop_or_pad/pad_to_bounding_box/Reshape/shape"
  attr {
    key: "T"
    value {
      type: DT_INT32
    }
  }
  attr {
    key: "Tshape"
    value {
      type: DT_INT32
    }
  }
}
node {
  name: "data/resize_image_with_crop_or_pad/pad_to_bounding_box/Pad"
  op: "Pad"
  input: "data/resize_image_with_crop_or_pad/pad_to_bounding_box/control_dependency"
  input: "data/resize_image_with_crop_or_pad/pad_to_bounding_box/Reshape"
  attr {
    key: "T"
    value {
      type: DT_FLOAT
    }
  }
  attr {
    key: "Tpaddings"
    value {
      type: DT_INT32
    }
  }
}
node {
  name: "data/resize_image_with_crop_or_pad/control_dependency_1"
  op: "Identity"
  input: "data/resize_image_with_crop_or_pad/pad_to_bounding_box/Pad"
  attr {
    key: "T"
    value {
      type: DT_FLOAT
    }
  }
  attr {
    key: "_class"
    value {
      list {
        s: "loc:@data/resize_image_with_crop_or_pad/pad_to_bounding_box/Pad"
      }
    }
  }
}
node {
  name: "data/Squeeze"
  op: "Squeeze"
  input: "data/resize_image_with_crop_or_pad/control_dependency_1"
  attr {
    key: "T"
    value {
      type: DT_FLOAT
    }
  }
  attr {
    key: "squeeze_dims"
    value {
      list {
        i: 0
        i: 3
      }
    }
  }
}
node {
  name: "data/Mul_1"
  op: "Mul"
  input: "data/Squeeze"
  input: "data/foreground_volume"
  attr {
    key: "T"
    value {
      type: DT_FLOAT
    }
  }
}
node {
  name: "data/time_shift_padding"
  op: "Placeholder"
  attr {
    key: "dtype"
    value {
      type: DT_INT32
    }
  }
  attr {
    key: "shape"
    value {
      shape {
        dim {
          size: 2
        }
        dim {
          size: 2
        }
      }
    }
  }
}
node {
  name: "data/time_shift_offset"
  op: "Placeholder"
  attr {
    key: "dtype"
    value {
      type: DT_INT32
    }
  }
  attr {
    key: "shape"
    value {
      shape {
        dim {
          size: 2
        }
      }
    }
  }
}
node {
  name: "data/Pad"
  op: "Pad"
  input: "data/Mul_1"
  input: "data/time_shift_padding"
  attr {
    key: "T"
    value {
      type: DT_FLOAT
    }
  }
  attr {
    key: "Tpaddings"
    value {
      type: DT_INT32
    }
  }
}
node {
  name: "data/Slice/size"
  op: "Const"
  attr {
    key: "dtype"
    value {
      type: DT_INT32
    }
  }
  attr {
    key: "value"
    value {
      tensor {
        dtype: DT_INT32
        tensor_shape {
          dim {
            size: 2
          }
        }
        tensor_content: "\200>\000\000\377\377\377\377"
      }
    }
  }
}
node {
  name: "data/Slice"
  op: "Slice"
  input: "data/Pad"
  input: "data/time_shift_offset"
  input: "data/Slice/size"
  attr {
    key: "Index"
    value {
      type: DT_INT32
    }
  }
  attr {
    key: "T"
    value {
      type: DT_FLOAT
    }
  }
}
node {
  name: "data/background_data"
  op: "Placeholder"
  attr {
    key: "dtype"
    value {
      type: DT_FLOAT
    }
  }
  attr {
    key: "shape"
    value {
      shape {
        dim {
          size: 16000
        }
        dim {
          size: 1
        }
      }
    }
  }
}
node {
  name: "data/background_volume"
  op: "Placeholder"
  attr {
    key: "dtype"
    value {
      type: DT_FLOAT
    }
  }
  attr {
    key: "shape"
    value {
      shape {
      }
    }
  }
}
node {
  name: "data/Mul_2"
  op: "Mul"
  input: "data/background_data"
  input: "data/background_volume"
  attr {
    key: "T"
    value {
      type: DT_FLOAT
    }
  }
}
node {
  name: "data/Add"
  op: "AddV2"
  input: "data/Mul_2"
  input: "data/Slice"
  attr {
    key: "T"
    value {
      type: DT_FLOAT
    }
  }
}
node {
  name: "data/clip_by_value/Minimum/y"
  op: "Const"
  attr {
    key: "dtype"
    value {
      type: DT_FLOAT
    }
  }
  attr {
    key: "value"
    value {
      tensor {
        dtype: DT_FLOAT
        tensor_shape {
        }
        float_val: 1.0
      }
    }
  }
}
node {
  name: "data/clip_by_value/Minimum"
  op: "Minimum"
  input: "data/Add"
  input: "data/clip_by_value/Minimum/y"
  attr {
    key: "T"
    value {
      type: DT_FLOAT
    }
  }
}
node {
  name: "data/clip_by_value/y"
  op: "Const"
  attr {
    key: "dtype"
    value {
      type: DT_FLOAT
    }
  }
  attr {
    key: "value"
    value {
      tensor {
        dtype: DT_FLOAT
        tensor_shape {
        }
        float_val: -1.0
      }
    }
  }
}
node {
  name: "data/clip_by_value"
  op: "Maximum"
  input: "data/clip_by_value/Minimum"
  input: "data/clip_by_value/y"
  attr {
    key: "T"
    value {
      type: DT_FLOAT
    }
  }
}
node {
  name: "data/Squeeze_1"
  op: "Squeeze"
  input: "data/clip_by_value"
  attr {
    key: "T"
    value {
      type: DT_FLOAT
    }
  }
  attr {
    key: "squeeze_dims"
    value {
      list {
        i: 1
      }
    }
  }
}
node {
  name: "input_1"
  op: "Placeholder"
  attr {
    key: "dtype"
    value {
      type: DT_FLOAT
    }
  }
  attr {
    key: "shape"
    value {
      shape {
        dim {
          size: 100
        }
        dim {
          size: 16000
        }
      }
    }
  }
}
node {
  name: "speech_features/lambda_1/lambda_1/Identity"
  op: "Identity"
  input: "input_1"
  attr {
    key: "T"
    value {
      type: DT_FLOAT
    }
  }
}
node {
  name: "speech_features/lambda/lambda/Identity"
  op: "Identity"
  input: "speech_features/lambda_1/lambda_1/Identity"
  attr {
    key: "T"
    value {
      type: DT_FLOAT
    }
  }
}
node {
  name: "speech_features/lambda_3/lambda_3/Identity"
  op: "Identity"
  input: "speech_features/lambda/lambda/Identity"
  attr {
    key: "T"
    value {
      type: DT_FLOAT
    }
  }
}
node {
  name: "speech_features/transpose/perm"
  op: "Const"
  attr {
    key: "dtype"
    value {
      type: DT_INT32
    }
  }
  attr {
    key: "value"
    value {
      tensor {
        dtype: DT_INT32
        tensor_shape {
          dim {
            size: 2
          }
        }
        tensor_content: "\001\000\000\000\000\000\000\000"
      }
    }
  }
}
node {
  name: "speech_features/transpose"
  op: "Transpose"
  input: "speech_features/lambda_3/lambda_3/Identity"
  input: "speech_features/transpose/perm"
  attr {
    key: "T"
    value {
      type: DT_FLOAT
    }
  }
  attr {
    key: "Tperm"
    value {
      type: DT_INT32
    }
  }
}
node {
  name: "speech_features/AudioSpectrogram"
  op: "AudioSpectrogram"
  input: "speech_features/transpose"
  attr {
    key: "magnitude_squared"
    value {
      b: true
    }
  }
  attr {
    key: "stride"
    value {
      i: 160
    }
  }
  attr {
    key: "window_size"
    value {
      i: 480
    }
  }
}
node {
  name: "speech_features/Mfcc/sample_rate"
  op: "Const"
  attr {
    key: "dtype"
    value {
      type: DT_INT32
    }
  }
  attr {
    key: "value"
    value {
      tensor {
        dtype: DT_INT32
        tensor_shape {
        }
        int_val: 16000
      }
    }
  }
}
node {
  name: "speech_features/Mfcc"
  op: "Mfcc"
  input: "speech_features/AudioSpectrogram"
  input: "speech_features/Mfcc/sample_rate"
  attr {
    key: "dct_coefficient_count"
    value {
      i: 40
    }
  }
  attr {
    key: "filterbank_channel_count"
    value {
      i: 40
    }
  }
  attr {
    key: "lower_frequency_limit"
    value {
      f: 125.0
    }
  }
  attr {
    key: "upper_frequency_limit"
    value {
      f: 7500.0
    }
  }
}
node {
  name: "speech_features/normalizer/sub/y"
  op: "Const"
  attr {
    key: "dtype"
    value {
      type: DT_FLOAT
    }
  }
  attr {
    key: "value"
    value {
      tensor {
        dtype: DT_FLOAT
        tensor_shape {
          dim {
            size: 40
          }
        }
        tensor_content: "…"
      }
    }
  }
}
node {
  name: "speech_features/normalizer/sub"
  op: "Sub"
  input: "speech_features/Mfcc"
  input: "speech_features/normalizer/sub/y"
  attr {
    key: "T"
    value {
      type: DT_FLOAT
    }
  }
}
node {
  name: "speech_features/normalizer/truediv/y"
  op: "Const"
  attr {
    key: "dtype"
    value {
      type: DT_FLOAT
    }
  }
  attr {
    key: "value"
    value {
      tensor {
        dtype: DT_FLOAT
        tensor_shape {
          dim {
            size: 40
          }
        }
        tensor_content: "…"
      }
    }
  }
}
node {
  name: "speech_features/normalizer/truediv"
  op: "RealDiv"
  input: "speech_features/normalizer/sub"
  input: "speech_features/normalizer/truediv/y"
  attr {
    key: "T"
    value {
      type: DT_FLOAT
    }
  }
}
node {
  name: "ExpandDims/dim"
  op: "Const"
  attr {
    key: "_has_manual_control_dependencies"
    value {
      b: true
    }
  }
  attr {
    key: "dtype"
    value {
      type: DT_INT32
    }
  }
  attr {
    key: "value"
    value {
      tensor {
        dtype: DT_INT32
        tensor_shape {
        }
        int_val: 3
      }
    }
  }
}
node {
  name: "ExpandDims"
  op: "ExpandDims"
  input: "speech_features/normalizer/truediv"
  input: "ExpandDims/dim"
  attr {
    key: "T"
    value {
      type: DT_FLOAT
    }
  }
  attr {
    key: "Tdim"
    value {
      type: DT_INT32
    }
  }
}
node {
  name: "group_deps"
  op: "NoOp"
  input: "^ExpandDims/dim"
}
node {
  name: "conv2d/kernel/Initializer/stateless_random_uniform/shape"
  op: "Const"
  attr {
    key: "_class"
    value {
      list {
        s: "loc:@conv2d/kernel"
      }
    }
  }
  attr {
    key: "dtype"
    value {
      type: DT_INT32
    }
  }
  attr {
    key: "value"
    value {
      tensor {
        dtype: DT_INT32
        tensor_shape {
          dim {
            size: 4
          }
        }
        tensor_content: "\005\000\000\000\005\000\000\000\001\000\000\000\020\000\000\000"
      }
    }
  }
}
node {
  name: "conv2d/kernel/Initializer/stateless_random_uniform/min"
  op: "Const"
  attr {
    key: "_class"
    value {
      list {
        s: "loc:@conv2d/kernel"
      }
    }
  }
  attr {
    key: "dtype"
    value {
      type: DT_FLOAT
    }
  }
  attr {
    key: "value"
    value {
      tensor {
        dtype: DT_FLOAT
        tensor_shape {
        }
        float_val: -0.11881770193576813
      }
    }
  }
}
node {
  name: "conv2d/kernel/Initializer/stateless_random_uniform/max"
  op: "Const"
  attr {
    key: "_class"
    value {
      list {
        s: "loc:@conv2d/kernel"
      }
    }
  }
  attr {
    key: "dtype"
    value {
      type: DT_FLOAT
    }
  }
  attr {
    key: "value"
    value {
      tensor {
        dtype: DT_FLOAT
        tensor_shape {
        }
        float_val: 0.11881770193576813
      }
    }
  }
}
node {
  name: "conv2d/kernel/Initializer/stateless_random_uniform/StatelessRandomGetKeyCounter/seed"
  op: "Const"
  attr {
    key: "_class"
    value {
      list {
        s: "loc:@conv2d/kernel"
      }
    }
  }
  attr {
    key: "dtype"
    value {
      type: DT_INT32
    }
  }
  attr {
    key: "value"
    value {
      tensor {
        dtype: DT_INT32
        tensor_shape {
          dim {
            size: 2
          }
        }
        tensor_content: "\016\276G\037\000\000\000\000"
      }
    }
  }
}
node {
  name: "conv2d/kernel/Initializer/stateless_random_uniform/StatelessRandomGetKeyCounter"
  op: "StatelessRandomGetKeyCounter"
  input: "conv2d/kernel/Initializer/stateless_random_uniform/StatelessRandomGetKeyCounter/seed"
  attr {
    key: "Tseed"
    value {
      type: DT_INT32
    }
  }
  attr {
    key: "_class"
    value {
      list {
        s: "loc:@conv2d/kernel"
      }
    }
  }
}
node {
  name: "conv2d/kernel/Initializer/stateless_random_uniform/StatelessRandomUniformV2/alg"
  op: "Const"
  attr {
    key: "_class"
    value {
      list {
        s: "loc:@conv2d/kernel"
      }
    }
  }
  attr {
    key: "dtype"
    value {
      type: DT_INT32
    }
  }
  attr {
    key: "value"
    value {
      tensor {
        dtype: DT_INT32
        tensor_shape {
        }
        int_val: 3
      }
    }
  }
}
node {
  name: "conv2d/kernel/Initializer/stateless_random_uniform/StatelessRandomUniformV2"
  op: "StatelessRandomUniformV2"
  input: "conv2d/kernel/Initializer/stateless_random_uniform/shape"
  input: "conv2d/kernel/Initializer/stateless_random_uniform/StatelessRandomGetKeyCounter"
  input: "conv2d/kernel/Initializer/stateless_random_uniform/StatelessRandomGetKeyCounter:1"
  input: "conv2d/kernel/Initializer/stateless_random_uniform/StatelessRandomUniformV2/alg"
  attr {
    key: "Tshape"
    value {
      type: DT_INT32
    }
  }
  attr {
    key: "_class"
    value {
      list {
        s: "loc:@conv2d/kernel"
      }
    }
  }
  attr {
    key: "dtype"
    value {
      type: DT_FLOAT
    }
  }
}
node {
  name: "conv2d/kernel/Initializer/stateless_random_uniform/sub"
  op: "Sub"
  input: "conv2d/kernel/Initializer/stateless_random_uniform/max"
  input: "conv2d/kernel/Initializer/stateless_random_uniform/min"
  attr {
    key: "T"
    value {
      type: DT_FLOAT
    }
  }
  attr {
    key: "_class"
    value {
      list {
        s: "loc:@conv2d/kernel"
      }
    }
  }
}
node {
  name: "conv2d/kernel/Initializer/stateless_random_uniform/mul"
  op: "Mul"
  input: "conv2d/kernel/Initializer/stateless_random_uniform/StatelessRandomUniformV2"
  input: "conv2d/kernel/Initializer/stateless_random_uniform/sub"
  attr {
    key: "T"
    value {
      type: DT_FLOAT
    }
  }
  attr {
    key: "_class"
    value {
      list {
        s: "loc:@conv2d/kernel"
      }
    }
  }
}
node {
  name: "conv2d/kernel/Initializer/stateless_random_uniform"
  op: "AddV2"
  input: "conv2d/kernel/Initializer/stateless_random_uniform/mul"
  input: "conv2d/kernel/Initializer/stateless_random_uniform/min"
  attr {
    key: "T"
    value {
      type: DT_FLOAT
    }
  }
  attr {
    key: "_class"
    value {
      list {
        s: "loc:@conv2d/kernel"
      }
    }
  }
}
node {
  name: "conv2d/kernel"
  op: "VarHandleOp"
  attr {
    key: "_class"
    value {
      list {
        s: "loc:@conv2d/kernel"
      }
    }
  }
  attr {
    key: "allowed_devices"
    value {
      list {
      }
    }
  }
  attr {
    key: "container"
    value {
      s: ""
    }
  }
  attr {
    key: "dtype"
    value {
      type: DT_FLOAT
    }
  }
  attr {
    key: "shape"
    value {
      shape {
        dim {
          size: 5
        }
        dim {
          size: 5
        }
        dim {
          size: 1
        }
        dim {
          size: 16
        }
      }
    }
  }
  attr {
    key: "shared_name"
    value {
      s: "conv2d/kernel"
    }
  }
}
node {
  name: "conv2d/kernel/IsInitialized/VarIsInitializedOp"
  op: "VarIsInitializedOp"
  input: "conv2d/kernel"
}
node {
  name: "conv2d/kernel/Assign"
  op: "AssignVariableOp"
  input: "conv2d/kernel"
  input: "conv2d/kernel/Initializer/stateless_random_uniform"
  attr {
    key: "_has_manual_control_dependencies"
    value {
      b: true
    }
  }
  attr {
    key: "dtype"
    value {
      type: DT_FLOAT
    }
  }
  attr {
    key: "validate_shape"
    value {
      b: false
    }
  }
}
node {
  name: "conv2d/kernel/Read/ReadVariableOp"
  op: "ReadVariableOp"
  input: "conv2d/kernel"
  attr {
    key: "dtype"
    value {
      type: DT_FLOAT
    }
  }
}
node {
  name: "conv2d/bias/Initializer/zeros"
  op: "Const"
  attr {
    key: "_class"
    value {
      list {
        s: "loc:@conv2d/bias"
      }
    }
  }
  attr {
    key: "dtype"
    value {
      type: DT_FLOAT
    }
  }
  attr {
    key: "value"
    value {
      tensor {
        dtype: DT_FLOAT
        tensor_shape {
          dim {
            size: 16
          }
        }
        float_val: 0.0
      }
    }
  }
}
node {
  name: "conv2d/bias"
  op: "VarHandleOp"
  attr {
    key: "_class"
    value {
      list {
        s: "loc:@conv2d/bias"
      }
    }
  }
  attr {
    key: "allowed_devices"
    value {
      list {
      }
    }
  }
  attr {
    key: "container"
    value {
      s: ""
    }
  }
  attr {
    key: "dtype"
    value {
      type: DT_FLOAT
    }
  }
  attr {
    key: "shape"
    value {
      shape {
        dim {
          size: 16
        }
      }
    }
  }
  attr {
    key: "shared_name"
    value {
      s: "conv2d/bias"
    }
  }
}
node {
  name: "conv2d/bias/IsInitialized/VarIsInitializedOp"
  op: "VarIsInitializedOp"
  input: "conv2d/bias"
}
node {
  name: "conv2d/bias/Assign"
  op: "AssignVariableOp"
  input: "conv2d/bias"
  input: "conv2d/bias/Initializer/zeros"
  attr {
    key: "_has_manual_control_dependencies"
    value {
      b: true
    }
  }
  attr {
    key: "dtype"
    value {
      type: DT_FLOAT
    }
  }
  attr {
    key: "validate_shape"
    value {
      b: false
    }
  }
}
node {
  name: "conv2d/bias/Read/ReadVariableOp"
  op: "ReadVariableOp"
  input: "conv2d/bias"
  attr {
    key: "dtype"
    value {
      type: DT_FLOAT
    }
  }
}
node {
  name: "conv2d/Conv2D/ReadVariableOp"
  op: "ReadVariableOp"
  input: "conv2d/kernel"
  attr {
    key: "dtype"
    value {
      type: DT_FLOAT
    }
  }
}
node {
  name: "conv2d/Conv2D"
  op: "Conv2D"
  input: "ExpandDims"
  input: "conv2d/Conv2D/ReadVariableOp"
  attr {
    key: "T"
    value {
      type: DT_FLOAT
    }
  }
  attr {
    key: "data_format"
    value {
      s: "NHWC"
    }
  }
  attr {
    key: "dilations"
    value {
      list {
        i: 1
        i: 1
        i: 1
        i: 1
      }
    }
  }
  attr {
    key: "explicit_paddings"
    value {
      list {
      }
    }
  }
  attr {
    key: "padding"
    value {
      s: "SAME"
    }
  }
  attr {
    key: "strides"
    value {
      list {
        i: 1
        i: 1
        i: 2
        i: 1
      }
    }
  }
  attr {
    key: "use_cudnn_on_gpu"
    value {
      b: true
    }
  }
}
node {
  name: "conv2d/BiasAdd/ReadVariableOp"
  op: "ReadVariableOp"
  input: "conv2d/bias"
  attr {
    key: "dtype"
    value {
      type: DT_FLOAT
    }
  }
}
node {
  name: "conv2d/BiasAdd"
  op: "BiasAdd"
  input: "conv2d/Conv2D"
  input: "conv2d/BiasAdd/ReadVariableOp"
  attr {
    key: "T"
    value {
      type: DT_FLOAT
    }
  }
  attr {
    key: "data_format"
    value {
      s: "NHWC"
    }
  }
}
node {
  name: "transition_block/conv2d_1/kernel/Initializer/stateless_random_uniform/shape"
  op: "Const"
  attr {
    key: "_class"
    value {
      list {
        s: "loc:@transition_block/conv2d_1/kernel"
      }
    }
  }
  attr {
    key: "dtype"
    value {
      type: DT_INT32
    }
  }
  attr {
    key: "value"
    value {
      tensor {
        dtype: DT_INT32
        tensor_shape {
          dim {
            size: 4
          }
        }
        tensor_content: "\001\000\000\000\001\000\000\000\020\000\000\000\010\000\000\000"
      }
    }
  }
}
node {
  name: "transition_block/conv2d_1/kernel/Initializer/stateless_random_uniform/min"
  op: "Const"
  attr {
    key: "_class"
    value {
      list {
        s: "loc:@transition_block/conv2d_1/kernel"
      }
    }
  }
  attr {
    key: "dtype"
    value {
      type: DT_FLOAT
    }
  }
  attr {
    key: "value"
    value {
      tensor {
        dtype: DT_FLOAT
        tensor_shape {
        }
        float_val: -0.5
      }
    }
  }
}
node {
  name: "transition_block/conv2d_1/kernel/Initializer/stateless_random_uniform/max"
  op: "Const"
  attr {
    key: "_class"
    value {
      list {
        s: "loc:@transition_block/conv2d_1/kernel"
      }
    }
  }
  attr {
    key: "dtype"
    value {
      type: DT_FLOAT
    }
  }
  attr {
    key: "value"
    value {
      tensor {
        dtype: DT_FLOAT
        tensor_shape {
        }
        float_val: 0.5
      }
    }
  }
}
node {
  name: "transition_block/conv2d_1/kernel/Initializer/stateless_random_uniform/StatelessRandomGetKeyCounter/seed"
  op: "Const"
  attr {
    key: "_class"
    value {
      list {
        s: "loc:@transition_block/conv2d_1/kernel"
      }
    }
  }
  attr {
    key: "dtype"
    value {
      type: DT_INT32
    }
  }
  attr {
    key: "value"
    value {
      tensor {
        dtype: DT_INT32
        tensor_shape {
          dim {
            size: 2
          }
        }
        tensor_content: "\254?\2634\000\000\000\000"
      }
    }
  }
}
node {
  name: "transition_block/conv2d_1/kernel/Initializer/stateless_random_uniform/StatelessRandomGetKeyCounter"
  op: "StatelessRandomGetKeyCounter"
  input: "transition_block/conv2d_1/kernel/Initializer/stateless_random_uniform/StatelessRandomGetKeyCounter/seed"
  attr {
    key: "Tseed"
    value {
      type: DT_INT32
    }
  }
  attr {
    key: "_class"
    value {
      list {
        s: "loc:@transition_block/conv2d_1/kernel"
      }
    }
  }
}
node {
  name: "transition_block/conv2d_1/kernel/Initializer/stateless_random_uniform/StatelessRandomUniformV2/alg"
  op: "Const"
  attr {
    key: "_class"
    value {
      list {
        s: "loc:@transition_block/conv2d_1/kernel"
      }
    }
  }
  attr {
    key: "dtype"
    value {
      type: DT_INT32
    }
  }
  attr {
    key: "value"
    value {
      tensor {
        dtype: DT_INT32
        tensor_shape {
        }
        int_val: 3
      }
    }
  }
}
node {
  name: "transition_block/conv2d_1/kernel/Initializer/stateless_random_uniform/StatelessRandomUniformV2"
  op: "StatelessRandomUniformV2"
  input: "transition_block/conv2d_1/kernel/Initializer/stateless_random_uniform/shape"
  input: "transition_block/conv2d_1/kernel/Initializer/stateless_random_uniform/StatelessRandomGetKeyCounter"
  input: "transition_block/conv2d_1/kernel/Initializer/stateless_random_uniform/StatelessRandomGetKeyCounter:1"
  input: "transition_block/conv2d_1/kernel/Initializer/stateless_random_uniform/StatelessRandomUniformV2/alg"
  attr {
    key: "Tshape"
    value {
      type: DT_INT32
    }
  }
  attr {
    key: "_class"
    value {
      list {
        s: "loc:@transition_block/conv2d_1/kernel"
      }
    }
  }
  attr {
    key: "dtype"
    value {
      type: DT_FLOAT
    }
  }
}
node {
  name: "transition_block/conv2d_1/kernel/Initializer/stateless_random_uniform/sub"
  op: "Sub"
  input: "transition_block/conv2d_1/kernel/Initializer/stateless_random_uniform/max"
  input: "transition_block/conv2d_1/kernel/Initializer/stateless_random_uniform/min"
  attr {
    key: "T"
    value {
      type: DT_FLOAT
    }
  }
  attr {
    key: "_class"
    value {
      list {
        s: "loc:@transition_block/conv2d_1/kernel"
      }
    }
  }
}
node {
  name: "transition_block/conv2d_1/kernel/Initializer/stateless_random_uniform/mul"
  op: "Mul"
  input: "transition_block/conv2d_1/kernel/Initializer/stateless_random_uniform/StatelessRandomUniformV2"
  input: "transition_block/conv2d_1/kernel/Initializer/stateless_random_uniform/sub"
  attr {
    key: "T"
    value {
      type: DT_FLOAT
    }
  }
  attr {
    key: "_class"
    value {
      list {
        s: "loc:@transition_block/conv2d_1/kernel"
      }
    }
  }
}
node {
  name: "transition_block/conv2d_1/kernel/Initializer/stateless_random_uniform"
  op: "AddV2"
  input: "transition_block/conv2d_1/kernel/Initializer/stateless_random_uniform/mul"
  input: "transition_block/conv2d_1/kernel/Initializer/stateless_random_uniform/min"
  attr {
    key: "T"
    value {
      type: DT_FLOAT
    }
  }
  attr {
    key: "_class"
    value {
      list {
        s: "loc:@transition_block/conv2d_1/kernel"
      }
    }
  }
}
node {
  name: "transition_block/conv2d_1/kernel"
  op: "VarHandleOp"
  attr {
    key: "_class"
    value {
      list {
        s: "loc:@transition_block/conv2d_1/kernel"
      }
    }
  }
  attr {
    key: "allowed_devices"
    value {
      list {
      }
    }
  }
  attr {
    key: "container"
    value {
      s: ""
    }
  }
  attr {
    key: "dtype"
    value {
      type: DT_FLOAT
    }
  }
  attr {
    key: "shape"
    value {
      shape {
        dim {
          size: 1
        }
        dim {
          size: 1
        }
        dim {
          size: 16
        }
        dim {
          size: 8
        }
      }
    }
  }
  attr {
    key: "shared_name"
    value {
      s: "transition_block/conv2d_1/kernel"
    }
  }
}
node {
  name: "transition_block/conv2d_1/kernel/IsInitialized/VarIsInitializedOp"
  op: "VarIsInitializedOp"
  input: "transition_block/conv2d_1/kernel"
}
node {
  name: "transition_block/conv2d_1/kernel/Assign"
  op: "AssignVariableOp"
  input: "transition_block/conv2d_1/kernel"
  input: "transition_block/conv2d_1/kernel/Initializer/stateless_random_uniform"
  attr {
    key: "_has_manual_control_dependencies"
    value {
      b: true
    }
  }
  attr {
    key: "dtype"
    value {
      type: DT_FLOAT
    }
  }
  attr {
    key: "validate_shape"
    value {
      b: false
    }
  }
}
node {
  name: "transition_block/conv2d_1/kernel/Read/ReadVariableOp"
  op: "ReadVariableOp"
  input: "transition_block/conv2d_1/kernel"
  attr {
    key: "dtype"
    value {
      type: DT_FLOAT
    }
  }
}
node {
  name: "transition_block/conv2d_1/Conv2D/ReadVariableOp"
  op: "ReadVariableOp"
  input: "transition_block/conv2d_1/kernel"
  attr {
    key: "dtype"
    value {
      type: DT_FLOAT
    }
  }
}
node {
  name: "transition_block/conv2d_1/Conv2D"
  op: "Conv2D"
  input: "conv2d/BiasAdd"
  input: "transition_block/conv2d_1/Conv2D/ReadVariableOp"
  attr {
    key: "T"
    value {
      type: DT_FLOAT
    }
  }
  attr {
    key: "data_format"
    value {
      s: "NHWC"
    }
  }
  attr {
    key: "dilations"
    value {
      list {
        i: 1
        i: 1
        i: 1
        i: 1
      }
    }
  }
  attr {
    key: "explicit_paddings"
    value {
      list {
      }
    }
  }
  attr {
    key: "padding"
    value {
      s: "VALID"
    }
  }
  attr {
    key: "strides"
    value {
      list {
        i: 1
        i: 1
        i: 1
        i: 1
      }
    }
  }
  attr {
    key: "use_cudnn_on_gpu"
    value {
      b: true
    }
  }
}
node {
  name: "transition_block/batch_normalization/gamma/Initializer/ones"
  op: "Const"
  attr {
    key: "_class"
    value {
      list {
        s: "loc:@transition_block/batch_normalization/gamma"
      }
    }
  }
  attr {
    key: "dtype"
    value {
      type: DT_FLOAT
    }
  }
  attr {
    key: "value"
    value {
      tensor {
        dtype: DT_FLOAT
        tensor_shape {
          dim {
            size: 8
          }
        }
        float_val: 1.0
      }
    }
  }
}
node {
  name: "transition_block/batch_normalization/gamma"
  op: "VarHandleOp"
  attr {
    key: "_class"
    value {
      list {
        s: "loc:@transition_block/batch_normalization/gamma"
      }
    }
  }
  attr {
    key: "allowed_devices"
    value {
      list {
      }
    }
  }
  attr {
    key: "container"
    value {
      s: ""
    }
  }
  attr {
    key: "dtype"
    value {
      type: DT_FLOAT
    }
  }
  attr {
    key: "shape"
    value {
      shape {
        dim {
          size: 8
        }
      }
    }
  }
  attr {
    key: "shared_name"
    value {
      s: "transition_block/batch_normalization/gamma"
    }
  }
}
node {
  name: "transition_block/batch_normalization/gamma/IsInitialized/VarIsInitializedOp"
  op: "VarIsInitializedOp"
  input: "transition_block/batch_normalization/gamma"
}
node {
  name: "transition_block/batch_normalization/gamma/Assign"
  op: "AssignVariableOp"
  input: "transition_block/batch_normalization/gamma"
  input: "transition_block/batch_normalization/gamma/Initializer/ones"
  attr {
    key: "_has_manual_control_dependencies"
    value {
      b: true
    }
  }
  attr {
    key: "dtype"
    value {
      type: DT_FLOAT
    }
  }
  attr {
    key: "validate_shape"
    value {
      b: false
    }
  }
}
node {
  name: "transition_block/batch_normalization/gamma/Read/ReadVariableOp"
  op: "ReadVariableOp"
  input: "transition_block/batch_normalization/gamma"
  attr {
    key: "dtype"
    value {
      type: DT_FLOAT
    }
  }
}
node {
  name: "transition_block/batch_normalization/beta/Initializer/zeros"
  op: "Const"
  attr {
    key: "_class"
    value {
      list {
        s: "loc:@transition_block/batch_normalization/beta"
      }
    }
  }
  attr {
    key: "dtype"
    value {
      type: DT_FLOAT
    }
  }
  attr {
    key: "value"
    value {
      tensor {
        dtype: DT_FLOAT
        tensor_shape {
          dim {
            size: 8
          }
        }
        float_val: 0.0
      }
    }
  }
}
node {
  name: "transition_block/batch_normalization/beta"
  op: "VarHandleOp"
  attr {
    key: "_class"
    value {
      list {
        s: "loc:@transition_block/batch_normalization/beta"
      }
    }
  }
  attr {
    key: "allowed_devices"
    value {
      list {
      }
    }
  }
  attr {
    key: "container"
    value {
      s: ""
    }
  }
  attr {
    key: "dtype"
    value {
      type: DT_FLOAT
    }
  }
  attr {
    key: "shape"
    value {
      shape {
        dim {
          size: 8
        }
      }
    }
  }
  attr {
    key: "shared_name"
    value {
      s: "transition_block/batch_normalization/beta"
    }
  }
}
node {
  name: "transition_block/batch_normalization/beta/IsInitialized/VarIsInitializedOp"
  op: "VarIsInitializedOp"
  input: "transition_block/batch_normalization/beta"
}
node {
  name: "transition_block/batch_normalization/beta/Assign"
  op: "AssignVariableOp"
  input: "transition_block/batch_normalization/beta"
  input: "transition_block/batch_normalization/beta/Initializer/zeros"
  attr {
    key: "_has_manual_control_dependencies"
    value {
      b: true
    }
  }
  attr {
    key: "dtype"
    value {
      type: DT_FLOAT
    }
  }
  attr {
    key: "validate_shape"
    value {
      b: false
    }
  }
}
node {
  name: "transition_block/batch_normalization/beta/Read/ReadVariableOp"
  op: "ReadVariableOp"
  input: "transition_block/batch_normalization/beta"
  attr {
    key: "dtype"
    value {
      type: DT_FLOAT
    }
  }
}
node {
  name: "transition_block/batch_normalization/moving_mean/Initializer/zeros"
  op: "Const"
  attr {
    key: "_class"
    value {
      list {
        s: "loc:@transition_block/batch_normalization/moving_mean"
      }
    }
  }
  attr {
    key: "dtype"
    value {
      type: DT_FLOAT
    }
  }
  attr {
    key: "value"
    value {
      tensor {
        dtype: DT_FLOAT
        tensor_shape {
          dim {
            size: 8
          }
        }
        float_val: 0.0
      }
    }
  }
}
node {
  name: "transition_block/batch_normalization/moving_mean"
  op: "VarHandleOp"
  attr {
    key: "_class"
    value {
      list {
        s: "loc:@transition_block/batch_normalization/moving_mean"
      }
    }
  }
  attr {
    key: "allowed_devices"
    value {
      list {
      }
    }
  }
  attr {
    key: "container"
    value {
      s: ""
    }
  }
  attr {
    key: "dtype"
    value {
      type: DT_FLOAT
    }
  }
  attr {
    key: "shape"
    value {
      shape {
        dim {
          size: 8
        }
      }
    }
  }
  attr {
    key: "shared_name"
    value {
      s: "transition_block/batch_normalization/moving_mean"
    }
  }
}
node {
  name: "transition_block/batch_normalization/moving_mean/IsInitialized/VarIsInitializedOp"
  op: "VarIsInitializedOp"
  input: "transition_block/batch_normalization/moving_mean"
}
node {
  name: "transition_block/batch_normalization/moving_mean/Assign"
  op: "AssignVariableOp"
  input: "transition_block/batch_normalization/moving_mean"
  input: "transition_block/batch_normalization/moving_mean/Initializer/zeros"
  attr {
    key: "_has_manual_control_dependencies"
    value {
      b: true
    }
  }
  attr {
    key: "dtype"
    value {
      type: DT_FLOAT
    }
  }
  attr {
    key: "validate_shape"
    value {
      b: false
    }
  }
}
node {
  name: "transition_block/batch_normalization/moving_mean/Read/ReadVariableOp"
  op: "ReadVariableOp"
  input: "transition_block/batch_normalization/moving_mean"
  attr {
    key: "dtype"
    value {
      type: DT_FLOAT
    }
  }
}
node {
  name: "transition_block/batch_normalization/moving_variance/Initializer/ones"
  op: "Const"
  attr {
    key: "_class"
    value {
      list {
        s: "loc:@transition_block/batch_normalization/moving_variance"
      }
    }
  }
  attr {
    key: "dtype"
    value {
      type: DT_FLOAT
    }
  }
  attr {
    key: "value"
    value {
      tensor {
        dtype: DT_FLOAT
        tensor_shape {
          dim {
            size: 8
          }
        }
        float_val: 1.0
      }
    }
  }
}
node {
  name: "transition_block/batch_normalization/moving_variance"
  op: "VarHandleOp"
  attr {
    key: "_class"
    value {
      list {
        s: "loc:@transition_block/batch_normalization/moving_variance"
      }
    }
  }
  attr {
    key: "allowed_devices"
    value {
      list {
      }
    }
  }
  attr {
    key: "container"
    value {
      s: ""
    }
  }
  attr {
    key: "dtype"
    value {
      type: DT_FLOAT
    }
  }
  attr {
    key: "shape"
    value {
      shape {
        dim {
          size: 8
        }
      }
    }
  }
  attr {
    key: "shared_name"
    value {
      s: "transition_block/batch_normalization/moving_variance"
    }
  }
}
node {
  name: "transition_block/batch_normalization/moving_variance/IsInitialized/VarIsInitializedOp"
  op: "VarIsInitializedOp"
  input: "transition_block/batch_normalization/moving_variance"
}
node {
  name: "transition_block/batch_normalization/moving_variance/Assign"
  op: "AssignVariableOp"
  input: "transition_block/batch_normalization/moving_variance"
  input: "transition_block/batch_normalization/moving_variance/Initializer/ones"
  attr {
    key: "_has_manual_control_dependencies"
    value {
      b: true
    }
  }
  attr {
    key: "dtype"
    value {
      type: DT_FLOAT
    }
  }
  attr {
    key: "validate_shape"
    value {
      b: false
    }
  }
}
node {
  name: "transition_block/batch_normalization/moving_variance/Read/ReadVariableOp"
  op: "ReadVariableOp"
  input: "transition_block/batch_normalization/moving_variance"
  attr {
    key: "dtype"
    value {
      type: DT_FLOAT
    }
  }
}
node {
  name: "keras_learning_phase/input"
  op: "Const"
  attr {
    key: "dtype"
    value {
      type: DT_BOOL
    }
  }
  attr {
    key: "value"
    value {
      tensor {
        dtype: DT_BOOL
        tensor_shape {
        }
        bool_val: false
      }
    }
  }
}
node {
  name: "keras_learning_phase"
  op: "PlaceholderWithDefault"
  input: "keras_learning_phase/input"
  attr {
    key: "dtype"
    value {
      type: DT_BOOL
    }
  }
  attr {
    key: "shape"
    value {
      shape {
      }
    }
  }
}
node {
  name: "transition_block/batch_normalization/cond"
  op: "If"
  input: "keras_learning_phase"
  input: "transition_block/batch_normalization/gamma"
  input: "transition_block/batch_normalization/beta"
  input: "transition_block/batch_normalization/moving_mean"
  input: "transition_block/batch_normalization/moving_variance"
  input: "transition_block/conv2d_1/Conv2D"
  attr {
    key: "Tcond"
    value {
      type: DT_BOOL
    }
  }
  attr {
    key: "Tin"
    value {
      list {
        type: DT_RESOURCE
        type: DT_RESOURCE
        type: DT_RESOURCE
        type: DT_RESOURCE
        type: DT_FLOAT
      }
    }
  }
  attr {
    key: "Tout"
    value {
      list {
        type: DT_FLOAT
        type: DT_FLOAT
        type: DT_FLOAT
        type: DT_VARIANT
        type: DT_VARIANT
        type: DT_VARIANT
        type: DT_VARIANT
        type: DT_VARIANT
        type: DT_VARIANT
        type: DT_VARIANT
      }
    }
  }
  attr {
    key: "_lower_using_switch_merge"
    value {
      b: true
    }
  }
  attr {
    key: "_read_only_resource_inputs"
    value {
      list {
        i: 1
        i: 2
        i: 3
        i: 4
      }
    }
  }
  attr {
    key: "else_branch"
    value {
      func {
        name: "transition_block_batch_normalization_cond_false_278"
      }
    }
  }
  attr {
    key: "output_shapes"
    value {
      list {
        shape {
          dim {
            size: 100
          }
          dim {
            size: 98
          }
          dim {
            size: 20
          }
          dim {
            size: 8
          }
        }
        shape {
          dim {
            size: 8
          }
        }
        shape {
          dim {
            size: 8
          }
        }
        shape {
        }
        shape {
        }
        shape {
        }
        shape {
        }
        shape {
        }
        shape {
        }
        shape {
        }
      }
    }
  }
  attr {
    key: "then_branch"
    value {
      func {
        name: "transition_block_batch_normalization_cond_true_277"
      }
    }
  }
}
node {
  name: "transition_block/batch_normalization/cond/Identity"
  op: "Identity"
  input: "transition_block/batch_normalization/cond"
  attr {
    key: "T"
    value {
      type: DT_FLOAT
    }
  }
}
node {
  name: "transition_block/batch_normalization/cond/Identity_1"
  op: "Identity"
  input: "transition_block/batch_normalization/cond:1"
  attr {
    key: "T"
    value {
      type: DT_FLOAT
    }
  }
}
node {
  name: "transition_block/batch_normalization/cond/Identity_2"
  op: "Identity"
  input: "transition_block/batch_normalization/cond:2"
  attr {
    key: "T"
    value {
      type: DT_FLOAT
    }
  }
}
node {
  name: "transition_block/batch_normalization/cond/Identity_3"
  op: "Identity"
  input: "transition_block/batch_normalization/cond:3"
  attr {
    key: "T"
    value {
      type: DT_VARIANT
    }
  }
}
node {
  name: "transition_block/batch_normalization/cond/Identity_4"
  op: "Identity"
  input: "transition_block/batch_normalization/cond:4"
  attr {
    key: "T"
    value {
      type: DT_VARIANT
    }
  }
}
node {
  name: "transition_block/batch_normalization/cond/Identity_5"
  op: "Identity"
  input: "transition_block/batch_normalization/cond:5"
  attr {
    key: "T"
    value {
      type: DT_VARIANT
    }
  }
}
node {
  name: "transition_block/batch_normalization/cond/Identity_6"
  op: "Identity"
  input: "transition_block/batch_normalization/cond:6"
  attr {
    key: "T"
    value {
      type: DT_VARIANT
    }
  }
}
node {
  name: "transition_block/batch_normalization/cond/Identity_7"
  op: "Identity"
  input: "transition_block/batch_normalization/cond:7"
  attr {
    key: "T"
    value {
      type: DT_VARIANT
    }
  }
}
node {
  name: "transition_block/batch_normalization/cond/Identity_8"
  op: "Identity"
  input: "transition_block/batch_normalization/cond:8"
  attr {
    key: "T"
    value {
      type: DT_VARIANT
    }
  }
}
node {
  name: "transition_block/batch_normalization/cond/Identity_9"
  op: "Identity"
  input: "transition_block/batch_normalization/cond:9"
  attr {
    key: "T"
    value {
      type: DT_VARIANT
    }
  }
}
node {
  name: "transition_block/batch_normalization/cond_1"
  op: "StatelessIf"
  input: "keras_learning_phase"
  attr {
    key: "Tcond"
    value {
      type: DT_BOOL
    }
  }
  attr {
    key: "Tin"
    value {
      list {
      }
    }
  }
  attr {
    key: "Tout"
    value {
      list {
        type: DT_FLOAT
      }
    }
  }
  attr {
    key: "_lower_using_switch_merge"
    value {
      b: true
    }
  }
  attr {
    key: "_read_only_resource_inputs"
    value {
      list {
      }
    }
  }
  attr {
    key: "else_branch"
    value {
      func {
        name: "transition_block_batch_normalization_cond_1_false_346"
      }
    }
  }
  attr {
    key: "output_shapes"
    value {
      list {
        shape {
        }
      }
    }
  }
  attr {
    key: "then_branch"
    value {
      func {
        name: "transition_block_batch_normalization_cond_1_true_345"
      }
    }
  }
}
node {
  name: "transition_block/batch_normalization/cond_1/Identity"
  op: "Identity"
  input: "transition_block/batch_normalization/cond_1"
  attr {
    key: "T"
    value {
      type: DT_FLOAT
    }
  }
}
node {
  name: "transition_block/batch_normalization/AssignMovingAvg/sub/x"
  op: "Const"
  attr {
    key: "_class"
    value {
      list {
        s: "loc:@transition_block/batch_normalization/moving_mean"
      }
    }
  }
  attr {
    key: "dtype"
    value {
      type: DT_FLOAT
    }
  }
  attr {
    key: "value"
    value {
      tensor {
        dtype: DT_FLOAT
        tensor_shape {
        }
        float_val: 1.0
      }
    }
  }
}
node {
  name: "transition_block/batch_normalization/AssignMovingAvg/sub"
  op: "Sub"
  input: "transition_block/batch_normalization/AssignMovingAvg/sub/x"
  input: "transition_block/batch_normalization/cond_1/Identity"
  attr {
    key: "T"
    value {
      type: DT_FLOAT
    }
  }
  attr {
    key: "_class"
    value {
      list {
        s: "loc:@transition_block/batch_normalization/moving_mean"
      }
    }
  }
}
node {
  name: "transition_block/batch_normalization/AssignMovingAvg/ReadVariableOp"
  op: "ReadVariableOp"
  input: "transition_block/batch_normalization/moving_mean"
  attr {
    key: "dtype"
    value {
      type: DT_FLOAT
    }
  }
}
node {
  name: "transition_block/batch_normalization/AssignMovingAvg/sub_1"
  op: "Sub"
  input: "transition_block/batch_normalization/AssignMovingAvg/ReadVariableOp"
  input: "transition_block/batch_normalization/cond/Identity_1"
  attr {
    key: "T"
    value {
      type: DT_FLOAT
    }
  }
  attr {
    key: "_class"
    value {
      list {
        s: "loc:@transition_block/batch_normalization/moving_mean"
      }
    }
  }
}
node {
  name: "transition_block/batch_normalization/AssignMovingAvg/mul"
  op: "Mul"
  input: "transition_block/batch_normalization/AssignMovingAvg/sub_1"
  input: "transition_block/batch_normalization/AssignMovingAvg/sub"
  attr {
    key: "T"
    value {
      type: DT_FLOAT
    }
  }
  attr {
    key: "_class"
    value {
      list {
        s: "loc:@transition_block/batch_normalization/moving_mean"
      }
    }
  }
}
node {
  name: "transition_block/batch_normalization/AssignMovingAvg/AssignSubVariableOp"
  op: "AssignSubVariableOp"
  input: "transition_block/batch_normalization/moving_mean"
  input: "transition_block/batch_normalization/AssignMovingAvg/mul"
  attr {
    key: "_class"
    value {
      list {
        s: "loc:@transition_block/batch_normalization/moving_mean"
      }
    }
  }
  attr {
    key: "_has_manual_control_dependencies"
    value {
      b: true
    }
  }
  attr {
    key: "dtype"
    value {
      type: DT_FLOAT
    }
  }
}
node {
  name: "transition_block/batch_normalization/AssignMovingAvg/ReadVariableOp_1"
  op: "ReadVariableOp"
  input: "transition_block/batch_normalization/moving_mean"
  input: "^transition_block/batch_normalization/AssignMovingAvg/AssignSubVariableOp"
  attr {
    key: "_class"
    value {
      list {
        s: "loc:@transition_block/batch_normalization/moving_mean"
      }
    }
  }
  attr {
    key: "dtype"
    value {
      type: DT_FLOAT
    }
  }
}
node {
  name: "transition_block/batch_normalization/AssignMovingAvg_1/sub/x"
  op: "Const"
  attr {
    key: "_class"
    value {
      list {
        s: "loc:@transition_block/batch_normalization/moving_variance"
      }
    }
  }
  attr {
    key: "dtype"
    value {
      type: DT_FLOAT
    }
  }
  attr {
    key: "value"
    value {
      tensor {
        dtype: DT_FLOAT
        tensor_shape {
        }
        float_val: 1.0
      }
    }
  }
}
node {
  name: "transition_block/batch_normalization/AssignMovingAvg_1/sub"
  op: "Sub"
  input: "transition_block/batch_normalization/AssignMovingAvg_1/sub/x"
  input: "transition_block/batch_normalization/cond_1/Identity"
  attr {
    key: "T"
    value {
      type: DT_FLOAT
    }
  }
  attr {
    key: "_class"
    value {
      list {
        s: "loc:@transition_block/batch_normalization/moving_variance"
      }
    }
  }
}
node {
  name: "transition_block/batch_normalization/AssignMovingAvg_1/ReadVariableOp"
  op: "ReadVariableOp"
  input: "transition_block/batch_normalization/moving_variance"
  attr {
    key: "dtype"
    value {
      type: DT_FLOAT
    }
  }
}
node {
  name: "transition_block/batch_normalization/AssignMovingAvg_1/sub_1"
  op: "Sub"
  input: "transition_block/batch_normalization/AssignMovingAvg_1/ReadVariableOp"
  input: "transition_block/batch_normalization/cond/Identity_2"
  attr {
    key: "T"
    value {
      type: DT_FLOAT
    }
  }
  attr {
    key: "_class"
    value {
      list {
        s: "loc:@transition_block/batch_normalization/moving_variance"
      }
    }
  }
}
node {
  name: "transition_block/batch_normalization/AssignMovingAvg_1/mul"
  op: "Mul"
  input: "transition_block/batch_normalization/AssignMovingAvg_1/sub_1"
  input: "transition_block/batch_normalization/AssignMovingAvg_1/sub"
  attr {
    key: "T"
    value {
      type: DT_FLOAT
    }
  }
  attr {
    key: "_class"
    value {
      list {
        s: "loc:@transition_block/batch_normalization/moving_variance"
      }
    }
  }
}
node {
  name: "transition_block/batch_normalization/AssignMovingAvg_1/AssignSubVariableOp"
  op: "AssignSubVariableOp"
  input: "transition_block/batch_normalization/moving_variance"
  input: "transition_block/batch_normalization/AssignMovingAvg_1/mul"
  attr {
    key: "_class"
    value {
      list {
        s: "loc:@transition_block/batch_normalization/moving_variance"
      }
    }
  }
  attr {
    key: "_has_manual_control_dependencies"
    value {
      b: true
    }
  }
  attr {
    key: "dtype"
    value {
      type: DT_FLOAT
    }
  }
}
node {
  name: "transition_block/batch_normalization/AssignMovingAvg_1/ReadVariableOp_1"
  op: "ReadVariableOp"
  input: "transition_block/batch_normalization/moving_variance"
  input: "^transition_block/batch_normalization/AssignMovingAvg_1/AssignSubVariableOp"
  attr {
    key: "_class"
    value {
      list {
        s: "loc:@transition_block/batch_normalization/moving_variance"
      }
    }
  }
  attr {
    key: "dtype"
    value {
      type: DT_FLOAT
    }
  }
}
node {
  name: "transition_block/Relu"
  op: "Relu"
  input: "transition_block/batch_normalization/cond/Identity"
  attr {
    key: "T"
    value {
      type: DT_FLOAT
    }
  }
}
node {
  name: "transition_block/depthwise_conv2d/depthwise_kernel/Initializer/stateless_random_uniform/shape"
  op: "Const"
  attr {
    key: "_class"
    value {
      list {
        s: "loc:@transition_block/depthwise_conv2d/depthwise_kernel"
      }
    }
  }
  attr {
    key: "dtype"
    value {
      type: DT_INT32
    }
  }
  attr {
    key: "value"
    value {
      tensor {
        dtype: DT_INT32
        tensor_shape {
          dim {
            size: 4
          }
        }
        tensor_content: "\001\000\000\000\003\000\000\000\010\000\000\000\001\000\000\000"
      }
    }
  }
}
node {
  name: "transition_block/depthwise_conv2d/depthwise_kernel/Initializer/stateless_random_uniform/min"
  op: "Const"
  attr {
    key: "_class"
    value {
      list {
        s: "loc:@transition_block/depthwise_conv2d/depthwise_kernel"
      }
    }
  }
  attr {
    key: "dtype"
    value {
      type: DT_FLOAT
    }
  }
  attr {
    key: "value"
    value {
      tensor {
        dtype: DT_FLOAT
        tensor_shape {
        }
        float_val: -0.4714045226573944
      }
    }
  }
}
node {
  name: "transition_block/depthwise_conv2d/depthwise_kernel/Initializer/stateless_random_uniform/max"
  op: "Const"
  attr {
    key: "_class"
    value {
      list {
        s: "loc:@transition_block/depthwise_conv2d/depthwise_kernel"
      }
    }
  }
  attr {
    key: "dtype"
    value {
      type: DT_FLOAT
    }
  }
  attr {
    key: "value"
    value {
      tensor {
        dtype: DT_FLOAT
        tensor_shape {
        }
        float_val: 0.4714045226573944
      }
    }
  }
}
node {
  name: "transition_block/depthwise_conv2d/depthwise_kernel/Initializer/stateless_random_uniform/StatelessRandomGetKeyCounter/seed"
  op: "Const"
  attr {
    key: "_class"
    value {
      list {
        s: "loc:@transition_block/depthwise_conv2d/depthwise_kernel"
      }
    }
  }
  attr {
    key: "dtype"
    value {
      type: DT_INT32
    }
  }
  attr {
    key: "value"
    value {
      tensor {
        dtype: DT_INT32
        tensor_shape {
          dim {
            size: 2
          }
        }
        tensor_content: "\344\351\221\033\000\000\000\000"
      }
    }
  }
}
node {
  name: "transition_block/depthwise_conv2d/depthwise_kernel/Initializer/stateless_random_uniform/StatelessRandomGetKeyCounter"
  op: "StatelessRandomGetKeyCounter"
  input: "transition_block/depthwise_conv2d/depthwise_kernel/Initializer/stateless_random_uniform/StatelessRandomGetKeyCounter/seed"
  attr {
    key: "Tseed"
    value {
      type: DT_INT32
    }
  }
  attr {
    key: "_class"
    value {
      list {
        s: "loc:@transition_block/depthwise_conv2d/depthwise_kernel"
      }
    }
  }
}
node {
  name: "transition_block/depthwise_conv2d/depthwise_kernel/Initializer/stateless_random_uniform/StatelessRandomUniformV2/alg"
  op: "Const"
  attr {
    key: "_class"
    value {
      list {
        s: "loc:@transition_block/depthwise_conv2d/depthwise_kernel"
      }
    }
  }
  attr {
    key: "dtype"
    value {
      type: DT_INT32
    }
  }
  attr {
    key: "value"
    value {
      tensor {
        dtype: DT_INT32
        tensor_shape {
        }
        int_val: 3
      }
    }
  }
}
node {
  name: "transition_block/depthwise_conv2d/depthwise_kernel/Initializer/stateless_random_uniform/StatelessRandomUniformV2"
  op: "StatelessRandomUniformV2"
  input: "transition_block/depthwise_conv2d/depthwise_kernel/Initializer/stateless_random_uniform/shape"
  input: "transition_block/depthwise_conv2d/depthwise_kernel/Initializer/stateless_random_uniform/StatelessRandomGetKeyCounter"
  input: "transition_block/depthwise_conv2d/depthwise_kernel/Initializer/stateless_random_uniform/StatelessRandomGetKeyCounter:1"
  input: "transition_block/depthwise_conv2d/depthwise_kernel/Initializer/stateless_random_uniform/StatelessRandomUniformV2/alg"
  attr {
    key: "Tshape"
    value {
      type: DT_INT32
    }
  }
  attr {
    key: "_class"
    value {
      list {
        s: "loc:@transition_block/depthwise_conv2d/depthwise_kernel"
      }
    }
  }
  attr {
    key: "dtype"
    value {
      type: DT_FLOAT
    }
  }
}
node {
  name: "transition_block/depthwise_conv2d/depthwise_kernel/Initializer/stateless_random_uniform/sub"
  op: "Sub"
  input: "transition_block/depthwise_conv2d/depthwise_kernel/Initializer/stateless_random_uniform/max"
  input: "transition_block/depthwise_conv2d/depthwise_kernel/Initializer/stateless_random_uniform/min"
  attr {
    key: "T"
    value {
      type: DT_FLOAT
    }
  }
  attr {
    key: "_class"
    value {
      list {
        s: "loc:@transition_block/depthwise_conv2d/depthwise_kernel"
      }
    }
  }
}
node {
  name: "transition_block/depthwise_conv2d/depthwise_kernel/Initializer/stateless_random_uniform/mul"
  op: "Mul"
  input: "transition_block/depthwise_conv2d/depthwise_kernel/Initializer/stateless_random_uniform/StatelessRandomUniformV2"
  input: "transition_block/depthwise_conv2d/depthwise_kernel/Initializer/stateless_random_uniform/sub"
  attr {
    key: "T"
    value {
      type: DT_FLOAT
    }
  }
  attr {
    key: "_class"
    value {
      list {
        s: "loc:@transition_block/depthwise_conv2d/depthwise_kernel"
      }
    }
  }
}
node {
  name: "transition_block/depthwise_conv2d/depthwise_kernel/Initializer/stateless_random_uniform"
  op: "AddV2"
  input: "transition_block/depthwise_conv2d/depthwise_kernel/Initializer/stateless_random_uniform/mul"
  input: "transition_block/depthwise_conv2d/depthwise_kernel/Initializer/stateless_random_uniform/min"
  attr {
    key: "T"
    value {
      type: DT_FLOAT
    }
  }
  attr {
    key: "_class"
    value {
      list {
        s: "loc:@transition_block/depthwise_conv2d/depthwise_kernel"
      }
    }
  }
}
node {
  name: "transition_block/depthwise_conv2d/depthwise_kernel"
  op: "VarHandleOp"
  attr {
    key: "_class"
    value {
      list {
        s: "loc:@transition_block/depthwise_conv2d/depthwise_kernel"
      }
    }
  }
  attr {
    key: "allowed_devices"
    value {
      list {
      }
    }
  }
  attr {
    key: "container"
    value {
      s: ""
    }
  }
  attr {
    key: "dtype"
    value {
      type: DT_FLOAT
    }
  }
  attr {
    key: "shape"
    value {
      shape {
        dim {
          size: 1
        }
        dim {
          size: 3
        }
        dim {
          size: 8
        }
        dim {
          size: 1
        }
      }
    }
  }
  attr {
    key: "shared_name"
    value {
      s: "transition_block/depthwise_conv2d/depthwise_kernel"
    }
  }
}
node {
  name: "transition_block/depthwise_conv2d/depthwise_kernel/IsInitialized/VarIsInitializedOp"
  op: "VarIsInitializedOp"
  input: "transition_block/depthwise_conv2d/depthwise_kernel"
}
node {
  name: "transition_block/depthwise_conv2d/depthwise_kernel/Assign"
  op: "AssignVariableOp"
  input: "transition_block/depthwise_conv2d/depthwise_kernel"
  input: "transition_block/depthwise_conv2d/depthwise_kernel/Initializer/stateless_random_uniform"
  attr {
    key: "_has_manual_control_dependencies"
    value {
      b: true
    }
  }
  attr {
    key: "dtype"
    value {
      type: DT_FLOAT
    }
  }
  attr {
    key: "validate_shape"
    value {
      b: false
    }
  }
}
node {
  name: "transition_block/depthwise_conv2d/depthwise_kernel/Read/ReadVariableOp"
  op: "ReadVariableOp"
  input: "transition_block/depthwise_conv2d/depthwise_kernel"
  attr {
    key: "dtype"
    value {
      type: DT_FLOAT
    }
  }
}
node {
  name: "transition_block/depthwise_conv2d/depthwise/ReadVariableOp"
  op: "ReadVariableOp"
  input: "transition_block/depthwise_conv2d/depthwise_kernel"
  attr {
    key: "dtype"
    value {
      type: DT_FLOAT
    }
  }
}
node {
  name: "transition_block/depthwise_conv2d/depthwise/Shape"
  op: "Const"
  attr {
    key: "dtype"
    value {
      type: DT_INT32
    }
  }
  attr {
    key: "value"
    value {
      tensor {
        dtype: DT_INT32
        tensor_shape {
          dim {
            size: 4
          }
        }
        tensor_content: "\001\000\000\000\003\000\000\000\010\000\000\000\001\000\000\000"
      }
    }
  }
}
node {
  name: "transition_block/depthwise_conv2d/depthwise/dilation_rate"
  op: "Const"
  attr {
    key: "dtype"
    value {
      type: DT_INT32
    }
  }
  attr {
    key: "value"
    value {
      tensor {
        dtype: DT_INT32
        tensor_shape {
          dim {
            size: 2
          }
        }
        tensor_content: "\001\000\000\000\001\000\000\000"
      }
    }
  }
}
node {
  name: "transition_block/depthwise_conv2d/depthwise"
  op: "DepthwiseConv2dNative"
  input: "transition_block/Relu"
  input: "transition_block/depthwise_conv2d/depthwise/ReadVariableOp"
  attr {
    key: "T"
    value {
      type: DT_FLOAT
    }
  }
  attr {
    key: "data_format"
    value {
      s: "NHWC"
    }
  }
  attr {
    key: "dilations"
    value {
      list {
        i: 1
        i: 1
        i: 1
        i: 1
      }
    }
  }
  attr {
    key: "explicit_paddings"
    value {
      list {
      }
    }
  }
  attr {
    key: "padding"
    value {
      s: "SAME"
    }
  }
  attr {
    key: "strides"
    value {
      list {
        i: 1
        i: 1
        i: 1
        i: 1
      }
    }
  }
}
node {
  name: "transition_block/sub_spectral_normalization/reshape/Shape"
  op: "Const"
  attr {
    key: "dtype"
    value {
      type: DT_INT32
    }
  }
  attr {
    key: "value"
    value {
      tensor {
        dtype: DT_INT32
        tensor_shape {
          dim {
            size: 4
          }
        }
        tensor_content: "d\000\000\000b\000\000\000\024\000\000\000\010\000\000\000"
      }
    }
  }
}
node {
  name: "transition_block/sub_spectral_normalization/reshape/strided_slice/stack"
  op: "Const"
  attr {
    key: "dtype"
    value {
      type: DT_INT32
    }
  }
  attr {
    key: "value"
    value {
      tensor {
        dtype: DT_INT32
        tensor_shape {
          dim {
            size: 1
          }
        }
        int_val: 0
      }
    }
  }
}
node {
  name: "transition_block/sub_spectral_normalization/reshape/strided_slice/stack_1"
  op: "Const"
  attr {
    key: "dtype"
    value {
      type: DT_INT32
    }
  }
  attr {
    key: "value"
    value {
      tensor {
        dtype: DT_INT32
        tensor_shape {
          dim {
            size: 1
          }
        }
        int_val: 1
      }
    }
  }
}
node {
  name: "transition_block/sub_spectral_normalization/reshape/strided_slice/stack_2"
  op: "Const"
  attr {
    key: "dtype"
    value {
      type: DT_INT32
    }
  }
  attr {
    key: "value"
    value {
      tensor {
        dtype: DT_INT32
        tensor_shape {
          dim {
            size: 1
          }
        }
        int_val: 1
      }
    }
  }
}
node {
  name: "transition_block/sub_spectral_normalization/reshape/strided_slice"
  op: "StridedSlice"
  input: "transition_block/sub_spectral_normalization/reshape/Shape"
  input: "transition_block/sub_spectral_normalization/reshape/strided_slice/stack"
  input: "transition_block/sub_spectral_normalization/reshape/strided_slice/stack_1"
  input: "transition_block/sub_spectral_normalization/reshape/strided_slice/stack_2"
  attr {
    key: "Index"
    value {
      type: DT_INT32
    }
  }
  attr {
    key: "T"
    value {
      type: DT_INT32
    }
  }
  attr {
    key: "begin_mask"
    value {
      i: 0
    }
  }
  attr {
    key: "ellipsis_mask"
    value {
      i: 0
    }
  }
  attr {
    key: "end_mask"
    value {
      i: 0
    }
  }
  attr {
    key: "new_axis_mask"
    value {
      i: 0
    }
  }
  attr {
    key: "shrink_axis_mask"
    value {
      i: 1
    }
  }
}
node {
  name: "transition_block/sub_spectral_normalization/reshape/Reshape/shape/1"
  op: "Const"
  attr {
    key: "dtype"
    value {
      type: DT_INT32
    }
  }
  attr {
    key: "value"
    value {
      tensor {
        dtype: DT_INT32
        tensor_shape {
        }
        int_val: 98
      }
    }
  }
}
node {
  name: "transition_block/sub_spectral_normalization/reshape/Reshape/shape/2"
  op: "Const"
  attr {
    key: "dtype"
    value {
      type: DT_INT32
    }
  }
  attr {
    key: "value"
    value {
      tensor {
        dtype: DT_INT32
        tensor_shape {
        }
        int_val: 4
      }
    }
  }
}
node {
  name: "transition_block/sub_spectral_normalization/reshape/Reshape/shape/3"
  op: "Const"
  attr {
    key: "dtype"
    value {
      type: DT_INT32
    }
  }
  attr {
    key: "value"
    value {
      tensor {
        dtype: DT_INT32
        tensor_shape {
        }
        int_val: 40
      }
    }
  }
}
node {
  name: "transition_block/sub_spectral_normalization/reshape/Reshape/shape"
  op: "Pack"
  input: "transition_block/sub_spectral_normalization/reshape/strided_slice"
  input: "transition_block/sub_spectral_normalization/reshape/Reshape/shape/1"
  input: "transition_block/sub_spectral_normalization/reshape/Reshape/shape/2"
  input: "transition_block/sub_spectral_normalization/reshape/Reshape/shape/3"
  attr {
    key: "N"
    value {
      i: 4
    }
  }
  attr {
    key: "T"
    value {
      type: DT_INT32
    }
  }
  attr {
    key: "axis"
    value {
      i: 0
    }
  }
}
node {
  name: "transition_block/sub_spectral_normalization/reshape/Reshape"
  op: "Reshape"
  input: "transition_block/depthwise_conv2d/depthwise"
  input: "transition_block/sub_spectral_normalization/reshape/Reshape/shape"
  attr {
    key: "T"
    value {
      type: DT_FLOAT
    }
  }
  attr {
    key: "Tshape"
    value {
      type: DT_INT32
    }
  }
}
node {
  name: "transition_block/sub_spectral_normalization/batch_normalization_2/gamma/Initializer/ones"
  op: "Const"
  attr {
    key: "_class"
    value {
      list {
        s: "loc:@transition_block/sub_spectral_normalization/batch_normalization_2/gamma"
      }
    }
  }
  attr {
    key: "dtype"
    value {
      type: DT_FLOAT
    }
  }
  attr {
    key: "value"
    value {
      tensor {
        dtype: DT_FLOAT
        tensor_shape {
          dim {
            size: 40
          }
        }
        float_val: 1.0
      }
    }
  }
}
node {
  name: "transition_block/sub_spectral_normalization/batch_normalization_2/gamma"
  op: "VarHandleOp"
  attr {
    key: "_class"
    value {
      list {
        s: "loc:@transition_block/sub_spectral_normalization/batch_normalization_2/gamma"
      }
    }
  }
  attr {
    key: "allowed_devices"
    value {
      list {
      }
    }
  }
  attr {
    key: "container"
    value {
      s: ""
    }
  }
  attr {
    key: "dtype"
    value {
      type: DT_FLOAT
    }
  }
  attr {
    key: "shape"
    value {
      shape {
        dim {
          size: 40
        }
      }
    }
  }
  attr {
    key: "shared_name"
    value {
      s: "transition_block/sub_spectral_normalization/batch_normalization_2/gamma"
    }
  }
}
node {
  name: "transition_block/sub_spectral_normalization/batch_normalization_2/gamma/IsInitialized/VarIsInitializedOp"
  op: "VarIsInitializedOp"
  input: "transition_block/sub_spectral_normalization/batch_normalization_2/gamma"
}
node {
  name: "transition_block/sub_spectral_normalization/batch_normalization_2/gamma/Assign"
  op: "AssignVariableOp"
  input: "transition_block/sub_spectral_normalization/batch_normalization_2/gamma"
  input: "transition_block/sub_spectral_normalization/batch_normalization_2/gamma/Initializer/ones"
  attr {
    key: "_has_manual_control_dependencies"
    value {
      b: true
    }
  }
  attr {
    key: "dtype"
    value {
      type: DT_FLOAT
    }
  }
  attr {
    key: "validate_shape"
    value {
      b: false
    }
  }
}
node {
  name: "transition_block/sub_spectral_normalization/batch_normalization_2/gamma/Read/ReadVariableOp"
  op: "ReadVariableOp"
  input: "transition_block/sub_spectral_normalization/batch_normalization_2/gamma"
  attr {
    key: "dtype"
    value {
      type: DT_FLOAT
    }
  }
}
node {
  name: "transition_block/sub_spectral_normalization/batch_normalization_2/beta/Initializer/zeros"
  op: "Const"
  attr {
    key: "_class"
    value {
      list {
        s: "loc:@transition_block/sub_spectral_normalization/batch_normalization_2/beta"
      }
    }
  }
  attr {
    key: "dtype"
    value {
      type: DT_FLOAT
    }
  }
  attr {
    key: "value"
    value {
      tensor {
        dtype: DT_FLOAT
        tensor_shape {
          dim {
            size: 40
          }
        }
        float_val: 0.0
      }
    }
  }
}
node {
  name: "transition_block/sub_spectral_normalization/batch_normalization_2/beta"
  op: "VarHandleOp"
  attr {
    key: "_class"
    value {
      list {
        s: "loc:@transition_block/sub_spectral_normalization/batch_normalization_2/beta"
      }
    }
  }
  attr {
    key: "allowed_devices"
    value {
      list {
      }
    }
  }
  attr {
    key: "container"
    value {
      s: ""
    }
  }
  attr {
    key: "dtype"
    value {
      type: DT_FLOAT
    }
  }
  attr {
    key: "shape"
    value {
      shape {
        dim {
          size: 40
        }
      }
    }
  }
  attr {
    key: "shared_name"
    value {
      s: "transition_block/sub_spectral_normalization/batch_normalization_2/beta"
    }
  }
}
node {
  name: "transition_block/sub_spectral_normalization/batch_normalization_2/beta/IsInitialized/VarIsInitializedOp"
  op: "VarIsInitializedOp"
  input: "transition_block/sub_spectral_normalization/batch_normalization_2/beta"
}
node {
  name: "transition_block/sub_spectral_normalization/batch_normalization_2/beta/Assign"
  op: "AssignVariableOp"
  input: "transition_block/sub_spectral_normalization/batch_normalization_2/beta"
  input: "transition_block/sub_spectral_normalization/batch_normalization_2/beta/Initializer/zeros"
  attr {
    key: "_has_manual_control_dependencies"
    value {
      b: true
    }
  }
  attr {
    key: "dtype"
    value {
      type: DT_FLOAT
    }
  }
  attr {
    key: "validate_shape"
    value {
      b: false
    }
  }
}
node {
  name: "transition_block/sub_spectral_normalization/batch_normalization_2/beta/Read/ReadVariableOp"
  op: "ReadVariableOp"
  input: "transition_block/sub_spectral_normalization/batch_normalization_2/beta"
  attr {
    key: "dtype"
    value {
      type: DT_FLOAT
    }
  }
}
node {
  name: "transition_block/sub_spectral_normalization/batch_normalization_2/moving_mean/Initializer/zeros"
  op: "Const"
  attr {
    key: "_class"
    value {
      list {
        s: "loc:@transition_block/sub_spectral_normalization/batch_normalization_2/moving_mean"
      }
    }
  }
  attr {
    key: "dtype"
    value {
      type: DT_FLOAT
    }
  }
  attr {
    key: "value"
    value {
      tensor {
        dtype: DT_FLOAT
        tensor_shape {
          dim {
            size: 40
          }
        }
        float_val: 0.0
      }
    }
  }
}
node {
  name: "transition_block/sub_spectral_normalization/batch_normalization_2/moving_mean"
  op: "VarHandleOp"
  attr {
    key: "_class"
    value {
      list {
        s: "loc:@transition_block/sub_spectral_normalization/batch_normalization_2/moving_mean"
      }
    }
  }
  attr {
    key: "allowed_devices"
    value {
      list {
      }
    }
  }
  attr {
    key: "container"
    value {
      s: ""
    }
  }
  attr {
    key: "dtype"
    value {
      type: DT_FLOAT
    }
  }
  attr {
    key: "shape"
    value {
      shape {
        dim {
          size: 40
        }
      }
    }
  }
  attr {
    key: "shared_name"
    value {
      s: "transition_block/sub_spectral_normalization/batch_normalization_2/moving_mean"
    }
  }
}
node {
  name: "transition_block/sub_spectral_normalization/batch_normalization_2/moving_mean/IsInitialized/VarIsInitializedOp"
  op: "VarIsInitializedOp"
  input: "transition_block/sub_spectral_normalization/batch_normalization_2/moving_mean"
}
node {
  name: "transition_block/sub_spectral_normalization/batch_normalization_2/moving_mean/Assign"
  op: "AssignVariableOp"
  input: "transition_block/sub_spectral_normalization/batch_normalization_2/moving_mean"
  input: "transition_block/sub_spectral_normalization/batch_normalization_2/moving_mean/Initializer/zeros"
  attr {
    key: "_has_manual_control_dependencies"
    value {
      b: true
    }
  }
  attr {
    key: "dtype"
    value {
      type: DT_FLOAT
    }
  }
  attr {
    key: "validate_shape"
    value {
      b: false
    }
  }
}
node {
  name: "transition_block/sub_spectral_normalization/batch_normalization_2/moving_mean/Read/ReadVariableOp"
  op: "ReadVariableOp"
  input: "transition_block/sub_spectral_normalization/batch_normalization_2/moving_mean"
  attr {
    key: "dtype"
    value {
      type: DT_FLOAT
    }
  }
}
node {
  name: "transition_block/sub_spectral_normalization/batch_normalization_2/moving_variance/Initializer/ones"
  op: "Const"
  attr {
    key: "_class"
    value {
      list {
        s: "loc:@transition_block/sub_spectral_normalization/batch_normalization_2/moving_variance"
      }
    }
  }
  attr {
    key: "dtype"
    value {
      type: DT_FLOAT
    }
  }
  attr {
    key: "value"
    value {
      tensor {
        dtype: DT_FLOAT
        tensor_shape {
          dim {
            size: 40
          }
        }
        float_val: 1.0
      }
    }
  }
}
node {
  name: "transition_block/sub_spectral_normalization/batch_normalization_2/moving_variance"
  op: "VarHandleOp"
  attr {
    key: "_class"
    value {
      list {
        s: "loc:@transition_block/sub_spectral_normalization/batch_normalization_2/moving_variance"
      }
    }
  }
  attr {
    key: "allowed_devices"
    value {
      list {
      }
    }
  }
  attr {
    key: "container"
    value {
      s: ""
    }
  }
  attr {
    key: "dtype"
    value {
      type: DT_FLOAT
    }
  }
  attr {
    key: "shape"
    value {
      shape {
        dim {
          size: 40
        }
      }
    }
  }
  attr {
    key: "shared_name"
    value {
      s: "transition_block/sub_spectral_normalization/batch_normalization_2/moving_variance"
    }
  }
}
node {
  name: "transition_block/sub_spectral_normalization/batch_normalization_2/moving_variance/IsInitialized/VarIsInitializedOp"
  op: "VarIsInitializedOp"
  input: "transition_block/sub_spectral_normalization/batch_normalization_2/moving_variance"
}
node {
  name: "transition_block/sub_spectral_normalization/batch_normalization_2/moving_variance/Assign"
  op: "AssignVariableOp"
  input: "transition_block/sub_spectral_normalization/batch_normalization_2/moving_variance"
  input: "transition_block/sub_spectral_normalization/batch_normalization_2/moving_variance/Initializer/ones"
  attr {
    key: "_has_manual_control_dependencies"
    value {
      b: true
    }
  }
  attr {
    key: "dtype"
    value {
      type: DT_FLOAT
    }
  }
  attr {
    key: "validate_shape"
    value {
      b: false
    }
  }
}
node {
  name: "transition_block/sub_spectral_normalization/batch_normalization_2/moving_variance/Read/ReadVariableOp"
  op: "ReadVariableOp"
  input: "transition_block/sub_spectral_normalization/batch_normalization_2/moving_variance"
  attr {
    key: "dtype"
    value {
      type: DT_FLOAT
    }
  }
}
node {
  name: "transition_block/sub_spectral_normalization/batch_normalization_2/cond"
  op: "If"
  input: "keras_learning_phase"
  input: "transition_block/sub_spectral_normalization/batch_normalization_2/gamma"
  input: "transition_block/sub_spectral_normalization/batch_normalization_2/beta"
  input: "transition_block/sub_spectral_normalization/batch_normalization_2/moving_mean"
  input: "transition_block/sub_spectral_normalization/batch_normalization_2/moving_variance"
  input: "transition_block/sub_spectral_normalization/reshape/Reshape"
  attr {
    key: "Tcond"
    value {
      type: DT_BOOL
    }
  }
  attr {
    key: "Tin"
    value {
      list {
        type: DT_RESOURCE
        type: DT_RESOURCE
        type: DT_RESOURCE
        type: DT_RESOURCE
        type: DT_FLOAT
      }
    }
  }
  attr {
    key: "Tout"
    value {
      list {
        type: DT_FLOAT
        type: DT_FLOAT
        type: DT_FLOAT
        type: DT_VARIANT
        type: DT_VARIANT
        type: DT_VARIANT
        type: DT_VARIANT
        type: DT_VARIANT
        type: DT_VARIANT
        type: DT_VARIANT
      }
    }
  }
  attr {
    key: "_lower_using_switch_merge"
    value {
      b: true
    }
  }
  attr {
    key: "_read_only_resource_inputs"
    value {
      list {
        i: 1
        i: 2
        i: 3
        i: 4
      }
    }
  }
  attr {
    key: "else_branch"
    value {
      func {
        name: "transition_block_sub_spectral_normalization_batch_normalization_2_cond_false_411"
      }
    }
  }
  attr {
    key: "output_shapes"
    value {
      list {
        shape {
          dim {
            size: 100
          }
          dim {
            size: 98
          }
          dim {
            size: 4
          }
          dim {
            size: 40
          }
        }
        shape {
          dim {
            size: 40
          }
        }
        shape {
          dim {
            size: 40
          }
        }
        shape {
        }
        shape {
        }
        shape {
        }
        shape {
        }
        shape {
        }
        shape {
        }
        shape {
        }
      }
    }
  }
  attr {
    key: "then_branch"
    value {
      func {
        name: "transition_block_sub_spectral_normalization_batch_normalization_2_cond_true_410"
      }
    }
  }
}
node {
  name: "transition_block/sub_spectral_normalization/batch_normalization_2/cond/Identity"
  op: "Identity"
  input: "transition_block/sub_spectral_normalization/batch_normalization_2/cond"
  attr {
    key: "T"
    value {
      type: DT_FLOAT
    }
  }
}
node {
  name: "transition_block/sub_spectral_normalization/batch_normalization_2/cond/Identity_1"
  op: "Identity"
  input: "transition_block/sub_spectral_normalization/batch_normalization_2/cond:1"
  attr {
    key: "T"
    value {
      type: DT_FLOAT
    }
  }
}
node {
  name: "transition_block/sub_spectral_normalization/batch_normalization_2/cond/Identity_2"
  op: "Identity"
  input: "transition_block/sub_spectral_normalization/batch_normalization_2/cond:2"
  attr {
    key: "T"
    value {
      type: DT_FLOAT
    }
  }
}
node {
  name: "transition_block/sub_spectral_normalization/batch_normalization_2/cond/Identity_3"
  op: "Identity"
  input: "transition_block/sub_spectral_normalization/batch_normalization_2/cond:3"
  attr {
    key: "T"
    value {
      type: DT_VARIANT
    }
  }
}
node {
  name: "transition_block/sub_spectral_normalization/batch_normalization_2/cond/Identity_4"
  op: "Identity"
  input: "transition_block/sub_spectral_normalization/batch_normalization_2/cond:4"
  attr {
    key: "T"
    value {
      type: DT_VARIANT
    }
  }
}
node {
  name: "transition_block/sub_spectral_normalization/batch_normalization_2/cond/Identity_5"
  op: "Identity"
  input: "transition_block/sub_spectral_normalization/batch_normalization_2/cond:5"
  attr {
    key: "T"
    value {
      type: DT_VARIANT
    }
  }
}
node {
  name: "transition_block/sub_spectral_normalization/batch_normalization_2/cond/Identity_6"
  op: "Identity"
  input: "transition_block/sub_spectral_normalization/batch_normalization_2/cond:6"
  attr {
    key: "T"
    value {
      type: DT_VARIANT
    }
  }
}
node {
  name: "transition_block/sub_spectral_normalization/batch_normalization_2/cond/Identity_7"
  op: "Identity"
  input: "transition_block/sub_spectral_normalization/batch_normalization_2/cond:7"
  attr {
    key: "T"
    value {
      type: DT_VARIANT
    }
  }
}
node {
  name: "transition_block/sub_spectral_normalization/batch_normalization_2/cond/Identity_8"
  op: "Identity"
  input: "transition_block/sub_spectral_normalization/batch_normalization_2/cond:8"
  attr {
    key: "T"
    value {
      type: DT_VARIANT
    }
  }
}
node {
  name: "transition_block/sub_spectral_normalization/batch_normalization_2/cond/Identity_9"
  op: "Identity"
  input: "transition_block/sub_spectral_normalization/batch_normalization_2/cond:9"
  attr {
    key: "T"
    value {
      type: DT_VARIANT
    }
  }
}
node {
  name: "transition_block/sub_spectral_normalization/batch_normalization_2/cond_1"
  op: "StatelessIf"
  input: "keras_learning_phase"
  attr {
    key: "Tcond"
    value {
      type: DT_BOOL
    }
  }
  attr {
    key: "Tin"
    value {
      list {
      }
    }
  }
  attr {
    key: "Tout"
    value {
      list {
        type: DT_FLOAT
      }
    }
  }
  attr {
    key: "_lower_using_switch_merge"
    value {
      b: true
    }
  }
  attr {
    key: "_read_only_resource_inputs"
    value {
      list {
      }
    }
  }
  attr {
    key: "else_branch"
    value {
      func {
        name: "transition_block_sub_spectral_normalization_batch_normalization_2_cond_1_false_479"
      }
    }
  }
  attr {
    key: "output_shapes"
    value {
      list {
        shape {
        }
      }
    }
  }
  attr {
    key: "then_branch"
    value {
      func {
        name: "transition_block_sub_spectral_normalization_batch_normalization_2_cond_1_true_478"
      }
    }
  }
}
node {
  name: "transition_block/sub_spectral_normalization/batch_normalization_2/cond_1/Identity"
  op: "Identity"
  input: "transition_block/sub_spectral_normalization/batch_normalization_2/cond_1"
  attr {
    key: "T"
    value {
      type: DT_FLOAT
    }
  }
}
node {
  name: "transition_block/sub_spectral_normalization/batch_normalization_2/AssignMovingAvg/sub/x"
  op: "Const"
  attr {
    key: "_class"
    value {
      list {
        s: "loc:@transition_block/sub_spectral_normalization/batch_normalization_2/moving_mean"
      }
    }
  }
  attr {
    key: "dtype"
    value {
      type: DT_FLOAT
    }
  }
  attr {
    key: "value"
    value {
      tensor {
        dtype: DT_FLOAT
        tensor_shape {
        }
        float_val: 1.0
      }
    }
  }
}
node {
  name: "transition_block/sub_spectral_normalization/batch_normalization_2/AssignMovingAvg/sub"
  op: "Sub"
  input: "transition_block/sub_spectral_normalization/batch_normalization_2/AssignMovingAvg/sub/x"
  input: "transition_block/sub_spectral_normalization/batch_normalization_2/cond_1/Identity"
  attr {
    key: "T"
    value {
      type: DT_FLOAT
    }
  }
  attr {
    key: "_class"
    value {
      list {
        s: "loc:@transition_block/sub_spectral_normalization/batch_normalization_2/moving_mean"
      }
    }
  }
}
node {
  name: "transition_block/sub_spectral_normalization/batch_normalization_2/AssignMovingAvg/ReadVariableOp"
  op: "ReadVariableOp"
  input: "transition_block/sub_spectral_normalization/batch_normalization_2/moving_mean"
  attr {
    key: "dtype"
    value {
      type: DT_FLOAT
    }
  }
}
node {
  name: "transition_block/sub_spectral_normalization/batch_normalization_2/AssignMovingAvg/sub_1"
  op: "Sub"
  input: "transition_block/sub_spectral_normalization/batch_normalization_2/AssignMovingAvg/ReadVariableOp"
  input: "transition_block/sub_spectral_normalization/batch_normalization_2/cond/Identity_1"
  attr {
    key: "T"
    value {
      type: DT_FLOAT
    }
  }
  attr {
    key: "_class"
    value {
      list {
        s: "loc:@transition_block/sub_spectral_normalization/batch_normalization_2/moving_mean"
      }
    }
  }
}
node {
  name: "transition_block/sub_spectral_normalization/batch_normalization_2/AssignMovingAvg/mul"
  op: "Mul"
  input: "transition_block/sub_spectral_normalization/batch_normalization_2/AssignMovingAvg/sub_1"
  input: "transition_block/sub_spectral_normalization/batch_normalization_2/AssignMovingAvg/sub"
  attr {
    key: "T"
    value {
      type: DT_FLOAT
    }
  }
  attr {
    key: "_class"
    value {
      list {
        s: "loc:@transition_block/sub_spectral_normalization/batch_normalization_2/moving_mean"
      }
    }
  }
}
node {
  name: "transition_block/sub_spectral_normalization/batch_normalization_2/AssignMovingAvg/AssignSubVariableOp"
  op: "AssignSubVariableOp"
  input: "transition_block/sub_spectral_normalization/batch_normalization_2/moving_mean"
  input: "transition_block/sub_spectral_normalization/batch_normalization_2/AssignMovingAvg/mul"
  attr {
    key: "_class"
    value {
      list {
        s: "loc:@transition_block/sub_spectral_normalization/batch_normalization_2/moving_mean"
      }
    }
  }
  attr {
    key: "_has_manual_control_dependencies"
    value {
      b: true
    }
  }
  attr {
    key: "dtype"
    value {
      type: DT_FLOAT
    }
  }
}
node {
  name: "transition_block/sub_spectral_normalization/batch_normalization_2/AssignMovingAvg/ReadVariableOp_1"
  op: "ReadVariableOp"
  input: "transition_block/sub_spectral_normalization/batch_normalization_2/moving_mean"
  input: "^transition_block/sub_spectral_normalization/batch_normalization_2/AssignMovingAvg/AssignSubVariableOp"
  attr {
    key: "_class"
    value {
      list {
        s: "loc:@transition_block/sub_spectral_normalization/batch_normalization_2/moving_mean"
      }
    }
  }
  attr {
    key: "dtype"
    value {
      type: DT_FLOAT
    }
  }
}
node {
  name: "transition_block/sub_spectral_normalization/batch_normalization_2/AssignMovingAvg_1/sub/x"
  op: "Const"
  attr {
    key: "_class"
    value {
      list {
        s: "loc:@transition_block/sub_spectral_normalization/batch_normalization_2/moving_variance"
      }
    }
  }
  attr {
    key: "dtype"
    value {
      type: DT_FLOAT
    }
  }
  attr {
    key: "value"
    value {
      tensor {
        dtype: DT_FLOAT
        tensor_shape {
        }
        float_val: 1.0
…
      input: "fusedbatchnormv3_readvariableop_1_normal_block_batch_normalization_3_moving_variance"
      attr {
        key: "dtype"
        value {
          type: DT_FLOAT
        }
      }
    }
    node_def {
      name: "FusedBatchNormV3"
      op: "FusedBatchNormV3"
      input: "fusedbatchnormv3_normal_block_depthwise_conv2d_3_depthwise"
      input: "ReadVariableOp:value:0"
      input: "ReadVariableOp_1:value:0"
      input: "FusedBatchNormV3/ReadVariableOp:value:0"
      input: "FusedBatchNormV3/ReadVariableOp_1:value:0"
      attr {
        key: "T"
        value {
          type: DT_FLOAT
        }
      }
      attr {
        key: "U"
        value {
          type: DT_FLOAT
        }
      }
      attr {
        key: "data_format"
        value {
          s: "NHWC"
        }
      }
      attr {
        key: "epsilon"
        value {
          f: 0.0010000000474974513
        }
      }
      attr {
        key: "exponential_avg_factor"
        value {
          f: 1.0
        }
      }
      attr {
        key: "is_training"
        value {
          b: false
        }
      }
    }
    node_def {
      name: "OptionalFromValue"
      op: "OptionalFromValue"
      input: "ReadVariableOp:value:0"
      attr {
        key: "Toutput_types"
        value {
          list {
            type: DT_FLOAT
          }
        }
      }
      experimental_type {
        type_id: TFT_PRODUCT
        args {
          type_id: TFT_OPTIONAL
          args {
            type_id: TFT_PRODUCT
            args {
              type_id: TFT_TENSOR
              args {
                type_id: TFT_FLOAT
              }
            }
          }
        }
      }
    }
    node_def {
      name: "OptionalFromValue_1"
      op: "OptionalFromValue"
      input: "ReadVariableOp_1:value:0"
      attr {
        key: "Toutput_types"
        value {
          list {
            type: DT_FLOAT
          }
        }
      }
      experimental_type {
        type_id: TFT_PRODUCT
        args {
          type_id: TFT_OPTIONAL
          args {
            type_id: TFT_PRODUCT
            args {
              type_id: TFT_TENSOR
              args {
                type_id: TFT_FLOAT
              }
            }
          }
        }
      }
    }
    node_def {
      name: "OptionalFromValue_2"
      op: "OptionalFromValue"
      input: "FusedBatchNormV3/ReadVariableOp:value:0"
      attr {
        key: "Toutput_types"
        value {
          list {
            type: DT_FLOAT
          }
        }
      }
      experimental_type {
        type_id: TFT_PRODUCT
        args {
          type_id: TFT_OPTIONAL
          args {
            type_id: TFT_PRODUCT
            args {
              type_id: TFT_TENSOR
              args {
                type_id: TFT_FLOAT
              }
            }
          }
        }
      }
    }
    node_def {
      name: "OptionalFromValue_3"
      op: "OptionalFromValue"
      input: "FusedBatchNormV3/ReadVariableOp_1:value:0"
      attr {
        key: "Toutput_types"
        value {
          list {
            type: DT_FLOAT
          }
        }
      }
      experimental_type {
        type_id: TFT_PRODUCT
        args {
          type_id: TFT_OPTIONAL
          args {
            type_id: TFT_PRODUCT
            args {
              type_id: TFT_TENSOR
              args {
                type_id: TFT_FLOAT
              }
            }
          }
        }
      }
    }
    node_def {
      name: "OptionalFromValue_4"
      op: "OptionalFromValue"
      input: "FusedBatchNormV3:reserve_space_1:0"
      attr {
        key: "Toutput_types"
        value {
          list {
            type: DT_FLOAT
          }
        }
      }
      experimental_type {
        type_id: TFT_PRODUCT
        args {
          type_id: TFT_OPTIONAL
          args {
            type_id: TFT_PRODUCT
            args {
              type_id: TFT_TENSOR
              args {
                type_id: TFT_FLOAT
              }
            }
          }
        }
      }
    }
    node_def {
      name: "OptionalFromValue_5"
      op: "OptionalFromValue"
      input: "FusedBatchNormV3:reserve_space_2:0"
      attr {
        key: "Toutput_types"
        value {
          list {
            type: DT_FLOAT
          }
        }
      }
      experimental_type {
        type_id: TFT_PRODUCT
        args {
          type_id: TFT_OPTIONAL
          args {
            type_id: TFT_PRODUCT
            args {
              type_id: TFT_TENSOR
              args {
                type_id: TFT_FLOAT
              }
            }
          }
        }
      }
    }
    node_def {
      name: "OptionalFromValue_6"
      op: "OptionalFromValue"
      input: "FusedBatchNormV3:reserve_space_3:0"
      attr {
        key: "Toutput_types"
        value {
          list {
            type: DT_FLOAT
          }
        }
      }
      experimental_type {
        type_id: TFT_PRODUCT
        args {
          type_id: TFT_OPTIONAL
          args {
            type_id: TFT_PRODUCT
            args {
              type_id: TFT_TENSOR
              args {
                type_id: TFT_FLOAT
              }
            }
          }
        }
      }
    }
    ret {
      key: "fusedbatchnormv3"
      value: "FusedBatchNormV3:y:0"
    }
    ret {
      key: "fusedbatchnormv3_0"
      value: "FusedBatchNormV3:batch_mean:0"
    }
    ret {
      key: "fusedbatchnormv3_1"
      value: "FusedBatchNormV3:batch_variance:0"
    }
    ret {
      key: "optionalfromvalue"
      value: "OptionalFromValue:optional:0"
    }
    ret {
      key: "optionalfromvalue_1"
      value: "OptionalFromValue_1:optional:0"
    }
    ret {
      key: "optionalfromvalue_2"
      value: "OptionalFromValue_2:optional:0"
    }
    ret {
      key: "optionalfromvalue_3"
      value: "OptionalFromValue_3:optional:0"
    }
    ret {
      key: "optionalfromvalue_4"
      value: "OptionalFromValue_4:optional:0"
    }
    ret {
      key: "optionalfromvalue_5"
      value: "OptionalFromValue_5:optional:0"
    }
    ret {
      key: "optionalfromvalue_6"
      value: "OptionalFromValue_6:optional:0"
    }
    arg_attr {
      key: 4
      value {
        attr {
          key: "_output_shapes"
          value {
            list {
              shape {
                dim {
                  size: 100
                }
                dim {
                  size: 98
                }
                dim {
                  size: 1
                }
                dim {
                  size: 8
                }
              }
            }
          }
        }
      }
    }
  }
  function {
    signature {
      name: "transition_block_2_sub_spectral_normalization_6_batch_normalization_16_cond_1_true_3146"
      output_arg {
        name: "const"
        type: DT_FLOAT
      }
    }
    node_def {
      name: "Const"
      op: "Const"
      attr {
        key: "dtype"
        value {
          type: DT_FLOAT
        }
      }
      attr {
        key: "value"
        value {
          tensor {
            dtype: DT_FLOAT
            tensor_shape {
            }
            float_val: 0.9900000095367432
          }
        }
      }
    }
    ret {
      key: "const"
      value: "Const:output:0"
    }
  }
  function {
    signature {
      name: "transition_block_2_spatial_dropout2d_6_cond_true_3334"
      input_arg {
        name: "dropout_mul_transition_block_2_conv2d_10_conv2d"
        type: DT_FLOAT
      }
      output_arg {
        name: "dropout_selectv2"
        type: DT_FLOAT
      }
      output_arg {
        name: "optionalfromvalue"
        type: DT_VARIANT
      }
      output_arg {
        name: "optionalfromvalue_1"
        type: DT_VARIANT
      }
      output_arg {
        name: "optionalfromvalue_2"
        type: DT_VARIANT
      }
      output_arg {
        name: "optionalfromvalue_3"
        type: DT_VARIANT
      }
      output_arg {
        name: "optionalfromvalue_4"
        type: DT_VARIANT
      }
      output_arg {
        name: "optionalfromvalue_5"
        type: DT_VARIANT
      }
      output_arg {
        name: "optionalfromvalue_6"
        type: DT_VARIANT
      }
      output_arg {
        name: "optionalfromvalue_7"
        type: DT_VARIANT
      }
      output_arg {
        name: "optionalfromvalue_8"
        type: DT_VARIANT
      }
      output_arg {
        name: "optionalfromvalue_9"
        type: DT_VARIANT
      }
      output_arg {
        name: "optionalfromvalue_10"
        type: DT_VARIANT
      }
      output_arg {
        name: "optionalfromvalue_11"
        type: DT_VARIANT
      }
      output_arg {
        name: "optionalfromvalue_12"
        type: DT_VARIANT
      }
      output_arg {
        name: "optionalfromvalue_13"
        type: DT_VARIANT
      }
      output_arg {
        name: "optionalfromvalue_14"
        type: DT_VARIANT
      }
      output_arg {
        name: "optionalfromvalue_15"
        type: DT_VARIANT
      }
      output_arg {
        name: "optionalfromvalue_16"
        type: DT_VARIANT
      }
      output_arg {
        name: "optionalfromvalue_17"
        type: DT_VARIANT
      }
      is_stateful: true
    }
    node_def {
      name: "Shape"
      op: "Const"
      attr {
        key: "dtype"
        value {
          type: DT_INT32
        }
      }
      attr {
        key: "value"
        value {
          tensor {
            dtype: DT_INT32
            tensor_shape {
              dim {
                size: 4
              }
            }
            tensor_content: "d\000\000\000b\000\000\000\001\000\000\000\020\000\000\000"
          }
        }
      }
    }
    node_def {
      name: "strided_slice/stack"
      op: "Const"
      attr {
        key: "dtype"
        value {
          type: DT_INT32
        }
      }
      attr {
        key: "value"
        value {
          tensor {
            dtype: DT_INT32
            tensor_shape {
              dim {
                size: 1
              }
            }
            int_val: 0
          }
        }
      }
    }
    node_def {
      name: "strided_slice/stack_1"
      op: "Const"
      attr {
        key: "dtype"
        value {
          type: DT_INT32
        }
      }
      attr {
        key: "value"
        value {
          tensor {
            dtype: DT_INT32
            tensor_shape {
              dim {
                size: 1
              }
            }
            int_val: 1
          }
        }
      }
    }
    node_def {
      name: "strided_slice/stack_2"
      op: "Const"
      attr {
        key: "dtype"
        value {
          type: DT_INT32
        }
      }
      attr {
        key: "value"
        value {
          tensor {
            dtype: DT_INT32
            tensor_shape {
              dim {
                size: 1
              }
            }
            int_val: 1
          }
        }
      }
    }
    node_def {
      name: "strided_slice"
      op: "StridedSlice"
      input: "Shape:output:0"
      input: "strided_slice/stack:output:0"
      input: "strided_slice/stack_1:output:0"
      input: "strided_slice/stack_2:output:0"
      attr {
        key: "Index"
        value {
          type: DT_INT32
        }
      }
      attr {
        key: "T"
        value {
          type: DT_INT32
        }
      }
      attr {
        key: "begin_mask"
        value {
          i: 0
        }
      }
      attr {
        key: "ellipsis_mask"
        value {
          i: 0
        }
      }
      attr {
        key: "end_mask"
        value {
          i: 0
        }
      }
      attr {
        key: "new_axis_mask"
        value {
          i: 0
        }
      }
      attr {
        key: "shrink_axis_mask"
        value {
          i: 1
        }
      }
    }
    node_def {
      name: "strided_slice_1/stack"
      op: "Const"
      attr {
        key: "dtype"
        value {
          type: DT_INT32
        }
      }
      attr {
        key: "value"
        value {
          tensor {
            dtype: DT_INT32
            tensor_shape {
              dim {
                size: 1
              }
            }
            int_val: 3
          }
        }
      }
    }
    node_def {
      name: "strided_slice_1/stack_1"
      op: "Const"
      attr {
        key: "dtype"
        value {
          type: DT_INT32
        }
      }
      attr {
        key: "value"
        value {
          tensor {
            dtype: DT_INT32
            tensor_shape {
              dim {
                size: 1
              }
            }
            int_val: 4
          }
        }
      }
    }
    node_def {
      name: "strided_slice_1/stack_2"
      op: "Const"
      attr {
        key: "dtype"
        value {
          type: DT_INT32
        }
      }
      attr {
        key: "value"
        value {
          tensor {
            dtype: DT_INT32
            tensor_shape {
              dim {
                size: 1
              }
            }
            int_val: 1
          }
        }
      }
    }
    node_def {
      name: "strided_slice_1"
      op: "StridedSlice"
      input: "Shape:output:0"
      input: "strided_slice_1/stack:output:0"
      input: "strided_slice_1/stack_1:output:0"
      input: "strided_slice_1/stack_2:output:0"
      attr {
        key: "Index"
        value {
          type: DT_INT32
        }
      }
      attr {
        key: "T"
        value {
          type: DT_INT32
        }
      }
      attr {
        key: "begin_mask"
        value {
          i: 0
        }
      }
      attr {
        key: "ellipsis_mask"
        value {
          i: 0
        }
      }
      attr {
        key: "end_mask"
        value {
          i: 0
        }
      }
      attr {
        key: "new_axis_mask"
        value {
          i: 0
        }
      }
      attr {
        key: "shrink_axis_mask"
        value {
          i: 1
        }
      }
    }
    node_def {
      name: "dropout/Const"
      op: "Const"
      attr {
        key: "dtype"
        value {
          type: DT_FLOAT
        }
      }
      attr {
        key: "value"
        value {
          tensor {
            dtype: DT_FLOAT
            tensor_shape {
            }
            float_val: 1.1111111640930176
          }
        }
      }
    }
    node_def {
      name: "dropout/Mul"
      op: "Mul"
      input: "dropout_mul_transition_block_2_conv2d_10_conv2d"
      input: "dropout/Const:output:0"
      attr {
        key: "T"
        value {
          type: DT_FLOAT
        }
      }
    }
    node_def {
      name: "dropout/random_uniform/shape/1"
      op: "Const"
      attr {
        key: "dtype"
        value {
          type: DT_INT32
        }
      }
      attr {
        key: "value"
        value {
          tensor {
            dtype: DT_INT32
            tensor_shape {
            }
            int_val: 1
          }
        }
      }
    }
    node_def {
      name: "dropout/random_uniform/shape/2"
      op: "Const"
      attr {
        key: "dtype"
        value {
          type: DT_INT32
        }
      }
      attr {
        key: "value"
        value {
          tensor {
            dtype: DT_INT32
            tensor_shape {
            }
            int_val: 1
          }
        }
      }
    }
    node_def {
      name: "dropout/random_uniform/shape"
      op: "Pack"
      input: "strided_slice:output:0"
      input: "dropout/random_uniform/shape/1:output:0"
      input: "dropout/random_uniform/shape/2:output:0"
      input: "strided_slice_1:output:0"
      attr {
        key: "N"
        value {
          i: 4
        }
      }
      attr {
        key: "T"
        value {
          type: DT_INT32
        }
      }
      attr {
        key: "axis"
        value {
          i: 0
        }
      }
    }
    node_def {
      name: "dropout/random_uniform/RandomUniform"
      op: "RandomUniform"
      input: "dropout/random_uniform/shape:output:0"
      attr {
        key: "T"
        value {
          type: DT_INT32
        }
      }
      attr {
        key: "dtype"
        value {
          type: DT_FLOAT
        }
      }
      attr {
        key: "seed"
        value {
          i: 0
        }
      }
      attr {
        key: "seed2"
        value {
          i: 0
        }
      }
    }
    node_def {
      name: "dropout/GreaterEqual/y"
      op: "Const"
      attr {
        key: "dtype"
        value {
          type: DT_FLOAT
        }
      }
      attr {
        key: "value"
        value {
          tensor {
            dtype: DT_FLOAT
            tensor_shape {
            }
            float_val: 0.10000000149011612
          }
        }
      }
    }
    node_def {
      name: "dropout/GreaterEqual"
      op: "GreaterEqual"
      input: "dropout/random_uniform/RandomUniform:output:0"
      input: "dropout/GreaterEqual/y:output:0"
      attr {
        key: "T"
        value {
          type: DT_FLOAT
        }
      }
    }
    node_def {
      name: "dropout/Const_1"
      op: "Const"
      attr {
        key: "dtype"
        value {
          type: DT_FLOAT
        }
      }
      attr {
        key: "value"
        value {
          tensor {
            dtype: DT_FLOAT
            tensor_shape {
            }
            float_val: 0.0
          }
        }
      }
    }
    node_def {
      name: "dropout/SelectV2"
      op: "SelectV2"
      input: "dropout/GreaterEqual:z:0"
      input: "dropout/Mul:z:0"
      input: "dropout/Const_1:output:0"
      attr {
        key: "T"
        value {
          type: DT_FLOAT
        }
      }
    }
    node_def {
      name: "OptionalFromValue"
      op: "OptionalFromValue"
      input: "Shape:output:0"
      attr {
        key: "Toutput_types"
        value {
          list {
            type: DT_INT32
          }
        }
      }
      experimental_type {
        type_id: TFT_PRODUCT
        args {
          type_id: TFT_OPTIONAL
          args {
            type_id: TFT_PRODUCT
            args {
              type_id: TFT_TENSOR
              args {
                type_id: TFT_INT32
              }
            }
          }
        }
      }
    }
    node_def {
      name: "OptionalFromValue_1"
      op: "OptionalFromValue"
      input: "strided_slice/stack:output:0"
      attr {
        key: "Toutput_types"
        value {
          list {
            type: DT_INT32
          }
        }
      }
      experimental_type {
        type_id: TFT_PRODUCT
        args {
          type_id: TFT_OPTIONAL
          args {
            type_id: TFT_PRODUCT
            args {
              type_id: TFT_TENSOR
              args {
                type_id: TFT_INT32
              }
            }
          }
        }
      }
    }
    node_def {
      name: "OptionalFromValue_2"
      op: "OptionalFromValue"
      input: "strided_slice/stack_1:output:0"
      attr {
        key: "Toutput_types"
        value {
          list {
            type: DT_INT32
          }
        }
      }
      experimental_type {
        type_id: TFT_PRODUCT
        args {
          type_id: TFT_OPTIONAL
          args {
            type_id: TFT_PRODUCT
            args {
              type_id: TFT_TENSOR
              args {
                type_id: TFT_INT32
              }
            }
          }
        }
      }
    }
    node_def {
      name: "OptionalFromValue_3"
      op: "OptionalFromValue"
      input: "strided_slice/stack_2:output:0"
      attr {
        key: "Toutput_types"
        value {
          list {
            type: DT_INT32
          }
        }
      }
      experimental_type {
        type_id: TFT_PRODUCT
        args {
          type_id: TFT_OPTIONAL
          args {
            type_id: TFT_PRODUCT
            args {
              type_id: TFT_TENSOR
              args {
                type_id: TFT_INT32
              }
            }
          }
        }
      }
    }
    node_def {
      name: "OptionalFromValue_4"
      op: "OptionalFromValue"
      input: "strided_slice:output:0"
      attr {
        key: "Toutput_types"
        value {
          list {
            type: DT_INT32
          }
        }
      }
      experimental_type {
        type_id: TFT_PRODUCT
        args {
          type_id: TFT_OPTIONAL
          args {
            type_id: TFT_PRODUCT
            args {
              type_id: TFT_TENSOR
              args {
                type_id: TFT_INT32
              }
            }
          }
        }
      }
    }
    node_def {
      name: "OptionalFromValue_5"
      op: "OptionalFromValue"
      input: "strided_slice_1/stack:output:0"
      attr {
        key: "Toutput_types"
        value {
          list {
            type: DT_INT32
          }
        }
      }
      experimental_type {
        type_id: TFT_PRODUCT
        args {
          type_id: TFT_OPTIONAL
          args {
            type_id: TFT_PRODUCT
            args {
              type_id: TFT_TENSOR
              args {
                type_id: TFT_INT32
              }
            }
          }
        }
      }
    }
    node_def {
      name: "OptionalFromValue_6"
      op: "OptionalFromValue"
      input: "strided_slice_1/stack_1:output:0"
      attr {
        key: "Toutput_types"
        value {
          list {
            type: DT_INT32
          }
        }
      }
      experimental_type {
        type_id: TFT_PRODUCT
        args {
          type_id: TFT_OPTIONAL
          args {
            type_id: TFT_PRODUCT
            args {
              type_id: TFT_TENSOR
              args {
                type_id: TFT_INT32
              }
            }
          }
        }
      }
    }
    node_def {
      name: "OptionalFromValue_7"
      op: "OptionalFromValue"
      input: "strided_slice_1/stack_2:output:0"
      attr {
        key: "Toutput_types"
        value {
          list {
            type: DT_INT32
          }
        }
      }
      experimental_type {
        type_id: TFT_PRODUCT
        args {
          type_id: TFT_OPTIONAL
          args {
            type_id: TFT_PRODUCT
            args {
              type_id: TFT_TENSOR
              args {
                type_id: TFT_INT32
              }
            }
          }
        }
      }
    }
    node_def {
      name: "OptionalFromValue_8"
      op: "OptionalFromValue"
      input: "strided_slice_1:output:0"
      attr {
        key: "Toutput_types"
        value {
          list {
            type: DT_INT32
          }
        }
      }
      experimental_type {
        type_id: TFT_PRODUCT
        args {
          type_id: TFT_OPTIONAL
          args {
            type_id: TFT_PRODUCT
            args {
              type_id: TFT_TENSOR
              args {
                type_id: TFT_INT32
              }
            }
          }
        }
      }
    }
    node_def {
      name: "OptionalFromValue_9"
      op: "OptionalFromValue"
      input: "dropout/Const:output:0"
      attr {
        key: "Toutput_types"
        value {
          list {
            type: DT_FLOAT
          }
        }
      }
      experimental_type {
        type_id: TFT_PRODUCT
        args {
          type_id: TFT_OPTIONAL
          args {
            type_id: TFT_PRODUCT
            args {
              type_id: TFT_TENSOR
              args {
                type_id: TFT_FLOAT
              }
            }
          }
        }
      }
    }
    node_def {
      name: "OptionalFromValue_10"
      op: "OptionalFromValue"
      input: "dropout/Mul:z:0"
      attr {
        key: "Toutput_types"
        value {
          list {
            type: DT_FLOAT
          }
        }
      }
      experimental_type {
        type_id: TFT_PRODUCT
        args {
          type_id: TFT_OPTIONAL
          args {
            type_id: TFT_PRODUCT
            args {
              type_id: TFT_TENSOR
              args {
                type_id: TFT_FLOAT
              }
            }
          }
        }
      }
    }
    node_def {
      name: "OptionalFromValue_11"
      op: "OptionalFromValue"
      input: "dropout/random_uniform/shape/1:output:0"
      attr {
        key: "Toutput_types"
        value {
          list {
            type: DT_INT32
          }
        }
      }
      experimental_type {
        type_id: TFT_PRODUCT
        args {
          type_id: TFT_OPTIONAL
          args {
            type_id: TFT_PRODUCT
            args {
              type_id: TFT_TENSOR
              args {
                type_id: TFT_INT32
              }
            }
          }
        }
      }
    }
    node_def {
      name: "OptionalFromValue_12"
      op: "OptionalFromValue"
      input: "dropout/random_uniform/shape/2:output:0"
      attr {
        key: "Toutput_types"
        value {
          list {
            type: DT_INT32
          }
        }
      }
      experimental_type {
        type_id: TFT_PRODUCT
        args {
          type_id: TFT_OPTIONAL
          args {
            type_id: TFT_PRODUCT
            args {
              type_id: TFT_TENSOR
              args {
                type_id: TFT_INT32
              }
            }
          }
        }
      }
    }
    node_def {
      name: "OptionalFromValue_13"
      op: "OptionalFromValue"
      input: "dropout/random_uniform/shape:output:0"
      attr {
        key: "Toutput_types"
        value {
          list {
            type: DT_INT32
          }
        }
      }
      experimental_type {
        type_id: TFT_PRODUCT
        args {
          type_id: TFT_OPTIONAL
          args {
            type_id: TFT_PRODUCT
            args {
              type_id: TFT_TENSOR
              args {
                type_id: TFT_INT32
              }
            }
          }
        }
      }
    }
    node_def {
      name: "OptionalFromValue_14"
      op: "OptionalFromValue"
      input: "dropout/random_uniform/RandomUniform:output:0"
      attr {
        key: "Toutput_types"
        value {
          list {
            type: DT_FLOAT
          }
        }
      }
      experimental_type {
        type_id: TFT_PRODUCT
        args {
          type_id: TFT_OPTIONAL
          args {
            type_id: TFT_PRODUCT
            args {
              type_id: TFT_TENSOR
              args {
                type_id: TFT_FLOAT
              }
            }
          }
        }
      }
    }
    node_def {
      name: "OptionalFromValue_15"
      op: "OptionalFromValue"
      input: "dropout/GreaterEqual/y:output:0"
      attr {
        key: "Toutput_types"
        value {
          list {
            type: DT_FLOAT
          }
        }
      }
      experimental_type {
        type_id: TFT_PRODUCT
        args {
          type_id: TFT_OPTIONAL
          args {
            type_id: TFT_PRODUCT
            args {
              type_id: TFT_TENSOR
              args {
                type_id: TFT_FLOAT
              }
            }
          }
        }
      }
    }
    node_def {
      name: "OptionalFromValue_16"
      op: "OptionalFromValue"
      input: "dropout/GreaterEqual:z:0"
      attr {
        key: "Toutput_types"
        value {
          list {
            type: DT_BOOL
          }
        }
      }
      experimental_type {
        type_id: TFT_PRODUCT
        args {
          type_id: TFT_OPTIONAL
          args {
            type_id: TFT_PRODUCT
            args {
              type_id: TFT_TENSOR
              args {
                type_id: TFT_BOOL
              }
            }
          }
        }
      }
    }
    node_def {
      name: "OptionalFromValue_17"
      op: "OptionalFromValue"
      input: "dropout/Const_1:output:0"
      attr {
        key: "Toutput_types"
        value {
          list {
            type: DT_FLOAT
          }
        }
      }
      experimental_type {
        type_id: TFT_PRODUCT
        args {
          type_id: TFT_OPTIONAL
          args {
            type_id: TFT_PRODUCT
            args {
              type_id: TFT_TENSOR
              args {
                type_id: TFT_FLOAT
              }
            }
          }
        }
      }
    }
    ret {
      key: "dropout_selectv2"
      value: "dropout/SelectV2:output:0"
    }
    ret {
      key: "optionalfromvalue"
      value: "OptionalFromValue:optional:0"
    }
    ret {
      key: "optionalfromvalue_1"
      value: "OptionalFromValue_1:optional:0"
    }
    ret {
      key: "optionalfromvalue_10"
      value: "OptionalFromValue_10:optional:0"
    }
    ret {
      key: "optionalfromvalue_11"
      value: "OptionalFromValue_11:optional:0"
    }
    ret {
      key: "optionalfromvalue_12"
      value: "OptionalFromValue_12:optional:0"
    }
    ret {
      key: "optionalfromvalue_13"
      value: "OptionalFromValue_13:optional:0"
    }
    ret {
      key: "optionalfromvalue_14"
      value: "OptionalFromValue_14:optional:0"
    }
    ret {
      key: "optionalfromvalue_15"
      value: "OptionalFromValue_15:optional:0"
    }
    ret {
      key: "optionalfromvalue_16"
      value: "OptionalFromValue_16:optional:0"
    }
    ret {
      key: "optionalfromvalue_17"
      value: "OptionalFromValue_17:optional:0"
    }
    ret {
      key: "optionalfromvalue_2"
      value: "OptionalFromValue_2:optional:0"
    }
    ret {
      key: "optionalfromvalue_3"
      value: "OptionalFromValue_3:optional:0"
    }
    ret {
      key: "optionalfromvalue_4"
      value: "OptionalFromValue_4:optional:0"
    }
    ret {
      key: "optionalfromvalue_5"
      value: "OptionalFromValue_5:optional:0"
    }
    ret {
      key: "optionalfromvalue_6"
      value: "OptionalFromValue_6:optional:0"
    }
    ret {
      key: "optionalfromvalue_7"
      value: "OptionalFromValue_7:optional:0"
    }
    ret {
      key: "optionalfromvalue_8"
      value: "OptionalFromValue_8:optional:0"
    }
    ret {
      key: "optionalfromvalue_9"
      value: "OptionalFromValue_9:optional:0"
    }
    arg_attr {
      value {
        attr {
          key: "_output_shapes"
          value {
            list {
              shape {
                dim {
                  size: 100
                }
                dim {
                  size: 98
                }
                dim {
                  size: 1
                }
                dim {
                  size: 16
                }
              }
            }
          }
        }
      }
    }
  }
  function {
    signature {
      name: "transition_block_3_sub_spectral_normalization_11_batch_normalization_27_cond_1_true_5331"
      output_arg {
        name: "const"
        type: DT_FLOAT
      }
    }
    node_def {
      name: "Const"
      op: "Const"
      attr {
        key: "dtype"
        value {
          type: DT_FLOAT
        }
      }
      attr {
        key: "value"
        value {
          tensor {
            dtype: DT_FLOAT
            tensor_shape {
            }
            float_val: 0.9900000095367432
          }
        }
      }
    }
    ret {
      key: "const"
      value: "Const:output:0"
    }
  }
  function {
    signature {
      name: "normal_block_2_batch_normalization_10_cond_true_2275"
      input_arg {
        name: "readvariableop_normal_block_2_batch_normalization_10_gamma"
        type: DT_RESOURCE
      }
      input_arg {
        name: "readvariableop_1_normal_block_2_batch_normalization_10_beta"
        type: DT_RESOURCE
      }
      input_arg {
        name: "fusedbatchnormv3_readvariableop_normal_block_2_batch_normalization_10_moving_mean"
        type: DT_RESOURCE
      }
      input_arg {
        name: "fusedbatchnormv3_readvariableop_1_normal_block_2_batch_normalization_10_moving_variance"
        type: DT_RESOURCE
      }
      input_arg {
        name: "fusedbatchnormv3_normal_block_2_depthwise_conv2d_9_depthwise_batchtospacend"
        type: DT_FLOAT
      }
      output_arg {
        name: "fusedbatchnormv3"
        type: DT_FLOAT
      }
      output_arg {
        name: "fusedbatchnormv3_0"
        type: DT_FLOAT
      }
      output_arg {
        name: "fusedbatchnormv3_1"
        type: DT_FLOAT
      }
      output_arg {
        name: "optionalfromvalue"
        type: DT_VARIANT
      }
      output_arg {
        name: "optionalfromvalue_1"
        type: DT_VARIANT
      }
      output_arg {
        name: "optionalfromvalue_2"
        type: DT_VARIANT
      }
      output_arg {
        name: "optionalfromvalue_3"
        type: DT_VARIANT
      }
      output_arg {
        name: "optionalfromvalue_4"
        type: DT_VARIANT
      }
      output_arg {
        name: "optionalfromvalue_5"
        type: DT_VARIANT
      }
      output_arg {
        name: "optionalfromvalue_6"
        type: DT_VARIANT
      }
      is_stateful: true
    }
    node_def {
      name: "ReadVariableOp"
      op: "ReadVariableOp"
      input: "readvariableop_normal_block_2_batch_normalization_10_gamma"
      attr {
        key: "dtype"
        value {
          type: DT_FLOAT
        }
      }
    }
    node_def {
      name: "ReadVariableOp_1"
      op: "ReadVariableOp"
      input: "readvariableop_1_normal_block_2_batch_normalization_10_beta"
      attr {
        key: "dtype"
        value {
          type: DT_FLOAT
        }
      }
    }
    node_def {
      name: "FusedBatchNormV3/ReadVariableOp"
      op: "ReadVariableOp"
      input: "fusedbatchnormv3_readvariableop_normal_block_2_batch_normalization_10_moving_mean"
      attr {
        key: "dtype"
        value {
          type: DT_FLOAT
        }
      }
    }
    node_def {
      name: "FusedBatchNormV3/ReadVariableOp_1"
      op: "ReadVariableOp"
      input: "fusedbatchnormv3_readvariableop_1_normal_block_2_batch_normalization_10_moving_variance"
      attr {
        key: "dtype"
        value {
          type: DT_FLOAT
        }
      }
    }
    node_def {
      name: "FusedBatchNormV3"
      op: "FusedBatchNormV3"
      input: "fusedbatchnormv3_normal_block_2_depthwise_conv2d_9_depthwise_batchtospacend"
      input: "ReadVariableOp:value:0"
      input: "ReadVariableOp_1:value:0"
      input: "FusedBatchNormV3/ReadVariableOp:value:0"
      input: "FusedBatchNormV3/ReadVariableOp_1:value:0"
      attr {
        key: "T"
        value {
          type: DT_FLOAT
        }
      }
      attr {
        key: "U"
        value {
          type: DT_FLOAT
        }
      }
      attr {
        key: "data_format"
        value {
          s: "NHWC"
        }
      }
      attr {
        key: "epsilon"
        value {
          f: 0.0010000000474974513
        }
      }
      attr {
        key: "exponential_avg_factor"
        value {
          f: 1.0
        }
      }
      attr {
        key: "is_training"
        value {
          b: true
        }
      }
    }
    node_def {
      name: "OptionalFromValue"
      op: "OptionalFromValue"
      input: "ReadVariableOp:value:0"
      attr {
        key: "Toutput_types"
        value {
          list {
            type: DT_FLOAT
          }
        }
      }
      experimental_type {
        type_id: TFT_PRODUCT
        args {
          type_id: TFT_OPTIONAL
          args {
            type_id: TFT_PRODUCT
            args {
              type_id: TFT_TENSOR
              args {
                type_id: TFT_FLOAT
              }
            }
          }
        }
      }
    }
    node_def {
      name: "OptionalFromValue_1"
      op: "OptionalFromValue"
      input: "ReadVariableOp_1:value:0"
      attr {
        key: "Toutput_types"
        value {
          list {
            type: DT_FLOAT
          }
        }
      }
      experimental_type {
        type_id: TFT_PRODUCT
        args {
          type_id: TFT_OPTIONAL
          args {
            type_id: TFT_PRODUCT
            args {
              type_id: TFT_TENSOR
              args {
                type_id: TFT_FLOAT
              }
            }
          }
        }
      }
    }
    node_def {
      name: "OptionalFromValue_2"
      op: "OptionalFromValue"
      input: "FusedBatchNormV3/ReadVariableOp:value:0"
      attr {
        key: "Toutput_types"
        value {
          list {
            type: DT_FLOAT
          }
        }
      }
      experimental_type {
        type_id: TFT_PRODUCT
        args {
          type_id: TFT_OPTIONAL
          args {
            type_id: TFT_PRODUCT
            args {
              type_id: TFT_TENSOR
              args {
                type_id: TFT_FLOAT
              }
            }
          }
        }
      }
    }
    node_def {
      name: "OptionalFromValue_3"
      op: "OptionalFromValue"
      input: "FusedBatchNormV3/ReadVariableOp_1:value:0"
      attr {
        key: "Toutput_types"
        value {
          list {
            type: DT_FLOAT
          }
        }
      }
      experimental_type {
        type_id: TFT_PRODUCT
        args {
          type_id: TFT_OPTIONAL
          args {
            type_id: TFT_PRODUCT
            args {
              type_id: TFT_TENSOR
              args {
                type_id: TFT_FLOAT
              }
            }
          }
        }
      }
    }
    node_def {
      name: "OptionalFromValue_4"
      op: "OptionalFromValue"
      input: "FusedBatchNormV3:reserve_space_1:0"
      attr {
        key: "Toutput_types"
        value {
          list {
            type: DT_FLOAT
          }
        }
      }
      experimental_type {
        type_id: TFT_PRODUCT
        args {
          type_id: TFT_OPTIONAL
          args {
            type_id: TFT_PRODUCT
            args {
              type_id: TFT_TENSOR
              args {
                type_id: TFT_FLOAT
              }
            }
          }
        }
      }
    }
    node_def {
      name: "OptionalFromValue_5"
      op: "OptionalFromValue"
      input: "FusedBatchNormV3:reserve_space_2:0"
      attr {
        key: "Toutput_types"
        value {
          list {
            type: DT_FLOAT
          }
        }
      }
      experimental_type {
        type_id: TFT_PRODUCT
        args {
          type_id: TFT_OPTIONAL
          args {
            type_id: TFT_PRODUCT
            args {
              type_id: TFT_TENSOR
              args {
                type_id: TFT_FLOAT
              }
            }
          }
        }
      }
    }
    node_def {
      name: "OptionalFromValue_6"
      op: "OptionalFromValue"
      input: "FusedBatchNormV3:reserve_space_3:0"
      attr {
        key: "Toutput_types"
        value {
          list {
            type: DT_FLOAT
          }
        }
      }
      experimental_type {
        type_id: TFT_PRODUCT
        args {
          type_id: TFT_OPTIONAL
          args {
            type_id: TFT_PRODUCT
            args {
              type_id: TFT_TENSOR
              args {
                type_id: TFT_FLOAT
              }
            }
          }
        }
      }
    }
    ret {
      key: "fusedbatchnormv3"
      value: "FusedBatchNormV3:y:0"
    }
    ret {
      key: "fusedbatchnormv3_0"
      value: "FusedBatchNormV3:batch_mean:0"
    }
    ret {
      key: "fusedbatchnormv3_1"
      value: "FusedBatchNormV3:batch_variance:0"
    }
    ret {
      key: "optionalfromvalue"
      value: "OptionalFromValue:optional:0"
    }
    ret {
      key: "optionalfromvalue_1"
      value: "OptionalFromValue_1:optional:0"
    }
    ret {
      key: "optionalfromvalue_2"
      value: "OptionalFromValue_2:optional:0"
    }
    ret {
      key: "optionalfromvalue_3"
      value: "OptionalFromValue_3:optional:0"
    }
    ret {
      key: "optionalfromvalue_4"
      value: "OptionalFromValue_4:optional:0"
    }
    ret {
      key: "optionalfromvalue_5"
      value: "OptionalFromValue_5:optional:0"
    }
    ret {
      key: "optionalfromvalue_6"
      value: "OptionalFromValue_6:optional:0"
    }
    arg_attr {
      key: 4
      value {
        attr {
          key: "_output_shapes"
          value {
            list {
              shape {
                dim {
                  size: 100
                }
                dim {
                  size: 98
                }
                dim {
                  size: 1
                }
                dim {
                  size: 12
                }
              }
            }
          }
        }
      }
    }
  }
  function {
    signature {
      name: "normal_block_6_batch_normalization_21_cond_true_4460"
      input_arg {
        name: "readvariableop_normal_block_6_batch_normalization_21_gamma"
        type: DT_RESOURCE
      }
      input_arg {
        name: "readvariableop_1_normal_block_6_batch_normalization_21_beta"
        type: DT_RESOURCE
      }
      input_arg {
        name: "fusedbatchnormv3_readvariableop_normal_block_6_batch_normalization_21_moving_mean"
        type: DT_RESOURCE
      }
      input_arg {
        name: "fusedbatchnormv3_readvariableop_1_normal_block_6_batch_normalization_21_moving_variance"
        type: DT_RESOURCE
      }
      input_arg {
        name: "fusedbatchnormv3_normal_block_6_depthwise_conv2d_19_depthwise_batchtospacend"
        type: DT_FLOAT
      }
      output_arg {
        name: "fusedbatchnormv3"
        type: DT_FLOAT
      }
      output_arg {
        name: "fusedbatchnormv3_0"
        type: DT_FLOAT
      }
      output_arg {
        name: "fusedbatchnormv3_1"
        type: DT_FLOAT
      }
      output_arg {
        name: "optionalfromvalue"
        type: DT_VARIANT
      }
      output_arg {
        name: "optionalfromvalue_1"
        type: DT_VARIANT
      }
      output_arg {
        name: "optionalfromvalue_2"
        type: DT_VARIANT
      }
      output_arg {
        name: "optionalfromvalue_3"
        type: DT_VARIANT
      }
      output_arg {
        name: "optionalfromvalue_4"
        type: DT_VARIANT
      }
      output_arg {
        name: "optionalfromvalue_5"
        type: DT_VARIANT
      }
      output_arg {
        name: "optionalfromvalue_6"
        type: DT_VARIANT
      }
      is_stateful: true
    }
    node_def {
      name: "ReadVariableOp"
      op: "ReadVariableOp"
      input: "readvariableop_normal_block_6_batch_normalization_21_gamma"
      attr {
        key: "dtype"
        value {
          type: DT_FLOAT
        }
      }
    }
    node_def {
      name: "ReadVariableOp_1"
      op: "ReadVariableOp"
      input: "readvariableop_1_normal_block_6_batch_normalization_21_beta"
      attr {
        key: "dtype"
        value {
          type: DT_FLOAT
        }
      }
    }
    node_def {
      name: "FusedBatchNormV3/ReadVariableOp"
      op: "ReadVariableOp"
      input: "fusedbatchnormv3_readvariableop_normal_block_6_batch_normalization_21_moving_mean"
      attr {
        key: "dtype"
        value {
          type: DT_FLOAT
        }
      }
    }
    node_def {
      name: "FusedBatchNormV3/ReadVariableOp_1"
      op: "ReadVariableOp"
      input: "fusedbatchnormv3_readvariableop_1_normal_block_6_batch_normalization_21_moving_variance"
      attr {
        key: "dtype"
        value {
          type: DT_FLOAT
        }
      }
    }
    node_def {
      name: "FusedBatchNormV3"
      op: "FusedBatchNormV3"
      input: "fusedbatchnormv3_normal_block_6_depthwise_conv2d_19_depthwise_batchtospacend"
      input: "ReadVariableOp:value:0"
      input: "ReadVariableOp_1:value:0"
      input: "FusedBatchNormV3/ReadVariableOp:value:0"
      input: "FusedBatchNormV3/ReadVariableOp_1:value:0"
      attr {
        key: "T"
        value {
          type: DT_FLOAT
        }
      }
      attr {
        key: "U"
        value {
          type: DT_FLOAT
        }
      }
      attr {
        key: "data_format"
        value {
          s: "NHWC"
        }
      }
      attr {
        key: "epsilon"
        value {
          f: 0.0010000000474974513
        }
      }
      attr {
        key: "exponential_avg_factor"
        value {
          f: 1.0
        }
      }
      attr {
        key: "is_training"
        value {
          b: true
        }
      }
    }
    node_def {
      name: "OptionalFromValue"
      op: "OptionalFromValue"
      input: "ReadVariableOp:value:0"
      attr {
        key: "Toutput_types"
        value {
          list {
            type: DT_FLOAT
          }
        }
      }
      experimental_type {
        type_id: TFT_PRODUCT
        args {
          type_id: TFT_OPTIONAL
          args {
            type_id: TFT_PRODUCT
            args {
              type_id: TFT_TENSOR
              args {
                type_id: TFT_FLOAT
              }
            }
          }
        }
      }
    }
    node_def {
      name: "OptionalFromValue_1"
      op: "OptionalFromValue"
      input: "ReadVariableOp_1:value:0"
      attr {
        key: "Toutput_types"
        value {
          list {
            type: DT_FLOAT
          }
        }
      }
      experimental_type {
        type_id: TFT_PRODUCT
        args {
          type_id: TFT_OPTIONAL
          args {
            type_id: TFT_PRODUCT
            args {
              type_id: TFT_TENSOR
              args {
                type_id: TFT_FLOAT
              }
            }
          }
        }
      }
    }
    node_def {
      name: "OptionalFromValue_2"
      op: "OptionalFromValue"
      input: "FusedBatchNormV3/ReadVariableOp:value:0"
      attr {
        key: "Toutput_types"
        value {
          list {
            type: DT_FLOAT
          }
        }
      }
      experimental_type {
        type_id: TFT_PRODUCT
        args {
          type_id: TFT_OPTIONAL
          args {
            type_id: TFT_PRODUCT
            args {
              type_id: TFT_TENSOR
              args {
                type_id: TFT_FLOAT
              }
            }
          }
        }
      }
    }
    node_def {
      name: "OptionalFromValue_3"
      op: "OptionalFromValue"
      input: "FusedBatchNormV3/ReadVariableOp_1:value:0"
      attr {
        key: "Toutput_types"
        value {
          list {
            type: DT_FLOAT
          }
        }
      }
      experimental_type {
        type_id: TFT_PRODUCT
        args {
          type_id: TFT_OPTIONAL
          args {
            type_id: TFT_PRODUCT
            args {
              type_id: TFT_TENSOR
              args {
                type_id: TFT_FLOAT
              }
            }
          }
        }
      }
    }
    node_def {
      name: "OptionalFromValue_4"
      op: "OptionalFromValue"
      input: "FusedBatchNormV3:reserve_space_1:0"
      attr {
        key: "Toutput_types"
        value {
          list {
            type: DT_FLOAT
          }
        }
      }
      experimental_type {
        type_id: TFT_PRODUCT
        args {
          type_id: TFT_OPTIONAL
          args {
            type_id: TFT_PRODUCT
            args {
              type_id: TFT_TENSOR
              args {
                type_id: TFT_FLOAT
              }
            }
          }
        }
      }
    }
    node_def {
      name: "OptionalFromValue_5"
      op: "OptionalFromValue"
      input: "FusedBatchNormV3:reserve_space_2:0"
      attr {
        key: "Toutput_types"
        value {
          list {
            type: DT_FLOAT
          }
        }
      }
      experimental_type {
        type_id: TFT_PRODUCT
        args {
          type_id: TFT_OPTIONAL
          args {
            type_id: TFT_PRODUCT
            args {
              type_id: TFT_TENSOR
              args {
                type_id: TFT_FLOAT
              }
            }
          }
        }
      }
    }
    node_def {
      name: "OptionalFromValue_6"
      op: "OptionalFromValue"
      input: "FusedBatchNormV3:reserve_space_3:0"
      attr {
        key: "Toutput_types"
        value {
          list {
            type: DT_FLOAT
          }
        }
      }
      experimental_type {
        type_id: TFT_PRODUCT
        args {
          type_id: TFT_OPTIONAL
          args {
            type_id: TFT_PRODUCT
            args {
              type_id: TFT_TENSOR
              args {
                type_id: TFT_FLOAT
              }
            }
          }
        }
      }
    }
    ret {
      key: "fusedbatchnormv3"
      value: "FusedBatchNormV3:y:0"
    }
    ret {
      key: "fusedbatchnormv3_0"
      value: "FusedBatchNormV3:batch_mean:0"
    }
    ret {
      key: "fusedbatchnormv3_1"
      value: "FusedBatchNormV3:batch_variance:0"
    }
    ret {
      key: "optionalfromvalue"
      value: "OptionalFromValue:optional:0"
    }
    ret {
      key: "optionalfromvalue_1"
      value: "OptionalFromValue_1:optional:0"
    }
    ret {
      key: "optionalfromvalue_2"
      value: "OptionalFromValue_2:optional:0"
    }
    ret {
      key: "optionalfromvalue_3"
      value: "OptionalFromValue_3:optional:0"
    }
    ret {
      key: "optionalfromvalue_4"
      value: "OptionalFromValue_4:optional:0"
    }
    ret {
      key: "optionalfromvalue_5"
      value: "OptionalFromValue_5:optional:0"
    }
    ret {
      key: "optionalfromvalue_6"
      value: "OptionalFromValue_6:optional:0"
    }
    arg_attr {
      key: 4
      value {
        attr {
          key: "_output_shapes"
          value {
            list {
              shape {
                dim {
                  size: 100
                }
                dim {
                  size: 98
                }
                dim {
                  size: 1
                }
                dim {
                  size: 16
                }
              }
            }
          }
        }
      }
    }
  }
  function {
    signature {
      name: "normal_block_6_batch_normalization_21_cond_1_false_4529"
      output_arg {
        name: "const"
        type: DT_FLOAT
      }
    }
    node_def {
      name: "Const"
      op: "Const"
      attr {
        key: "dtype"
        value {
          type: DT_FLOAT
        }
      }
      attr {
        key: "value"
        value {
          tensor {
            dtype: DT_FLOAT
            tensor_shape {
            }
            float_val: 1.0
          }
        }
      }
    }
    ret {
      key: "const"
      value: "Const:output:0"
    }
  }
}
versions {
  producer: 1286
  min_consumer: 12
}
