node {
  name: "data/wav_filename"
  op: "Placeholder"
  attr {
    key: "dtype"
    value {
      type: DT_STRING
    }
  }
  attr {
    key: "shape"
    value {
      shape {
      }
    }
  }
}
node {
  name: "data/ReadFile"
  op: "ReadFile"
  input: "data/wav_filename"
}
node {
  name: "data/DecodeWav"
  op: "DecodeWav"
  input: "data/ReadFile"
  attr {
    key: "desired_channels"
    value {
      i: 1
    }
  }
  attr {
    key: "desired_samples"
    value {
      i: 16000
    }
  }
}
node {
  name: "data/foreground_volume"
  op: "Placeholder"
  attr {
    key: "dtype"
    value {
      type: DT_FLOAT
    }
  }
  attr {
    key: "shape"
    value {
      shape {
      }
    }
  }
}
node {
  name: "data/Placeholder"
  op: "Placeholder"
  attr {
    key: "dtype"
    value {
      type: DT_FLOAT
    }
  }
  attr {
    key: "shape"
    value {
      shape {
      }
    }
  }
}
node {
  name: "data/ExpandDims/dim"
  op: "Const"
  attr {
    key: "dtype"
    value {
      type: DT_INT32
    }
  }
  attr {
    key: "value"
    value {
      tensor {
        dtype: DT_INT32
        tensor_shape {
        }
        int_val: 0
      }
    }
  }
}
node {
  name: "data/ExpandDims"
  op: "ExpandDims"
  input: "data/DecodeWav"
  input: "data/ExpandDims/dim"
  attr {
    key: "T"
    value {
      type: DT_FLOAT
    }
  }
  attr {
    key: "Tdim"
    value {
      type: DT_INT32
    }
  }
}
node {
  name: "data/ExpandDims_1/dim"
  op: "Const"
  attr {
    key: "dtype"
    value {
      type: DT_INT32
    }
  }
  attr {
    key: "value"
    value {
      tensor {
        dtype: DT_INT32
        tensor_shape {
        }
        int_val: 2
      }
    }
  }
}
node {
  name: "data/ExpandDims_1"
  op: "ExpandDims"
  input: "data/ExpandDims"
  input: "data/ExpandDims_1/dim"
  attr {
    key: "T"
    value {
      type: DT_FLOAT
    }
  }
  attr {
    key: "Tdim"
    value {
      type: DT_INT32
    }
  }
}
node {
  name: "data/Shape"
  op: "Const"
  attr {
    key: "dtype"
    value {
      type: DT_INT32
    }
  }
  attr {
    key: "value"
    value {
      tensor {
        dtype: DT_INT32
        tensor_shape {
          dim {
            size: 2
          }
        }
        tensor_content: "\200>\000\000\001\000\000\000"
      }
    }
  }
}
node {
  name: "data/strided_slice/stack"
  op: "Const"
  attr {
    key: "dtype"
    value {
      type: DT_INT32
    }
  }
  attr {
    key: "value"
    value {
      tensor {
        dtype: DT_INT32
        tensor_shape {
          dim {
            size: 1
          }
        }
        int_val: 0
      }
    }
  }
}
node {
  name: "data/strided_slice/stack_1"
  op: "Const"
  attr {
    key: "dtype"
    value {
      type: DT_INT32
    }
  }
  attr {
    key: "value"
    value {
      tensor {
        dtype: DT_INT32
        tensor_shape {
          dim {
            size: 1
          }
        }
        int_val: 1
      }
    }
  }
}
node {
  name: "data/strided_slice/stack_2"
  op: "Const"
  attr {
    key: "dtype"
    value {
      type: DT_INT32
    }
  }
  attr {
    key: "value"
    value {
      tensor {
        dtype: DT_INT32
        tensor_shape {
          dim {
            size: 1
          }
        }
        int_val: 1
      }
    }
  }
}
node {
  name: "data/strided_slice"
  op: "StridedSlice"
  input: "data/Shape"
  input: "data/strided_slice/stack"
  input: "data/strided_slice/stack_1"
  input: "data/strided_slice/stack_2"
  attr {
    key: "Index"
    value {
      type: DT_INT32
    }
  }
  attr {
    key: "T"
    value {
      type: DT_INT32
    }
  }
  attr {
    key: "begin_mask"
    value {
      i: 0
    }
  }
  attr {
    key: "ellipsis_mask"
    value {
      i: 0
    }
  }
  attr {
    key: "end_mask"
    value {
      i: 0
    }
  }
  attr {
    key: "new_axis_mask"
    value {
      i: 0
    }
  }
  attr {
    key: "shrink_axis_mask"
    value {
      i: 1
    }
  }
}
node {
  name: "data/Cast"
  op: "Cast"
  input: "data/strided_slice"
  attr {
    key: "DstT"
    value {
      type: DT_FLOAT
    }
  }
  attr {
    key: "SrcT"
    value {
      type: DT_INT32
    }
  }
  attr {
    key: "Truncate"
    value {
      b: false
    }
  }
}
node {
  name: "data/mul"
  op: "Mul"
  input: "data/Cast"
  input: "data/Placeholder"
  attr {
    key: "T"
    value {
      type: DT_FLOAT
    }
  }
}
node {
  name: "data/Cast_1"
  op: "Cast"
  input: "data/mul"
  attr {
    key: "DstT"
    value {
      type: DT_INT32
    }
  }
  attr {
    key: "SrcT"
    value {
      type: DT_FLOAT
    }
  }
  attr {
    key: "Truncate"
    value {
      b: false
    }
  }
}
node {
  name: "data/resize/size/1"
  op: "Const"
  attr {
    key: "dtype"
    value {
      type: DT_INT32
    }
  }
  attr {
    key: "value"
    value {
      tensor {
        dtype: DT_INT32
        tensor_shape {
        }
        int_val: 1
      }
    }
  }
}
node {
  name: "data/resize/size"
  op: "Pack"
  input: "data/Cast_1"
  input: "data/resize/size/1"
  attr {
    key: "N"
    value {
      i: 2
    }
  }
  attr {
    key: "T"
    value {
      type: DT_INT32
    }
  }
  attr {
    key: "axis"
    value {
      i: 0
    }
  }
}
node {
  name: "data/resize/ResizeBilinear"
  op: "ResizeBilinear"
  input: "data/ExpandDims_1"
  input: "data/resize/size"
  attr {
    key: "T"
    value {
      type: DT_FLOAT
    }
  }
  attr {
    key: "align_corners"
    value {
      b: false
    }
  }
  attr {
    key: "half_pixel_centers"
    value {
      b: false
    }
  }
}
node {
  name: "data/resize_image_with_crop_or_pad/Shape"
  op: "Shape"
  input: "data/resize/ResizeBilinear"
  attr {
    key: "T"
    value {
      type: DT_FLOAT
    }
  }
  attr {
    key: "out_type"
    value {
      type: DT_INT32
    }
  }
}
node {
  name: "data/resize_image_with_crop_or_pad/strided_slice/stack"
  op: "Const"
  attr {
    key: "dtype"
    value {
      type: DT_INT32
    }
  }
  attr {
    key: "value"
    value {
      tensor {
        dtype: DT_INT32
        tensor_shape {
          dim {
            size: 1
          }
        }
        int_val: -3
      }
    }
  }
}
node {
  name: "data/resize_image_with_crop_or_pad/strided_slice/stack_1"
  op: "Const"
  attr {
    key: "dtype"
    value {
      type: DT_INT32
    }
  }
  attr {
    key: "value"
    value {
      tensor {
        dtype: DT_INT32
        tensor_shape {
          dim {
            size: 1
          }
        }
        int_val: 0
      }
    }
  }
}
node {
  name: "data/resize_image_with_crop_or_pad/strided_slice/stack_2"
  op: "Const"
  attr {
    key: "dtype"
    value {
      type: DT_INT32
    }
  }
  attr {
    key: "value"
    value {
      tensor {
        dtype: DT_INT32
        tensor_shape {
          dim {
            size: 1
          }
        }
        int_val: 1
      }
    }
  }
}
node {
  name: "data/resize_image_with_crop_or_pad/strided_slice"
  op: "StridedSlice"
  input: "data/resize_image_with_crop_or_pad/Shape"
  input: "data/resize_image_with_crop_or_pad/strided_slice/stack"
  input: "data/resize_image_with_crop_or_pad/strided_slice/stack_1"
  input: "data/resize_image_with_crop_or_pad/strided_slice/stack_2"
  attr {
    key: "Index"
    value {
      type: DT_INT32
    }
  }
  attr {
    key: "T"
    value {
      type: DT_INT32
    }
  }
  attr {
    key: "begin_mask"
    value {
      i: 0
    }
  }
  attr {
    key: "ellipsis_mask"
    value {
      i: 0
    }
  }
  attr {
    key: "end_mask"
    value {
      i: 1
    }
  }
  attr {
    key: "new_axis_mask"
    value {
      i: 0
    }
  }
  attr {
    key: "shrink_axis_mask"
    value {
      i: 0
    }
  }
}
node {
  name: "data/resize_image_with_crop_or_pad/assert_positive/Const"
  op: "Const"
  attr {
    key: "dtype"
    value {
      type: DT_INT32
    }
  }
  attr {
    key: "value"
    value {
      tensor {
        dtype: DT_INT32
        tensor_shape {
        }
        int_val: 0
      }
    }
  }
}
node {
  name: "data/resize_image_with_crop_or_pad/assert_positive/assert_less/Less"
  op: "Less"
  input: "data/resize_image_with_crop_or_pad/assert_positive/Const"
  input: "data/resize_image_with_crop_or_pad/strided_slice"
  attr {
    key: "T"
    value {
      type: DT_INT32
    }
  }
}
node {
  name: "data/resize_image_with_crop_or_pad/assert_positive/assert_less/Const"
  op: "Const"
  attr {
    key: "dtype"
    value {
      type: DT_INT32
    }
  }
  attr {
    key: "value"
    value {
      tensor {
        dtype: DT_INT32
        tensor_shape {
          dim {
            size: 1
          }
        }
        int_val: 0
      }
    }
  }
}
node {
  name: "data/resize_image_with_crop_or_pad/assert_positive/assert_less/All"
  op: "All"
  input: "data/resize_image_with_crop_or_pad/assert_positive/assert_less/Less"
  input: "data/resize_image_with_crop_or_pad/assert_positive/assert_less/Const"
  attr {
    key: "Tidx"
    value {
      type: DT_INT32
    }
  }
  attr {
    key: "keep_dims"
    value {
      b: false
    }
  }
}
node {
  name: "data/resize_image_with_crop_or_pad/assert_positive/assert_less/Assert/Const"
  op: "Const"
  attr {
    key: "dtype"
    value {
      type: DT_STRING
    }
  }
  attr {
    key: "value"
    value {
      tensor {
        dtype: DT_STRING
        tensor_shape {
        }
        string_val: "inner 3 dims of \'image.shape\' must be > 0."
      }
    }
  }
}
node {
  name: "data/resize_image_with_crop_or_pad/assert_positive/assert_less/Assert/Assert/data_0"
  op: "Const"
  attr {
    key: "dtype"
    value {
      type: DT_STRING
    }
  }
  attr {
    key: "value"
    value {
      tensor {
        dtype: DT_STRING
        tensor_shape {
        }
        string_val: "inner 3 dims of \'image.shape\' must be > 0."
      }
    }
  }
}
node {
  name: "data/resize_image_with_crop_or_pad/assert_positive/assert_less/Assert/Assert"
  op: "Assert"
  input: "data/resize_image_with_crop_or_pad/assert_positive/assert_less/All"
  input: "data/resize_image_with_crop_or_pad/assert_positive/assert_less/Assert/Assert/data_0"
  attr {
    key: "T"
    value {
      list {
        type: DT_STRING
      }
    }
  }
  attr {
    key: "_has_manual_control_dependencies"
    value {
      b: true
    }
  }
  attr {
    key: "summarize"
    value {
      i: 3
    }
  }
}
node {
  name: "data/resize_image_with_crop_or_pad/Rank"
  op: "Const"
  attr {
    key: "dtype"
    value {
      type: DT_INT32
    }
  }
  attr {
    key: "value"
    value {
      tensor {
        dtype: DT_INT32
        tensor_shape {
        }
        int_val: 4
      }
    }
  }
}
node {
  name: "data/resize_image_with_crop_or_pad/assert_greater_equal/y"
  op: "Const"
  attr {
    key: "dtype"
    value {
      type: DT_INT32
    }
  }
  attr {
    key: "value"
    value {
      tensor {
        dtype: DT_INT32
        tensor_shape {
        }
        int_val: 3
      }
    }
  }
}
node {
  name: "data/resize_image_with_crop_or_pad/assert_greater_equal/GreaterEqual"
  op: "GreaterEqual"
  input: "data/resize_image_with_crop_or_pad/Rank"
  input: "data/resize_image_with_crop_or_pad/assert_greater_equal/y"
  attr {
    key: "T"
    value {
      type: DT_INT32
    }
  }
}
node {
  name: "data/resize_image_with_crop_or_pad/assert_greater_equal/Rank"
  op: "Const"
  attr {
    key: "dtype"
    value {
      type: DT_INT32
    }
  }
  attr {
    key: "value"
    value {
      tensor {
        dtype: DT_INT32
        tensor_shape {
        }
        int_val: 0
      }
    }
  }
}
node {
  name: "data/resize_image_with_crop_or_pad/assert_greater_equal/range/start"
  op: "Const"
  attr {
    key: "dtype"
    value {
      type: DT_INT32
    }
  }
  attr {
    key: "value"
    value {
      tensor {
        dtype: DT_INT32
        tensor_shape {
        }
        int_val: 0
      }
    }
  }
}
node {
  name: "data/resize_image_with_crop_or_pad/assert_greater_equal/range/delta"
  op: "Const"
  attr {
    key: "dtype"
    value {
      type: DT_INT32
    }
  }
  attr {
    key: "value"
    value {
      tensor {
        dtype: DT_INT32
        tensor_shape {
        }
        int_val: 1
      }
    }
  }
}
node {
  name: "data/resize_image_with_crop_or_pad/assert_greater_equal/range"
  op: "Range"
  input: "data/resize_image_with_crop_or_pad/assert_greater_equal/range/start"
  input: "data/resize_image_with_crop_or_pad/assert_greater_equal/Rank"
  input: "data/resize_image_with_crop_or_pad/assert_greater_equal/range/delta"
  attr {
    key: "Tidx"
    value {
      type: DT_INT32
    }
  }
}
node {
  name: "data/resize_image_with_crop_or_pad/assert_greater_equal/All"
  op: "All"
  input: "data/resize_image_with_crop_or_pad/assert_greater_equal/GreaterEqual"
  input: "data/resize_image_with_crop_or_pad/assert_greater_equal/range"
  attr {
    key: "Tidx"
    value {
      type: DT_INT32
    }
  }
  attr {
    key: "keep_dims"
    value {
      b: false
    }
  }
}
node {
  name: "data/resize_image_with_crop_or_pad/assert_greater_equal/Assert/Const"
  op: "Const"
  attr {
    key: "dtype"
    value {
      type: DT_STRING
    }
  }
  attr {
    key: "value"
    value {
      tensor {
        dtype: DT_STRING
        tensor_shape {
        }
        string_val: "\'image\' must be at least three-dimensional."
      }
    }
  }
}
node {
  name: "data/resize_image_with_crop_or_pad/assert_greater_equal/Assert/Const_1"
  op: "Const"
  attr {
    key: "dtype"
    value {
      type: DT_STRING
    }
  }
  attr {
    key: "value"
    value {
      tensor {
        dtype: DT_STRING
        tensor_shape {
        }
        string_val: "Condition x >= y did not hold element-wise:"
      }
    }
  }
}
node {
  name: "data/resize_image_with_crop_or_pad/assert_greater_equal/Assert/Const_2"
  op: "Const"
  attr {
    key: "dtype"
    value {
      type: DT_STRING
    }
  }
  attr {
    key: "value"
    value {
      tensor {
        dtype: DT_STRING
        tensor_shape {
        }
        string_val: "x (data/resize_image_with_crop_or_pad/Rank:0) = "
      }
    }
  }
}
node {
  name: "data/resize_image_with_crop_or_pad/assert_greater_equal/Assert/Const_3"
  op: "Const"
  attr {
    key: "dtype"
    value {
      type: DT_STRING
    }
  }
  attr {
    key: "value"
    value {
      tensor {
        dtype: DT_STRING
        tensor_shape {
        }
        string_val: "y (data/resize_image_with_crop_or_pad/assert_greater_equal/y:0) = "
      }
    }
  }
}
node {
  name: "data/resize_image_with_crop_or_pad/assert_greater_equal/Assert/Assert/data_0"
  op: "Const"
  attr {
    key: "dtype"
    value {
      type: DT_STRING
    }
  }
  attr {
    key: "value"
    value {
      tensor {
        dtype: DT_STRING
        tensor_shape {
        }
        string_val: "\'image\' must be at least three-dimensional."
      }
    }
  }
}
node {
  name: "data/resize_image_with_crop_or_pad/assert_greater_equal/Assert/Assert/data_1"
  op: "Const"
  attr {
    key: "dtype"
    value {
      type: DT_STRING
    }
  }
  attr {
    key: "value"
    value {
      tensor {
        dtype: DT_STRING
        tensor_shape {
        }
        string_val: "Condition x >= y did not hold element-wise:"
      }
    }
  }
}
node {
  name: "data/resize_image_with_crop_or_pad/assert_greater_equal/Assert/Assert/data_2"
  op: "Const"
  attr {
    key: "dtype"
    value {
      type: DT_STRING
    }
  }
  attr {
    key: "value"
    value {
      tensor {
        dtype: DT_STRING
        tensor_shape {
        }
        string_val: "x (data/resize_image_with_crop_or_pad/Rank:0) = "
      }
    }
  }
}
node {
  name: "data/resize_image_with_crop_or_pad/assert_greater_equal/Assert/Assert/data_4"
  op: "Const"
  attr {
    key: "dtype"
    value {
      type: DT_STRING
    }
  }
  attr {
    key: "value"
    value {
      tensor {
        dtype: DT_STRING
        tensor_shape {
        }
        string_val: "y (data/resize_image_with_crop_or_pad/assert_greater_equal/y:0) = "
      }
    }
  }
}
node {
  name: "data/resize_image_with_crop_or_pad/assert_greater_equal/Assert/Assert"
  op: "Assert"
  input: "data/resize_image_with_crop_or_pad/assert_greater_equal/All"
  input: "data/resize_image_with_crop_or_pad/assert_greater_equal/Assert/Assert/data_0"
  input: "data/resize_image_with_crop_or_pad/assert_greater_equal/Assert/Assert/data_1"
  input: "data/resize_image_with_crop_or_pad/assert_greater_equal/Assert/Assert/data_2"
  input: "data/resize_image_with_crop_or_pad/Rank"
  input: "data/resize_image_with_crop_or_pad/assert_greater_equal/Assert/Assert/data_4"
  input: "data/resize_image_with_crop_or_pad/assert_greater_equal/y"
  attr {
    key: "T"
    value {
      list {
        type: DT_STRING
        type: DT_STRING
        type: DT_STRING
        type: DT_INT32
        type: DT_STRING
        type: DT_INT32
      }
    }
  }
  attr {
    key: "_has_manual_control_dependencies"
    value {
      b: true
    }
  }
  attr {
    key: "summarize"
    value {
      i: 3
    }
  }
}
node {
  name: "data/resize_image_with_crop_or_pad/control_dependency"
  op: "Identity"
  input: "data/resize/ResizeBilinear"
  input: "^data/resize_image_with_crop_or_pad/assert_greater_equal/Assert/Assert"
  input: "^data/resize_image_with_crop_or_pad/assert_positive/assert_less/Assert/Assert"
  attr {
    key: "T"
    value {
      type: DT_FLOAT
    }
  }
  attr {
    key: "_class"
    value {
      list {
        s: "loc:@data/resize/ResizeBilinear"
      }
    }
  }
}
node {
  name: "data/resize_image_with_crop_or_pad/Shape_1"
  op: "Shape"
  input: "data/resize_image_with_crop_or_pad/control_dependency"
  attr {
    key: "T"
    value {
      type: DT_FLOAT
    }
  }
  attr {
    key: "out_type"
    value {
      type: DT_INT32
    }
  }
}
node {
  name: "data/resize_image_with_crop_or_pad/unstack"
  op: "Unpack"
  input: "data/resize_image_with_crop_or_pad/Shape_1"
  attr {
    key: "T"
    value {
      type: DT_INT32
    }
  }
  attr {
    key: "axis"
    value {
      i: 0
    }
  }
  attr {
    key: "num"
    value {
      i: 4
    }
  }
}
node {
  name: "data/resize_image_with_crop_or_pad/sub/x"
  op: "Const"
  attr {
    key: "dtype"
    value {
      type: DT_INT32
    }
  }
  attr {
    key: "value"
    value {
      tensor {
        dtype: DT_INT32
        tensor_shape {
        }
        int_val: 16000
      }
    }
  }
}
node {
  name: "data/resize_image_with_crop_or_pad/sub"
  op: "Sub"
  input: "data/resize_image_with_crop_or_pad/sub/x"
  input: "data/resize_image_with_crop_or_pad/unstack:1"
  attr {
    key: "T"
    value {
      type: DT_INT32
    }
  }
}
node {
  name: "data/resize_image_with_crop_or_pad/Neg"
  op: "Neg"
  input: "data/resize_image_with_crop_or_pad/sub"
  attr {
    key: "T"
    value {
      type: DT_INT32
    }
  }
}
node {
  name: "data/resize_image_with_crop_or_pad/floordiv/y"
  op: "Const"
  attr {
    key: "dtype"
    value {
      type: DT_INT32
    }
  }
  attr {
    key: "value"
    value {
      tensor {
        dtype: DT_INT32
        tensor_shape {
        }
        int_val: 2
      }
    }
  }
}
node {
  name: "data/resize_image_with_crop_or_pad/floordiv"
  op: "FloorDiv"
  input: "data/resize_image_with_crop_or_pad/Neg"
  input: "data/resize_image_with_crop_or_pad/floordiv/y"
  attr {
    key: "T"
    value {
      type: DT_INT32
    }
  }
}
node {
  name: "data/resize_image_with_crop_or_pad/Maximum/y"
  op: "Const"
  attr {
    key: "dtype"
    value {
      type: DT_INT32
    }
  }
  attr {
    key: "value"
    value {
      tensor {
        dtype: DT_INT32
        tensor_shape {
        }
        int_val: 0
      }
    }
  }
}
node {
  name: "data/resize_image_with_crop_or_pad/Maximum"
  op: "Maximum"
  input: "data/resize_image_with_crop_or_pad/floordiv"
  input: "data/resize_image_with_crop_or_pad/Maximum/y"
  attr {
    key: "T"
    value {
      type: DT_INT32
    }
  }
}
node {
  name: "data/resize_image_with_crop_or_pad/floordiv_1/y"
  op: "Const"
  attr {
    key: "dtype"
    value {
      type: DT_INT32
    }
  }
  attr {
    key: "value"
    value {
      tensor {
        dtype: DT_INT32
        tensor_shape {
        }
        int_val: 2
      }
    }
  }
}
node {
  name: "data/resize_image_with_crop_or_pad/floordiv_1"
  op: "FloorDiv"
  input: "data/resize_image_with_crop_or_pad/sub"
  input: "data/resize_image_with_crop_or_pad/floordiv_1/y"
  attr {
    key: "T"
    value {
      type: DT_INT32
    }
  }
}
node {
  name: "data/resize_image_with_crop_or_pad/Maximum_1/y"
  op: "Const"
  attr {
    key: "dtype"
    value {
      type: DT_INT32
    }
  }
  attr {
    key: "value"
    value {
      tensor {
        dtype: DT_INT32
        tensor_shape {
        }
        int_val: 0
      }
    }
  }
}
node {
  name: "data/resize_image_with_crop_or_pad/Maximum_1"
  op: "Maximum"
  input: "data/resize_image_with_crop_or_pad/floordiv_1"
  input: "data/resize_image_with_crop_or_pad/Maximum_1/y"
  attr {
    key: "T"
    value {
      type: DT_INT32
    }
  }
}
node {
  name: "data/resize_image_with_crop_or_pad/Minimum/x"
  op: "Const"
  attr {
    key: "dtype"
    value {
      type: DT_INT32
    }
  }
  attr {
    key: "value"
    value {
      tensor {
        dtype: DT_INT32
        tensor_shape {
        }
        int_val: 16000
      }
    }
  }
}
node {
  name: "data/resize_image_with_crop_or_pad/Minimum"
  op: "Minimum"
  input: "data/resize_image_with_crop_or_pad/Minimum/x"
  input: "data/resize_image_with_crop_or_pad/unstack:1"
  attr {
    key: "T"
    value {
      type: DT_INT32
    }
  }
}
node {
  name: "data/resize_image_with_crop_or_pad/crop_to_bounding_box/Shape"
  op: "Shape"
  input: "data/resize_image_with_crop_or_pad/control_dependency"
  attr {
    key: "T"
    value {
      type: DT_FLOAT
    }
  }
  attr {
    key: "out_type"
    value {
      type: DT_INT32
    }
  }
}
node {
  name: "data/resize_image_with_crop_or_pad/crop_to_bounding_box/strided_slice/stack"
  op: "Const"
  attr {
    key: "dtype"
    value {
      type: DT_INT32
    }
  }
  attr {
    key: "value"
    value {
      tensor {
        dtype: DT_INT32
        tensor_shape {
          dim {
            size: 1
          }
        }
        int_val: -3
      }
    }
  }
}
node {
  name: "data/resize_image_with_crop_or_pad/crop_to_bounding_box/strided_slice/stack_1"
  op: "Const"
  attr {
    key: "dtype"
    value {
      type: DT_INT32
    }
  }
  attr {
    key: "value"
    value {
      tensor {
        dtype: DT_INT32
        tensor_shape {
          dim {
            size: 1
          }
        }
        int_val: 0
      }
    }
  }
}
node {
  name: "data/resize_image_with_crop_or_pad/crop_to_bounding_box/strided_slice/stack_2"
  op: "Const"
  attr {
    key: "dtype"
    value {
      type: DT_INT32
    }
  }
  attr {
    key: "value"
    value {
      tensor {
        dtype: DT_INT32
        tensor_shape {
          dim {
            size: 1
          }
        }
        int_val: 1
      }
    }
  }
}
node {
  name: "data/resize_image_with_crop_or_pad/crop_to_bounding_box/strided_slice"
  op: "StridedSlice"
  input: "data/resize_image_with_crop_or_pad/crop_to_bounding_box/Shape"
  input: "data/resize_image_with_crop_or_pad/crop_to_bounding_box/strided_slice/stack"
  input: "data/resize_image_with_crop_or_pad/crop_to_bounding_box/strided_slice/stack_1"
  input: "data/resize_image_with_crop_or_pad/crop_to_bounding_box/strided_slice/stack_2"
  attr {
    key: "Index"
    value {
      type: DT_INT32
    }
  }
  attr {
    key: "T"
    value {
      type: DT_INT32
    }
  }
  attr {
    key: "begin_mask"
    value {
      i: 0
    }
  }
  attr {
    key: "ellipsis_mask"
    value {
      i: 0
    }
  }
  attr {
    key: "end_mask"
    value {
      i: 1
    }
  }
  attr {
    key: "new_axis_mask"
    value {
      i: 0
    }
  }
  attr {
    key: "shrink_axis_mask"
    value {
      i: 0
    }
  }
}
node {
  name: "data/resize_image_with_crop_or_pad/crop_to_bounding_box/assert_positive/Const"
  op: "Const"
  attr {
    key: "dtype"
    value {
      type: DT_INT32
    }
  }
  attr {
    key: "value"
    value {
      tensor {
        dtype: DT_INT32
        tensor_shape {
        }
        int_val: 0
      }
    }
  }
}
node {
  name: "data/resize_image_with_crop_or_pad/crop_to_bounding_box/assert_positive/assert_less/Less"
  op: "Less"
  input: "data/resize_image_with_crop_or_pad/crop_to_bounding_box/assert_positive/Const"
  input: "data/resize_image_with_crop_or_pad/crop_to_bounding_box/strided_slice"
  attr {
    key: "T"
    value {
      type: DT_INT32
    }
  }
}
node {
  name: "data/resize_image_with_crop_or_pad/crop_to_bounding_box/assert_positive/assert_less/Const"
  op: "Const"
  attr {
    key: "dtype"
    value {
      type: DT_INT32
    }
  }
  attr {
    key: "value"
    value {
      tensor {
        dtype: DT_INT32
        tensor_shape {
          dim {
            size: 1
          }
        }
        int_val: 0
      }
    }
  }
}
node {
  name: "data/resize_image_with_crop_or_pad/crop_to_bounding_box/assert_positive/assert_less/All"
  op: "All"
  input: "data/resize_image_with_crop_or_pad/crop_to_bounding_box/assert_positive/assert_less/Less"
  input: "data/resize_image_with_crop_or_pad/crop_to_bounding_box/assert_positive/assert_less/Const"
  attr {
    key: "Tidx"
    value {
      type: DT_INT32
    }
  }
  attr {
    key: "keep_dims"
    value {
      b: false
    }
  }
}
node {
  name: "data/resize_image_with_crop_or_pad/crop_to_bounding_box/assert_positive/assert_less/Assert/Const"
  op: "Const"
  attr {
    key: "dtype"
    value {
      type: DT_STRING
    }
  }
  attr {
    key: "value"
    value {
      tensor {
        dtype: DT_STRING
        tensor_shape {
        }
        string_val: "inner 3 dims of \'image.shape\' must be > 0."
      }
    }
  }
}
node {
  name: "data/resize_image_with_crop_or_pad/crop_to_bounding_box/assert_positive/assert_less/Assert/Assert/data_0"
  op: "Const"
  attr {
    key: "dtype"
    value {
      type: DT_STRING
    }
  }
  attr {
    key: "value"
    value {
      tensor {
        dtype: DT_STRING
        tensor_shape {
        }
        string_val: "inner 3 dims of \'image.shape\' must be > 0."
      }
    }
  }
}
node {
  name: "data/resize_image_with_crop_or_pad/crop_to_bounding_box/assert_positive/assert_less/Assert/Assert"
  op: "Assert"
  input: "data/resize_image_with_crop_or_pad/crop_to_bounding_box/assert_positive/assert_less/All"
  input: "data/resize_image_with_crop_or_pad/crop_to_bounding_box/assert_positive/assert_less/Assert/Assert/data_0"
  attr {
    key: "T"
    value {
      list {
        type: DT_STRING
      }
    }
  }
  attr {
    key: "_has_manual_control_dependencies"
    value {
      b: true
    }
  }
  attr {
    key: "summarize"
    value {
      i: 3
    }
  }
}
node {
  name: "data/resize_image_with_crop_or_pad/crop_to_bounding_box/Rank"
  op: "Const"
  attr {
    key: "dtype"
    value {
      type: DT_INT32
    }
  }
  attr {
    key: "value"
    value {
      tensor {
        dtype: DT_INT32
        tensor_shape {
        }
        int_val: 4
      }
    }
  }
}
node {
  name: "data/resize_image_with_crop_or_pad/crop_to_bounding_box/assert_greater_equal/y"
  op: "Const"
  attr {
    key: "dtype"
    value {
      type: DT_INT32
    }
  }
  attr {
    key: "value"
    value {
      tensor {
        dtype: DT_INT32
        tensor_shape {
        }
        int_val: 3
      }
    }
  }
}
node {
  name: "data/resize_image_with_crop_or_pad/crop_to_bounding_box/assert_greater_equal/GreaterEqual"
  op: "GreaterEqual"
  input: "data/resize_image_with_crop_or_pad/crop_to_bounding_box/Rank"
  input: "data/resize_image_with_crop_or_pad/crop_to_bounding_box/assert_greater_equal/y"
  attr {
    key: "T"
    value {
      type: DT_INT32
    }
  }
}
node {
  name: "data/resize_image_with_crop_or_pad/crop_to_bounding_box/assert_greater_equal/Rank"
  op: "Const"
  attr {
    key: "dtype"
    value {
      type: DT_INT32
    }
  }
  attr {
    key: "value"
    value {
      tensor {
        dtype: DT_INT32
        tensor_shape {
        }
        int_val: 0
      }
    }
  }
}
node {
  name: "data/resize_image_with_crop_or_pad/crop_to_bounding_box/assert_greater_equal/range/start"
  op: "Const"
  attr {
    key: "dtype"
    value {
      type: DT_INT32
    }
  }
  attr {
    key: "value"
    value {
      tensor {
        dtype: DT_INT32
        tensor_shape {
        }
        int_val: 0
      }
    }
  }
}
node {
  name: "data/resize_image_with_crop_or_pad/crop_to_bounding_box/assert_greater_equal/range/delta"
  op: "Const"
  attr {
    key: "dtype"
    value {
      type: DT_INT32
    }
  }
  attr {
    key: "value"
    value {
      tensor {
        dtype: DT_INT32
        tensor_shape {
        }
        int_val: 1
      }
    }
  }
}
node {
  name: "data/resize_image_with_crop_or_pad/crop_to_bounding_box/assert_greater_equal/range"
  op: "Range"
  input: "data/resize_image_with_crop_or_pad/crop_to_bounding_box/assert_greater_equal/range/start"
  input: "data/resize_image_with_crop_or_pad/crop_to_bounding_box/assert_greater_equal/Rank"
  input: "data/resize_image_with_crop_or_pad/crop_to_bounding_box/assert_greater_equal/range/delta"
  attr {
    key: "Tidx"
    value {
      type: DT_INT32
    }
  }
}
node {
  name: "data/resize_image_with_crop_or_pad/crop_to_bounding_box/assert_greater_equal/All"
  op: "All"
  input: "data/resize_image_with_crop_or_pad/crop_to_bounding_box/assert_greater_equal/GreaterEqual"
  input: "data/resize_image_with_crop_or_pad/crop_to_bounding_box/assert_greater_equal/range"
  attr {
    key: "Tidx"
    value {
      type: DT_INT32
    }
  }
  attr {
    key: "keep_dims"
    value {
      b: false
    }
  }
}
node {
  name: "data/resize_image_with_crop_or_pad/crop_to_bounding_box/assert_greater_equal/Assert/Const"
  op: "Const"
  attr {
    key: "dtype"
    value {
      type: DT_STRING
    }
  }
  attr {
    key: "value"
    value {
      tensor {
        dtype: DT_STRING
        tensor_shape {
        }
        string_val: "\'image\' must be at least three-dimensional."
      }
    }
  }
}
node {
  name: "data/resize_image_with_crop_or_pad/crop_to_bounding_box/assert_greater_equal/Assert/Const_1"
  op: "Const"
  attr {
    key: "dtype"
    value {
      type: DT_STRING
    }
  }
  attr {
    key: "value"
    value {
      tensor {
        dtype: DT_STRING
        tensor_shape {
        }
        string_val: "Condition x >= y did not hold element-wise:"
      }
    }
  }
}
node {
  name: "data/resize_image_with_crop_or_pad/crop_to_bounding_box/assert_greater_equal/Assert/Const_2"
  op: "Const"
  attr {
    key: "dtype"
    value {
      type: DT_STRING
    }
  }
  attr {
    key: "value"
    value {
      tensor {
        dtype: DT_STRING
        tensor_shape {
        }
        string_val: "x (data/resize_image_with_crop_or_pad/crop_to_bounding_box/Rank:0) = "
      }
    }
  }
}
node {
  name: "data/resize_image_with_crop_or_pad/crop_to_bounding_box/assert_greater_equal/Assert/Const_3"
  op: "Const"
  attr {
    key: "dtype"
    value {
      type: DT_STRING
    }
  }
  attr {
    key: "value"
    value {
      tensor {
        dtype: DT_STRING
        tensor_shape {
        }
        string_val: "y (data/resize_image_with_crop_or_pad/crop_to_bounding_box/assert_greater_equal/y:0) = "
      }
    }
  }
}
node {
  name: "data/resize_image_with_crop_or_pad/crop_to_bounding_box/assert_greater_equal/Assert/Assert/data_0"
  op: "Const"
  attr {
    key: "dtype"
    value {
      type: DT_STRING
    }
  }
  attr {
    key: "value"
    value {
      tensor {
        dtype: DT_STRING
        tensor_shape {
        }
        string_val: "\'image\' must be at least three-dimensional."
      }
    }
  }
}
node {
  name: "data/resize_image_with_crop_or_pad/crop_to_bounding_box/assert_greater_equal/Assert/Assert/data_1"
  op: "Const"
  attr {
    key: "dtype"
    value {
      type: DT_STRING
    }
  }
  attr {
    key: "value"
    value {
      tensor {
        dtype: DT_STRING
        tensor_shape {
        }
        string_val: "Condition x >= y did not hold element-wise:"
      }
    }
  }
}
node {
  name: "data/resize_image_with_crop_or_pad/crop_to_bounding_box/assert_greater_equal/Assert/Assert/data_2"
  op: "Const"
  attr {
    key: "dtype"
    value {
      type: DT_STRING
    }
  }
  attr {
    key: "value"
    value {
      tensor {
        dtype: DT_STRING
        tensor_shape {
        }
        string_val: "x (data/resize_image_with_crop_or_pad/crop_to_bounding_box/Rank:0) = "
      }
    }
  }
}
node {
  name: "data/resize_image_with_crop_or_pad/crop_to_bounding_box/assert_greater_equal/Assert/Assert/data_4"
  op: "Const"
  attr {
    key: "dtype"
    value {
      type: DT_STRING
    }
  }
  attr {
    key: "value"
    value {
      tensor {
        dtype: DT_STRING
        tensor_shape {
        }
        string_val: "y (data/resize_image_with_crop_or_pad/crop_to_bounding_box/assert_greater_equal/y:0) = "
      }
    }
  }
}
node {
  name: "data/resize_image_with_crop_or_pad/crop_to_bounding_box/assert_greater_equal/Assert/Assert"
  op: "Assert"
  input: "data/resize_image_with_crop_or_pad/crop_to_bounding_box/assert_greater_equal/All"
  input: "data/resize_image_with_crop_or_pad/crop_to_bounding_box/assert_greater_equal/Assert/Assert/data_0"
  input: "data/resize_image_with_crop_or_pad/crop_to_bounding_box/assert_greater_equal/Assert/Assert/data_1"
  input: "data/resize_image_with_crop_or_pad/crop_to_bounding_box/assert_greater_equal/Assert/Assert/data_2"
  input: "data/resize_image_with_crop_or_pad/crop_to_bounding_box/Rank"
  input: "data/resize_image_with_crop_or_pad/crop_to_bounding_box/assert_greater_equal/Assert/Assert/data_4"
  input: "data/resize_image_with_crop_or_pad/crop_to_bounding_box/assert_greater_equal/y"
  attr {
    key: "T"
    value {
      list {
        type: DT_STRING
        type: DT_STRING
        type: DT_STRING
        type: DT_INT32
        type: DT_STRING
        type: DT_INT32
      }
    }
  }
  attr {
    key: "_has_manual_control_dependencies"
    value {
      b: true
    }
  }
  attr {
    key: "summarize"
    value {
      i: 3
    }
  }
}
node {
  name: "data/resize_image_with_crop_or_pad/crop_to_bounding_box/Shape_1"
  op: "Shape"
  input: "data/resize_image_with_crop_or_pad/control_dependency"
  attr {
    key: "T"
    value {
      type: DT_FLOAT
    }
  }
  attr {
    key: "out_type"
    value {
      type: DT_INT32
    }
  }
}
node {
  name: "data/resize_image_with_crop_or_pad/crop_to_bounding_box/unstack"
  op: "Unpack"
  input: "data/resize_image_with_crop_or_pad/crop_to_bounding_box/Shape_1"
  attr {
    key: "T"
    value {
      type: DT_INT32
    }
  }
  attr {
    key: "axis"
    value {
      i: 0
    }
  }
  attr {
    key: "num"
    value {
      i: 4
    }
  }
}
node {
  name: "data/resize_image_with_crop_or_pad/crop_to_bounding_box/GreaterEqual/y"
  op: "Const"
  attr {
    key: "dtype"
    value {
      type: DT_INT32
    }
  }
  attr {
    key: "value"
    value {
      tensor {
        dtype: DT_INT32
        tensor_shape {
        }
        int_val: 0
      }
    }
  }
}
node {
  name: "data/resize_image_with_crop_or_pad/crop_to_bounding_box/GreaterEqual"
  op: "GreaterEqual"
  input: "data/resize_image_with_crop_or_pad/Maximum"
  input: "data/resize_image_with_crop_or_pad/crop_to_bounding_box/GreaterEqual/y"
  attr {
    key: "T"
    value {
      type: DT_INT32
    }
  }
}
node {
  name: "data/resize_image_with_crop_or_pad/crop_to_bounding_box/Assert/Const"
  op: "Const"
  attr {
    key: "dtype"
    value {
      type: DT_STRING
    }
  }
  attr {
    key: "value"
    value {
      tensor {
        dtype: DT_STRING
        tensor_shape {
        }
        string_val: "offset_height must be >= 0."
      }
    }
  }
}
node {
  name: "data/resize_image_with_crop_or_pad/crop_to_bounding_box/Assert/Assert/data_0"
  op: "Const"
  attr {
    key: "dtype"
    value {
      type: DT_STRING
    }
  }
  attr {
    key: "value"
    value {
      tensor {
        dtype: DT_STRING
        tensor_shape {
        }
        string_val: "offset_height must be >= 0."
      }
    }
  }
}
node {
  name: "data/resize_image_with_crop_or_pad/crop_to_bounding_box/Assert/Assert"
  op: "Assert"
  input: "data/resize_image_with_crop_or_pad/crop_to_bounding_box/GreaterEqual"
  input: "data/resize_image_with_crop_or_pad/crop_to_bounding_box/Assert/Assert/data_0"
  attr {
    key: "T"
    value {
      list {
        type: DT_STRING
      }
    }
  }
  attr {
    key: "_has_manual_control_dependencies"
    value {
      b: true
    }
  }
  attr {
    key: "summarize"
    value {
      i: 3
    }
  }
}
node {
  name: "data/resize_image_with_crop_or_pad/crop_to_bounding_box/Greater/y"
  op: "Const"
  attr {
    key: "dtype"
    value {
      type: DT_INT32
    }
  }
  attr {
    key: "value"
    value {
      tensor {
        dtype: DT_INT32
        tensor_shape {
        }
        int_val: 0
      }
    }
  }
}
node {
  name: "data/resize_image_with_crop_or_pad/crop_to_bounding_box/Greater"
  op: "Greater"
  input: "data/resize_image_with_crop_or_pad/Minimum"
  input: "data/resize_image_with_crop_or_pad/crop_to_bounding_box/Greater/y"
  attr {
    key: "T"
    value {
      type: DT_INT32
    }
  }
}
node {
  name: "data/resize_image_with_crop_or_pad/crop_to_bounding_box/Assert_1/Const"
  op: "Const"
  attr {
    key: "dtype"
    value {
      type: DT_STRING
    }
  }
  attr {
    key: "value"
    value {
      tensor {
        dtype: DT_STRING
        tensor_shape {
        }
        string_val: "target_height must be > 0."
      }
    }
  }
}
node {
  name: "data/resize_image_with_crop_or_pad/crop_to_bounding_box/Assert_1/Assert/data_0"
  op: "Const"
  attr {
    key: "dtype"
    value {
      type: DT_STRING
    }
  }
  attr {
    key: "value"
    value {
      tensor {
        dtype: DT_STRING
        tensor_shape {
        }
        string_val: "target_height must be > 0."
      }
    }
  }
}
node {
  name: "data/resize_image_with_crop_or_pad/crop_to_bounding_box/Assert_1/Assert"
  op: "Assert"
  input: "data/resize_image_with_crop_or_pad/crop_to_bounding_box/Greater"
  input: "data/resize_image_with_crop_or_pad/crop_to_bounding_box/Assert_1/Assert/data_0"
  attr {
    key: "T"
    value {
      list {
        type: DT_STRING
      }
    }
  }
  attr {
    key: "_has_manual_control_dependencies"
    value {
      b: true
    }
  }
  attr {
    key: "summarize"
    value {
      i: 3
    }
  }
}
node {
  name: "data/resize_image_with_crop_or_pad/crop_to_bounding_box/add"
  op: "AddV2"
  input: "data/resize_image_with_crop_or_pad/Minimum"
  input: "data/resize_image_with_crop_or_pad/Maximum"
  attr {
    key: "T"
    value {
      type: DT_INT32
    }
  }
}
node {
  name: "data/resize_image_with_crop_or_pad/crop_to_bounding_box/GreaterEqual_1"
  op: "GreaterEqual"
  input: "data/resize_image_with_crop_or_pad/crop_to_bounding_box/unstack:1"
  input: "data/resize_image_with_crop_or_pad/crop_to_bounding_box/add"
  attr {
    key: "T"
    value {
      type: DT_INT32
    }
  }
}
node {
  name: "data/resize_image_with_crop_or_pad/crop_to_bounding_box/Assert_2/Const"
  op: "Const"
  attr {
    key: "dtype"
    value {
      type: DT_STRING
    }
  }
  attr {
    key: "value"
    value {
      tensor {
        dtype: DT_STRING
        tensor_shape {
        }
        string_val: "height must be >= target + offset."
      }
    }
  }
}
node {
  name: "data/resize_image_with_crop_or_pad/crop_to_bounding_box/Assert_2/Assert/data_0"
  op: "Const"
  attr {
    key: "dtype"
    value {
      type: DT_STRING
    }
  }
  attr {
    key: "value"
    value {
      tensor {
        dtype: DT_STRING
        tensor_shape {
        }
        string_val: "height must be >= target + offset."
      }
    }
  }
}
node {
  name: "data/resize_image_with_crop_or_pad/crop_to_bounding_box/Assert_2/Assert"
  op: "Assert"
  input: "data/resize_image_with_crop_or_pad/crop_to_bounding_box/GreaterEqual_1"
  input: "data/resize_image_with_crop_or_pad/crop_to_bounding_box/Assert_2/Assert/data_0"
  attr {
    key: "T"
    value {
      list {
        type: DT_STRING
      }
    }
  }
  attr {
    key: "_has_manual_control_dependencies"
    value {
      b: true
    }
  }
  attr {
    key: "summarize"
    value {
      i: 3
    }
  }
}
node {
  name: "data/resize_image_with_crop_or_pad/crop_to_bounding_box/control_dependency"
  op: "Identity"
  input: "data/resize_image_with_crop_or_pad/control_dependency"
  input: "^data/resize_image_with_crop_or_pad/crop_to_bounding_box/Assert/Assert"
  input: "^data/resize_image_with_crop_or_pad/crop_to_bounding_box/Assert_1/Assert"
  input: "^data/resize_image_with_crop_or_pad/crop_to_bounding_box/Assert_2/Assert"
  input: "^data/resize_image_with_crop_or_pad/crop_to_bounding_box/assert_greater_equal/Assert/Assert"
  input: "^data/resize_image_with_crop_or_pad/crop_to_bounding_box/assert_positive/assert_less/Assert/Assert"
  attr {
    key: "T"
    value {
      type: DT_FLOAT
    }
  }
  attr {
    key: "_class"
    value {
      list {
        s: "loc:@data/resize/ResizeBilinear"
      }
    }
  }
}
node {
  name: "data/resize_image_with_crop_or_pad/crop_to_bounding_box/stack/0"
  op: "Const"
  attr {
    key: "dtype"
    value {
      type: DT_INT32
    }
  }
  attr {
    key: "value"
    value {
      tensor {
        dtype: DT_INT32
        tensor_shape {
        }
        int_val: 0
      }
    }
  }
}
node {
  name: "data/resize_image_with_crop_or_pad/crop_to_bounding_box/stack/2"
  op: "Const"
  attr {
    key: "dtype"
    value {
      type: DT_INT32
    }
  }
  attr {
    key: "value"
    value {
      tensor {
        dtype: DT_INT32
        tensor_shape {
        }
        int_val: 0
      }
    }
  }
}
node {
  name: "data/resize_image_with_crop_or_pad/crop_to_bounding_box/stack/3"
  op: "Const"
  attr {
    key: "dtype"
    value {
      type: DT_INT32
    }
  }
  attr {
    key: "value"
    value {
      tensor {
        dtype: DT_INT32
        tensor_shape {
        }
        int_val: 0
      }
    }
  }
}
node {
  name: "data/resize_image_with_crop_or_pad/crop_to_bounding_box/stack"
  op: "Pack"
  input: "data/resize_image_with_crop_or_pad/crop_to_bounding_box/stack/0"
  input: "data/resize_image_with_crop_or_pad/Maximum"
  input: "data/resize_image_with_crop_or_pad/crop_to_bounding_box/stack/2"
  input: "data/resize_image_with_crop_or_pad/crop_to_bounding_box/stack/3"
  attr {
    key: "N"
    value {
      i: 4
    }
  }
  attr {
    key: "T"
    value {
      type: DT_INT32
    }
  }
  attr {
    key: "axis"
    value {
      i: 0
    }
  }
}
node {
  name: "data/resize_image_with_crop_or_pad/crop_to_bounding_box/Shape_2"
  op: "Shape"
  input: "data/resize_image_with_crop_or_pad/crop_to_bounding_box/control_dependency"
  attr {
    key: "T"
    value {
      type: DT_FLOAT
    }
  }
  attr {
    key: "out_type"
    value {
      type: DT_INT32
    }
  }
}
node {
  name: "data/resize_image_with_crop_or_pad/crop_to_bounding_box/strided_slice_1/stack"
  op: "Const"
  attr {
    key: "dtype"
    value {
      type: DT_INT32
    }
  }
  attr {
    key: "value"
    value {
      tensor {
        dtype: DT_INT32
        tensor_shape {
          dim {
            size: 1
          }
        }
        int_val: 0
      }
    }
  }
}
node {
  name: "data/resize_image_with_crop_or_pad/crop_to_bounding_box/strided_slice_1/stack_1"
  op: "Const"
  attr {
    key: "dtype"
    value {
      type: DT_INT32
    }
  }
  attr {
    key: "value"
    value {
      tensor {
        dtype: DT_INT32
        tensor_shape {
          dim {
            size: 1
          }
        }
        int_val: 1
      }
    }
  }
}
node {
  name: "data/resize_image_with_crop_or_pad/crop_to_bounding_box/strided_slice_1/stack_2"
  op: "Const"
  attr {
    key: "dtype"
    value {
      type: DT_INT32
    }
  }
  attr {
    key: "value"
    value {
      tensor {
        dtype: DT_INT32
        tensor_shape {
          dim {
            size: 1
          }
        }
        int_val: 1
      }
    }
  }
}
node {
  name: "data/resize_image_with_crop_or_pad/crop_to_bounding_box/strided_slice_1"
  op: "StridedSlice"
  input: "data/resize_image_with_crop_or_pad/crop_to_bounding_box/Shape_2"
  input: "data/resize_image_with_crop_or_pad/crop_to_bounding_box/strided_slice_1/stack"
  input: "data/resize_image_with_crop_or_pad/crop_to_bounding_box/strided_slice_1/stack_1"
  input: "data/resize_image_with_crop_or_pad/crop_to_bounding_box/strided_slice_1/stack_2"
  attr {
    key: "Index"
    value {
      type: DT_INT32
    }
  }
  attr {
    key: "T"
    value {
      type: DT_INT32
    }
  }
  attr {
    key: "begin_mask"
    value {
      i: 0
    }
  }
  attr {
    key: "ellipsis_mask"
    value {
      i: 0
    }
  }
  attr {
    key: "end_mask"
    value {
      i: 0
    }
  }
  attr {
    key: "new_axis_mask"
    value {
      i: 0
    }
  }
  attr {
    key: "shrink_axis_mask"
    value {
      i: 1
    }
  }
}
node {
  name: "data/resize_image_with_crop_or_pad/crop_to_bounding_box/Shape_3"
  op: "Shape"
  input: "data/resize_image_with_crop_or_pad/crop_to_bounding_box/control_dependency"
  attr {
    key: "T"
    value {
      type: DT_FLOAT
    }
  }
  attr {
    key: "out_type"
    value {
      type: DT_INT32
    }
  }
}
node {
  name: "data/resize_image_with_crop_or_pad/crop_to_bounding_box/strided_slice_2/stack"
  op: "Const"
  attr {
    key: "dtype"
    value {
      type: DT_INT32
    }
  }
  attr {
    key: "value"
    value {
      tensor {
        dtype: DT_INT32
        tensor_shape {
          dim {
            size: 1
          }
        }
        int_val: 3
      }
    }
  }
}
node {
  name: "data/resize_image_with_crop_or_pad/crop_to_bounding_box/strided_slice_2/stack_1"
  op: "Const"
  attr {
    key: "dtype"
    value {
      type: DT_INT32
    }
  }
  attr {
    key: "value"
    value {
      tensor {
        dtype: DT_INT32
        tensor_shape {
          dim {
            size: 1
          }
        }
        int_val: 4
      }
    }
  }
}
node {
  name: "data/resize_image_with_crop_or_pad/crop_to_bounding_box/strided_slice_2/stack_2"
  op: "Const"
  attr {
    key: "dtype"
    value {
      type: DT_INT32
    }
  }
  attr {
    key: "value"
    value {
      tensor {
        dtype: DT_INT32
        tensor_shape {
          dim {
            size: 1
          }
        }
        int_val: 1
      }
    }
  }
}
node {
  name: "data/resize_image_with_crop_or_pad/crop_to_bounding_box/strided_slice_2"
  op: "StridedSlice"
  input: "data/resize_image_with_crop_or_pad/crop_to_bounding_box/Shape_3"
  input: "data/resize_image_with_crop_or_pad/crop_to_bounding_box/strided_slice_2/stack"
  input: "data/resize_image_with_crop_or_pad/crop_to_bounding_box/strided_slice_2/stack_1"
  input: "data/resize_image_with_crop_or_pad/crop_to_bounding_box/strided_slice_2/stack_2"
  attr {
    key: "Index"
    value {
      type: DT_INT32
    }
  }
  attr {
    key: "T"
    value {
      type: DT_INT32
    }
  }
  attr {
    key: "begin_mask"
    value {
      i: 0
    }
  }
  attr {
    key: "ellipsis_mask"
    value {
      i: 0
    }
  }
  attr {
    key: "end_mask"
    value {
      i: 0
    }
  }
  attr {
    key: "new_axis_mask"
    value {
      i: 0
    }
  }
  attr {
    key: "shrink_axis_mask"
    value {
      i: 1
    }
  }
}
node {
  name: "data/resize_image_with_crop_or_pad/crop_to_bounding_box/stack_1/2"
  op: "Const"
  attr {
    key: "dtype"
    value {
      type: DT_INT32
    }
  }
  attr {
    key: "value"
    value {
      tensor {
        dtype: DT_INT32
        tensor_shape {
        }
        int_val: 1
      }
    }
  }
}
node {
  name: "data/resize_image_with_crop_or_pad/crop_to_bounding_box/stack_1"
  op: "Pack"
  input: "data/resize_image_with_crop_or_pad/crop_to_bounding_box/strided_slice_1"
  input: "data/resize_image_with_crop_or_pad/Minimum"
  input: "data/resize_image_with_crop_or_pad/crop_to_bounding_box/stack_1/2"
  input: "data/resize_image_with_crop_or_pad/crop_to_bounding_box/strided_slice_2"
  attr {
    key: "N"
    value {
      i: 4
    }
  }
  attr {
    key: "T"
    value {
      type: DT_INT32
    }
  }
  attr {
    key: "axis"
    value {
      i: 0
    }
  }
}
node {
  name: "data/resize_image_with_crop_or_pad/crop_to_bounding_box/Slice"
  op: "Slice"
  input: "data/resize_image_with_crop_or_pad/crop_to_bounding_box/control_dependency"
  input: "data/resize_image_with_crop_or_pad/crop_to_bounding_box/stack"
  input: "data/resize_image_with_crop_or_pad/crop_to_bounding_box/stack_1"
  attr {
    key: "Index"
    value {
      type: DT_INT32
    }
  }
  attr {
    key: "T"
    value {
      type: DT_FLOAT
    }
  }
}
node {
  name: "data/resize_image_with_crop_or_pad/pad_to_bounding_box/Shape"
  op: "Shape"
  input: "data/resize_image_with_crop_or_pad/crop_to_bounding_box/Slice"
  attr {
    key: "T"
    value {
      type: DT_FLOAT
    }
  }
  attr {
    key: "out_type"
    value {
      type: DT_INT32
    }
  }
}
node {
  name: "data/resize_image_with_crop_or_pad/pad_to_bounding_box/unstack"
  op: "Unpack"
  input: "data/resize_image_with_crop_or_pad/pad_to_bounding_box/Shape"
  attr {
    key: "T"
    value {
      type: DT_INT32
    }
  }
  attr {
    key: "axis"
    value {
      i: 0
    }
  }
  attr {
    key: "num"
    value {
      i: 4
    }
  }
}
node {
  name: "data/resize_image_with_crop_or_pad/pad_to_bounding_box/sub/x"
  op: "Const"
  attr {
    key: "dtype"
    value {
      type: DT_INT32
    }
  }
  attr {
    key: "value"
    value {
      tensor {
        dtype: DT_INT32
        tensor_shape {
        }
        int_val: 16000
      }
    }
  }
}
node {
  name: "data/resize_image_with_crop_or_pad/pad_to_bounding_box/sub"
  op: "Sub"
  input: "data/resize_image_with_crop_or_pad/pad_to_bounding_box/sub/x"
  input: "data/resize_image_with_crop_or_pad/Maximum_1"
  attr {
    key: "T"
    value {
      type: DT_INT32
    }
  }
}
node {
  name: "data/resize_image_with_crop_or_pad/pad_to_bounding_box/sub_1"
  op: "Sub"
  input: "data/resize_image_with_crop_or_pad/pad_to_bounding_box/sub"
  input: "data/resize_image_with_crop_or_pad/pad_to_bounding_box/unstack:1"
  attr {
    key: "T"
    value {
      type: DT_INT32
    }
  }
}
node {
  name: "data/resize_image_with_crop_or_pad/pad_to_bounding_box/Shape_1"
  op: "Shape"
  input: "data/resize_image_with_crop_or_pad/crop_to_bounding_box/Slice"
  attr {
    key: "T"
    value {
      type: DT_FLOAT
    }
  }
  attr {
    key: "out_type"
    value {
      type: DT_INT32
    }
  }
}
node {
  name: "data/resize_image_with_crop_or_pad/pad_to_bounding_box/strided_slice/stack"
  op: "Const"
  attr {
    key: "dtype"
    value {
      type: DT_INT32
    }
  }
  attr {
    key: "value"
    value {
      tensor {
        dtype: DT_INT32
        tensor_shape {
          dim {
            size: 1
          }
        }
        int_val: -3
      }
    }
  }
}
node {
  name: "data/resize_image_with_crop_or_pad/pad_to_bounding_box/strided_slice/stack_1"
  op: "Const"
  attr {
    key: "dtype"
    value {
      type: DT_INT32
    }
  }
  attr {
    key: "value"
    value {
      tensor {
        dtype: DT_INT32
        tensor_shape {
          dim {
            size: 1
          }
        }
        int_val: 0
      }
    }
  }
}
node {
  name: "data/resize_image_with_crop_or_pad/pad_to_bounding_box/strided_slice/stack_2"
  op: "Const"
  attr {
    key: "dtype"
    value {
      type: DT_INT32
    }
  }
  attr {
    key: "value"
    value {
      tensor {
        dtype: DT_INT32
        tensor_shape {
          dim {
            size: 1
          }
        }
        int_val: 1
      }
    }
  }
}
node {
  name: "data/resize_image_with_crop_or_pad/pad_to_bounding_box/strided_slice"
  op: "StridedSlice"
  input: "data/resize_image_with_crop_or_pad/pad_to_bounding_box/Shape_1"
  input: "data/resize_image_with_crop_or_pad/pad_to_bounding_box/strided_slice/stack"
  input: "data/resize_image_with_crop_or_pad/pad_to_bounding_box/strided_slice/stack_1"
  input: "data/resize_image_with_crop_or_pad/pad_to_bounding_box/strided_slice/stack_2"
  attr {
    key: "Index"
    value {
      type: DT_INT32
    }
  }
  attr {
    key: "T"
    value {
      type: DT_INT32
    }
  }
  attr {
    key: "begin_mask"
    value {
      i: 0
    }
  }
  attr {
    key: "ellipsis_mask"
    value {
      i: 0
    }
  }
  attr {
    key: "end_mask"
    value {
      i: 1
    }
  }
  attr {
    key: "new_axis_mask"
    value {
      i: 0
    }
  }
  attr {
    key: "shrink_axis_mask"
    value {
      i: 0
    }
  }
}
node {
  name: "data/resize_image_with_crop_or_pad/pad_to_bounding_box/assert_positive/Const"
  op: "Const"
  attr {
    key: "dtype"
    value {
      type: DT_INT32
    }
  }
  attr {
    key: "value"
    value {
      tensor {
        dtype: DT_INT32
        tensor_shape {
        }
        int_val: 0
      }
    }
  }
}
node {
  name: "data/resize_image_with_crop_or_pad/pad_to_bounding_box/assert_positive/assert_less/Less"
  op: "Less"
  input: "data/resize_image_with_crop_or_pad/pad_to_bounding_box/assert_positive/Const"
  input: "data/resize_image_with_crop_or_pad/pad_to_bounding_box/strided_slice"
  attr {
    key: "T"
    value {
      type: DT_INT32
    }
  }
}
node {
  name: "data/resize_image_with_crop_or_pad/pad_to_bounding_box/assert_positive/assert_less/Const"
  op: "Const"
  attr {
    key: "dtype"
    value {
      type: DT_INT32
    }
  }
  attr {
    key: "value"
    value {
      tensor {
        dtype: DT_INT32
        tensor_shape {
          dim {
            size: 1
          }
        }
        int_val: 0
      }
    }
  }
}
node {
  name: "data/resize_image_with_crop_or_pad/pad_to_bounding_box/assert_positive/assert_less/All"
  op: "All"
  input: "data/resize_image_with_crop_or_pad/pad_to_bounding_box/assert_positive/assert_less/Less"
  input: "data/resize_image_with_crop_or_pad/pad_to_bounding_box/assert_positive/assert_less/Const"
  attr {
    key: "Tidx"
    value {
      type: DT_INT32
    }
  }
  attr {
    key: "keep_dims"
    value {
      b: false
    }
  }
}
node {
  name: "data/resize_image_with_crop_or_pad/pad_to_bounding_box/assert_positive/assert_less/Assert/Const"
  op: "Const"
  attr {
    key: "dtype"
    value {
      type: DT_STRING
    }
  }
  attr {
    key: "value"
    value {
      tensor {
        dtype: DT_STRING
        tensor_shape {
        }
        string_val: "inner 3 dims of \'image.shape\' must be > 0."
      }
    }
  }
}
node {
  name: "data/resize_image_with_crop_or_pad/pad_to_bounding_box/assert_positive/assert_less/Assert/Assert/data_0"
  op: "Const"
  attr {
    key: "dtype"
    value {
      type: DT_STRING
    }
  }
  attr {
    key: "value"
    value {
      tensor {
        dtype: DT_STRING
        tensor_shape {
        }
        string_val: "inner 3 dims of \'image.shape\' must be > 0."
      }
    }
  }
}
node {
  name: "data/resize_image_with_crop_or_pad/pad_to_bounding_box/assert_positive/assert_less/Assert/Assert"
  op: "Assert"
  input: "data/resize_image_with_crop_or_pad/pad_to_bounding_box/assert_positive/assert_less/All"
  input: "data/resize_image_with_crop_or_pad/pad_to_bounding_box/assert_positive/assert_less/Assert/Assert/data_0"
  attr {
    key: "T"
    value {
      list {
        type: DT_STRING
      }
    }
  }
  attr {
    key: "_has_manual_control_dependencies"
    value {
      b: true
    }
  }
  attr {
    key: "summarize"
    value {
      i: 3
    }
  }
}
node {
  name: "data/resize_image_with_crop_or_pad/pad_to_bounding_box/Rank"
  op: "Const"
  attr {
    key: "dtype"
    value {
      type: DT_INT32
    }
  }
  attr {
    key: "value"
    value {
      tensor {
        dtype: DT_INT32
        tensor_shape {
        }
        int_val: 4
      }
    }
  }
}
node {
  name: "data/resize_image_with_crop_or_pad/pad_to_bounding_box/assert_greater_equal/y"
  op: "Const"
  attr {
    key: "dtype"
    value {
      type: DT_INT32
    }
  }
  attr {
    key: "value"
    value {
      tensor {
        dtype: DT_INT32
        tensor_shape {
        }
        int_val: 3
      }
    }
  }
}
node {
  name: "data/resize_image_with_crop_or_pad/pad_to_bounding_box/assert_greater_equal/GreaterEqual"
  op: "GreaterEqual"
  input: "data/resize_image_with_crop_or_pad/pad_to_bounding_box/Rank"
  input: "data/resize_image_with_crop_or_pad/pad_to_bounding_box/assert_greater_equal/y"
  attr {
    key: "T"
    value {
      type: DT_INT32
    }
  }
}
node {
  name: "data/resize_image_with_crop_or_pad/pad_to_bounding_box/assert_greater_equal/Rank"
  op: "Const"
  attr {
    key: "dtype"
    value {
      type: DT_INT32
    }
  }
  attr {
    key: "value"
    value {
      tensor {
        dtype: DT_INT32
        tensor_shape {
        }
        int_val: 0
      }
    }
  }
}
node {
  name: "data/resize_image_with_crop_or_pad/pad_to_bounding_box/assert_greater_equal/range/start"
  op: "Const"
  attr {
    key: "dtype"
    value {
      type: DT_INT32
    }
  }
  attr {
    key: "value"
    value {
      tensor {
        dtype: DT_INT32
        tensor_shape {
        }
        int_val: 0
      }
    }
  }
}
node {
  name: "data/resize_image_with_crop_or_pad/pad_to_bounding_box/assert_greater_equal/range/delta"
  op: "Const"
  attr {
    key: "dtype"
    value {
      type: DT_INT32
    }
  }
  attr {
    key: "value"
    value {
      tensor {
        dtype: DT_INT32
        tensor_shape {
        }
        int_val: 1
      }
    }
  }
}
node {
  name: "data/resize_image_with_crop_or_pad/pad_to_bounding_box/assert_greater_equal/range"
  op: "Range"
  input: "data/resize_image_with_crop_or_pad/pad_to_bounding_box/assert_greater_equal/range/start"
  input: "data/resize_image_with_crop_or_pad/pad_to_bounding_box/assert_greater_equal/Rank"
  input: "data/resize_image_with_crop_or_pad/pad_to_bounding_box/assert_greater_equal/range/delta"
  attr {
    key: "Tidx"
    value {
      type: DT_INT32
    }
  }
}
node {
  name: "data/resize_image_with_crop_or_pad/pad_to_bounding_box/assert_greater_equal/All"
  op: "All"
  input: "data/resize_image_with_crop_or_pad/pad_to_bounding_box/assert_greater_equal/GreaterEqual"
  input: "data/resize_image_with_crop_or_pad/pad_to_bounding_box/assert_greater_equal/range"
  attr {
    key: "Tidx"
    value {
      type: DT_INT32
    }
  }
  attr {
    key: "keep_dims"
    value {
      b: false
    }
  }
}
node {
  name: "data/resize_image_with_crop_or_pad/pad_to_bounding_box/assert_greater_equal/Assert/Const"
  op: "Const"
  attr {
    key: "dtype"
    value {
      type: DT_STRING
    }
  }
  attr {
    key: "value"
    value {
      tensor {
        dtype: DT_STRING
        tensor_shape {
        }
        string_val: "\'image\' must be at least three-dimensional."
      }
    }
  }
}
node {
  name: "data/resize_image_with_crop_or_pad/pad_to_bounding_box/assert_greater_equal/Assert/Const_1"
  op: "Const"
  attr {
    key: "dtype"
    value {
      type: DT_STRING
    }
  }
  attr {
    key: "value"
    value {
      tensor {
        dtype: DT_STRING
        tensor_shape {
        }
        string_val: "Condition x >= y did not hold element-wise:"
      }
    }
  }
}
node {
  name: "data/resize_image_with_crop_or_pad/pad_to_bounding_box/assert_greater_equal/Assert/Const_2"
  op: "Const"
  attr {
    key: "dtype"
    value {
      type: DT_STRING
    }
  }
  attr {
    key: "value"
    value {
      tensor {
        dtype: DT_STRING
        tensor_shape {
        }
        string_val: "x (data/resize_image_with_crop_or_pad/pad_to_bounding_box/Rank:0) = "
      }
    }
  }
}
node {
  name: "data/resize_image_with_crop_or_pad/pad_to_bounding_box/assert_greater_equal/Assert/Const_3"
  op: "Const"
  attr {
    key: "dtype"
    value {
      type: DT_STRING
    }
  }
  attr {
    key: "value"
    value {
      tensor {
        dtype: DT_STRING
        tensor_shape {
        }
        string_val: "y (data/resize_image_with_crop_or_pad/pad_to_bounding_box/assert_greater_equal/y:0) = "
      }
    }
  }
}
node {
  name: "data/resize_image_with_crop_or_pad/pad_to_bounding_box/assert_greater_equal/Assert/Assert/data_0"
  op: "Const"
  attr {
    key: "dtype"
    value {
      type: DT_STRING
    }
  }
  attr {
    key: "value"
    value {
      tensor {
        dtype: DT_STRING
        tensor_shape {
        }
        string_val: "\'image\' must be at least three-dimensional."
      }
    }
  }
}
node {
  name: "data/resize_image_with_crop_or_pad/pad_to_bounding_box/assert_greater_equal/Assert/Assert/data_1"
  op: "Const"
  attr {
    key: "dtype"
    value {
      type: DT_STRING
    }
  }
  attr {
    key: "value"
    value {
      tensor {
        dtype: DT_STRING
        tensor_shape {
        }
        string_val: "Condition x >= y did not hold element-wise:"
      }
    }
  }
}
node {
  name: "data/resize_image_with_crop_or_pad/pad_to_bounding_box/assert_greater_equal/Assert/Assert/data_2"
  op: "Const"
  attr {
    key: "dtype"
    value {
      type: DT_STRING
    }
  }
  attr {
    key: "value"
    value {
      tensor {
        dtype: DT_STRING
        tensor_shape {
        }
        string_val: "x (data/resize_image_with_crop_or_pad/pad_to_bounding_box/Rank:0) = "
      }
    }
  }
}
node {
  name: "data/resize_image_with_crop_or_pad/pad_to_bounding_box/assert_greater_equal/Assert/Assert/data_4"
  op: "Const"
  attr {
    key: "dtype"
    value {
      type: DT_STRING
    }
  }
  attr {
    key: "value"
    value {
      tensor {
        dtype: DT_STRING
        tensor_shape {
        }
        string_val: "y (data/resize_image_with_crop_or_pad/pad_to_bounding_box/assert_greater_equal/y:0) = "
      }
    }
  }
}
node {
  name: "data/resize_image_with_crop_or_pad/pad_to_bounding_box/assert_greater_equal/Assert/Assert"
  op: "Assert"
  input: "data/resize_image_with_crop_or_pad/pad_to_bounding_box/assert_greater_equal/All"
  input: "data/resize_image_with_crop_or_pad/pad_to_bounding_box/assert_greater_equal/Assert/Assert/data_0"
  input: "data/resize_image_with_crop_or_pad/pad_to_bounding_box/assert_greater_equal/Assert/Assert/data_1"
  input: "data/resize_image_with_crop_or_pad/pad_to_bounding_box/assert_greater_equal/Assert/Assert/data_2"
  input: "data/resize_image_with_crop_or_pad/pad_to_bounding_box/Rank"
  input: "data/resize_image_with_crop_or_pad/pad_to_bounding_box/assert_greater_equal/Assert/Assert/data_4"
  input: "data/resize_image_with_crop_or_pad/pad_to_bounding_box/assert_greater_equal/y"
  attr {
    key: "T"
    value {
      list {
        type: DT_STRING
        type: DT_STRING
        type: DT_STRING
        type: DT_INT32
        type: DT_STRING
        type: DT_INT32
      }
    }
  }
  attr {
    key: "_has_manual_control_dependencies"
    value {
      b: true
    }
  }
  attr {
    key: "summarize"
    value {
      i: 3
    }
  }
}
node {
  name: "data/resize_image_with_crop_or_pad/pad_to_bounding_box/GreaterEqual/y"
  op: "Const"
  attr {
    key: "dtype"
    value {
      type: DT_INT32
    }
  }
  attr {
    key: "value"
    value {
      tensor {
        dtype: DT_INT32
        tensor_shape {
        }
        int_val: 0
      }
    }
  }
}
node {
  name: "data/resize_image_with_crop_or_pad/pad_to_bounding_box/GreaterEqual"
  op: "GreaterEqual"
  input: "data/resize_image_with_crop_or_pad/Maximum_1"
  input: "data/resize_image_with_crop_or_pad/pad_to_bounding_box/GreaterEqual/y"
  attr {
    key: "T"
    value {
      type: DT_INT32
    }
  }
}
node {
  name: "data/resize_image_with_crop_or_pad/pad_to_bounding_box/Assert/Const"
  op: "Const"
  attr {
    key: "dtype"
    value {
      type: DT_STRING
    }
  }
  attr {
    key: "value"
    value {
      tensor {
        dtype: DT_STRING
        tensor_shape {
        }
        string_val: "offset_height must be >= 0"
      }
    }
  }
}
node {
  name: "data/resize_image_with_crop_or_pad/pad_to_bounding_box/Assert/Assert/data_0"
  op: "Const"
  attr {
    key: "dtype"
    value {
      type: DT_STRING
    }
  }
  attr {
    key: "value"
    value {
      tensor {
        dtype: DT_STRING
        tensor_shape {
        }
        string_val: "offset_height must be >= 0"
      }
    }
  }
}
node {
  name: "data/resize_image_with_crop_or_pad/pad_to_bounding_box/Assert/Assert"
  op: "Assert"
  input: "data/resize_image_with_crop_or_pad/pad_to_bounding_box/GreaterEqual"
  input: "data/resize_image_with_crop_or_pad/pad_to_bounding_box/Assert/Assert/data_0"
  attr {
    key: "T"
    value {
      list {
        type: DT_STRING
      }
    }
  }
  attr {
    key: "_has_manual_control_dependencies"
    value {
      b: true
    }
  }
  attr {
    key: "summarize"
    value {
      i: 3
    }
  }
}
node {
  name: "data/resize_image_with_crop_or_pad/pad_to_bounding_box/GreaterEqual_1/y"
  op: "Const"
  attr {
    key: "dtype"
    value {
      type: DT_INT32
    }
  }
  attr {
    key: "value"
    value {
      tensor {
        dtype: DT_INT32
        tensor_shape {
        }
        int_val: 0
      }
    }
  }
}
node {
  name: "data/resize_image_with_crop_or_pad/pad_to_bounding_box/GreaterEqual_1"
  op: "GreaterEqual"
  input: "data/resize_image_with_crop_or_pad/pad_to_bounding_box/sub_1"
  input: "data/resize_image_with_crop_or_pad/pad_to_bounding_box/GreaterEqual_1/y"
  attr {
    key: "T"
    value {
      type: DT_INT32
    }
  }
}
node {
  name: "data/resize_image_with_crop_or_pad/pad_to_bounding_box/Assert_1/Const"
  op: "Const"
  attr {
    key: "dtype"
    value {
      type: DT_STRING
    }
  }
  attr {
    key: "value"
    value {
      tensor {
        dtype: DT_STRING
        tensor_shape {
        }
        string_val: "height must be <= target - offset"
      }
    }
  }
}
node {
  name: "data/resize_image_with_crop_or_pad/pad_to_bounding_box/Assert_1/Assert/data_0"
  op: "Const"
  attr {
    key: "dtype"
    value {
      type: DT_STRING
    }
  }
  attr {
    key: "value"
    value {
      tensor {
        dtype: DT_STRING
        tensor_shape {
        }
        string_val: "height must be <= target - offset"
      }
    }
  }
}
node {
  name: "data/resize_image_with_crop_or_pad/pad_to_bounding_box/Assert_1/Assert"
  op: "Assert"
  input: "data/resize_image_with_crop_or_pad/pad_to_bounding_box/GreaterEqual_1"
  input: "data/resize_image_with_crop_or_pad/pad_to_bounding_box/Assert_1/Assert/data_0"
  attr {
    key: "T"
    value {
      list {
        type: DT_STRING
      }
    }
  }
  attr {
    key: "_has_manual_control_dependencies"
    value {
      b: true
    }
  }
  attr {
    key: "summarize"
    value {
      i: 3
    }
  }
}
node {
  name: "data/resize_image_with_crop_or_pad/pad_to_bounding_box/control_dependency"
  op: "Identity"
  input: "data/resize_image_with_crop_or_pad/crop_to_bounding_box/Slice"
  input: "^data/resize_image_with_crop_or_pad/pad_to_bounding_box/Assert/Assert"
  input: "^data/resize_image_with_crop_or_pad/pad_to_bounding_box/Assert_1/Assert"
  input: "^data/resize_image_with_crop_or_pad/pad_to_bounding_box/assert_greater_equal/Assert/Assert"
  input: "^data/resize_image_with_crop_or_pad/pad_to_bounding_box/assert_positive/assert_less/Assert/Assert"
  attr {
    key: "T"
    value {
      type: DT_FLOAT
    }
  }
  attr {
    key: "_class"
    value {
      list {
        s: "loc:@data/resize_image_with_crop_or_pad/crop_to_bounding_box/Slice"
      }
    }
  }
}
node {
  name: "data/resize_image_with_crop_or_pad/pad_to_bounding_box/stack/0"
  op: "Const"
  attr {
    key: "dtype"
    value {
      type: DT_INT32
    }
  }
  attr {
    key: "value"
    value {
      tensor {
        dtype: DT_INT32
        tensor_shape {
        }
        int_val: 0
      }
    }
  }
}
node {
  name: "data/resize_image_with_crop_or_pad/pad_to_bounding_box/stack/1"
  op: "Const"
  attr {
    key: "dtype"
    value {
      type: DT_INT32
    }
  }
  attr {
    key: "value"
    value {
      tensor {
        dtype: DT_INT32
        tensor_shape {
        }
        int_val: 0
      }
    }
  }
}
node {
  name: "data/resize_image_with_crop_or_pad/pad_to_bounding_box/stack/4"
  op: "Const"
  attr {
    key: "dtype"
    value {
      type: DT_INT32
    }
  }
  attr {
    key: "value"
    value {
      tensor {
        dtype: DT_INT32
        tensor_shape {
        }
        int_val: 0
      }
    }
  }
}
node {
  name: "data/resize_image_with_crop_or_pad/pad_to_bounding_box/stack/5"
  op: "Const"
  attr {
    key: "dtype"
    value {
      type: DT_INT32
    }
  }
  attr {
    key: "value"
    value {
      tensor {
        dtype: DT_INT32
        tensor_shape {
        }
        int_val: 0
      }
    }
  }
}
node {
  name: "data/resize_image_with_crop_or_pad/pad_to_bounding_box/stack/6"
  op: "Const"
  attr {
    key: "dtype"
    value {
      type: DT_INT32
    }
  }
  attr {
    key: "value"
    value {
      tensor {
        dtype: DT_INT32
        tensor_shape {
        }
        int_val: 0
      }
    }
  }
}
node {
  name: "data/resize_image_with_crop_or_pad/pad_to_bounding_box/stack/7"
  op: "Const"
  attr {
    key: "dtype"
    value {
      type: DT_INT32
    }
  }
  attr {
    key: "value"
    value {
      tensor {
        dtype: DT_INT32
        tensor_shape {
        }
        int_val: 0
      }
    }
  }
}
node {
  name: "data/resize_image_with_crop_or_pad/pad_to_bounding_box/stack"
  op: "Pack"
  input: "data/resize_image_with_crop_or_pad/pad_to_bounding_box/stack/0"
  input: "data/resize_image_with_crop_or_pad/pad_to_bounding_box/stack/1"
  input: "data/resize_image_with_crop_or_pad/Maximum_1"
  input: "data/resize_image_with_crop_or_pad/pad_to_bounding_box/sub_1"
  input: "data/resize_image_with_crop_or_pad/pad_to_bounding_box/stack/4"
  input: "data/resize_image_with_crop_or_pad/pad_to_bounding_box/stack/5"
  input: "data/resize_image_with_crop_or_pad/pad_to_bounding_box/stack/6"
  input: "data/resize_image_with_crop_or_pad/pad_to_bounding_box/stack/7"
  attr {
    key: "N"
    value {
      i: 8
    }
  }
  attr {
    key: "T"
    value {
      type: DT_INT32
    }
  }
  attr {
    key: "axis"
    value {
      i: 0
    }
  }
}
node {
  name: "data/resize_image_with_crop_or_pad/pad_to_bounding_box/Reshape/shape"
  op: "Const"
  attr {
    key: "dtype"
    value {
      type: DT_INT32
    }
  }
  attr {
    key: "value"
    value {
      tensor {
        dtype: DT_INT32
        tensor_shape {
          dim {
            size: 2
          }
        }
        tensor_content: "\004\000\000\000\002\000\000\000"
      }
    }
  }
}
node {
  name: "data/resize_image_with_crop_or_pad/pad_to_bounding_box/Reshape"
  op: "Reshape"
  input: "data/resize_image_with_crop_or_pad/pad_to_bounding_box/stack"
  input: "data/resize_image_with_crop_or_pad/pad_to_bounding_box/Reshape/shape"
  attr {
    key: "T"
    value {
      type: DT_INT32
    }
  }
  attr {
    key: "Tshape"
    value {
      type: DT_INT32
    }
  }
}
node {
  name: "data/resize_image_with_crop_or_pad/pad_to_bounding_box/Pad"
  op: "Pad"
  input: "data/resize_image_with_crop_or_pad/pad_to_bounding_box/control_dependency"
  input: "data/resize_image_with_crop_or_pad/pad_to_bounding_box/Reshape"
  attr {
    key: "T"
    value {
      type: DT_FLOAT
    }
  }
  attr {
    key: "Tpaddings"
    value {
      type: DT_INT32
    }
  }
}
node {
  name: "data/resize_image_with_crop_or_pad/control_dependency_1"
  op: "Identity"
  input: "data/resize_image_with_crop_or_pad/pad_to_bounding_box/Pad"
  attr {
    key: "T"
    value {
      type: DT_FLOAT
    }
  }
  attr {
    key: "_class"
    value {
      list {
        s: "loc:@data/resize_image_with_crop_or_pad/pad_to_bounding_box/Pad"
      }
    }
  }
}
node {
  name: "data/Squeeze"
  op: "Squeeze"
  input: "data/resize_image_with_crop_or_pad/control_dependency_1"
  attr {
    key: "T"
    value {
      type: DT_FLOAT
    }
  }
  attr {
    key: "squeeze_dims"
    value {
      list {
        i: 0
        i: 3
      }
    }
  }
}
node {
  name: "data/Mul_1"
  op: "Mul"
  input: "data/Squeeze"
  input: "data/foreground_volume"
  attr {
    key: "T"
    value {
      type: DT_FLOAT
    }
  }
}
node {
  name: "data/time_shift_padding"
  op: "Placeholder"
  attr {
    key: "dtype"
    value {
      type: DT_INT32
    }
  }
  attr {
    key: "shape"
    value {
      shape {
        dim {
          size: 2
        }
        dim {
          size: 2
        }
      }
    }
  }
}
node {
  name: "data/time_shift_offset"
  op: "Placeholder"
  attr {
    key: "dtype"
    value {
      type: DT_INT32
    }
  }
  attr {
    key: "shape"
    value {
      shape {
        dim {
          size: 2
        }
      }
    }
  }
}
node {
  name: "data/Pad"
  op: "Pad"
  input: "data/Mul_1"
  input: "data/time_shift_padding"
  attr {
    key: "T"
    value {
      type: DT_FLOAT
    }
  }
  attr {
    key: "Tpaddings"
    value {
      type: DT_INT32
    }
  }
}
node {
  name: "data/Slice/size"
  op: "Const"
  attr {
    key: "dtype"
    value {
      type: DT_INT32
    }
  }
  attr {
    key: "value"
    value {
      tensor {
        dtype: DT_INT32
        tensor_shape {
          dim {
            size: 2
          }
        }
        tensor_content: "\200>\000\000\377\377\377\377"
      }
    }
  }
}
node {
  name: "data/Slice"
  op: "Slice"
  input: "data/Pad"
  input: "data/time_shift_offset"
  input: "data/Slice/size"
  attr {
    key: "Index"
    value {
      type: DT_INT32
    }
  }
  attr {
    key: "T"
    value {
      type: DT_FLOAT
    }
  }
}
node {
  name: "data/background_data"
  op: "Placeholder"
  attr {
    key: "dtype"
    value {
      type: DT_FLOAT
    }
  }
  attr {
    key: "shape"
    value {
      shape {
        dim {
          size: 16000
        }
        dim {
          size: 1
        }
      }
    }
  }
}
node {
  name: "data/background_volume"
  op: "Placeholder"
  attr {
    key: "dtype"
    value {
      type: DT_FLOAT
    }
  }
  attr {
    key: "shape"
    value {
      shape {
      }
    }
  }
}
node {
  name: "data/Mul_2"
  op: "Mul"
  input: "data/background_data"
  input: "data/background_volume"
  attr {
    key: "T"
    value {
      type: DT_FLOAT
    }
  }
}
node {
  name: "data/Add"
  op: "AddV2"
  input: "data/Mul_2"
  input: "data/Slice"
  attr {
    key: "T"
    value {
      type: DT_FLOAT
    }
  }
}
node {
  name: "data/clip_by_value/Minimum/y"
  op: "Const"
  attr {
    key: "dtype"
    value {
      type: DT_FLOAT
    }
  }
  attr {
    key: "value"
    value {
      tensor {
        dtype: DT_FLOAT
        tensor_shape {
        }
        float_val: 1.0
      }
    }
  }
}
node {
  name: "data/clip_by_value/Minimum"
  op: "Minimum"
  input: "data/Add"
  input: "data/clip_by_value/Minimum/y"
  attr {
    key: "T"
    value {
      type: DT_FLOAT
    }
  }
}
node {
  name: "data/clip_by_value/y"
  op: "Const"
  attr {
    key: "dtype"
    value {
      type: DT_FLOAT
    }
  }
  attr {
    key: "value"
    value {
      tensor {
        dtype: DT_FLOAT
        tensor_shape {
        }
        float_val: -1.0
      }
    }
  }
}
node {
  name: "data/clip_by_value"
  op: "Maximum"
  input: "data/clip_by_value/Minimum"
  input: "data/clip_by_value/y"
  attr {
    key: "T"
    value {
      type: DT_FLOAT
    }
  }
}
node {
  name: "data/Squeeze_1"
  op: "Squeeze"
  input: "data/clip_by_value"
  attr {
    key: "T"
    value {
      type: DT_FLOAT
    }
  }
  attr {
    key: "squeeze_dims"
    value {
      list {
        i: 1
      }
    }
  }
}
node {
  name: "input_1"
  op: "Placeholder"
  attr {
    key: "dtype"
    value {
      type: DT_FLOAT
    }
  }
  attr {
    key: "shape"
    value {
      shape {
        dim {
          size: 100
        }
        dim {
          size: 16000
        }
      }
    }
  }
}
node {
  name: "speech_features/lambda_1/lambda_1/Identity"
  op: "Identity"
  input: "input_1"
  attr {
    key: "T"
    value {
      type: DT_FLOAT
    }
  }
}
node {
  name: "speech_features/lambda/lambda/Identity"
  op: "Identity"
  input: "speech_features/lambda_1/lambda_1/Identity"
  attr {
    key: "T"
    value {
      type: DT_FLOAT
    }
  }
}
node {
  name: "speech_features/lambda_3/lambda_3/Identity"
  op: "Identity"
  input: "speech_features/lambda/lambda/Identity"
  attr {
    key: "T"
    value {
      type: DT_FLOAT
    }
  }
}
node {
  name: "speech_features/transpose/perm"
  op: "Const"
  attr {
    key: "dtype"
    value {
      type: DT_INT32
    }
  }
  attr {
    key: "value"
    value {
      tensor {
        dtype: DT_INT32
        tensor_shape {
          dim {
            size: 2
          }
        }
        tensor_content: "\001\000\000\000\000\000\000\000"
      }
    }
  }
}
node {
  name: "speech_features/transpose"
  op: "Transpose"
  input: "speech_features/lambda_3/lambda_3/Identity"
  input: "speech_features/transpose/perm"
  attr {
    key: "T"
    value {
      type: DT_FLOAT
    }
  }
  attr {
    key: "Tperm"
    value {
      type: DT_INT32
    }
  }
}
node {
  name: "speech_features/AudioSpectrogram"
  op: "AudioSpectrogram"
  input: "speech_features/transpose"
  attr {
    key: "magnitude_squared"
    value {
      b: true
    }
  }
  attr {
    key: "stride"
    value {
      i: 320
    }
  }
  attr {
    key: "window_size"
    value {
      i: 640
    }
  }
}
node {
  name: "speech_features/Mfcc/sample_rate"
  op: "Const"
  attr {
    key: "dtype"
    value {
      type: DT_INT32
    }
  }
  attr {
    key: "value"
    value {
      tensor {
        dtype: DT_INT32
        tensor_shape {
        }
        int_val: 16000
      }
    }
  }
}
node {
  name: "speech_features/Mfcc"
  op: "Mfcc"
  input: "speech_features/AudioSpectrogram"
  input: "speech_features/Mfcc/sample_rate"
  attr {
    key: "dct_coefficient_count"
    value {
      i: 40
    }
  }
  attr {
    key: "filterbank_channel_count"
    value {
      i: 80
    }
  }
  attr {
    key: "lower_frequency_limit"
    value {
      f: 20.0
    }
  }
  attr {
    key: "upper_frequency_limit"
    value {
      f: 7600.0
    }
  }
}
node {
  name: "speech_features/normalizer/sub/y"
  op: "Const"
  attr {
    key: "dtype"
    value {
      type: DT_FLOAT
    }
  }
  attr {
    key: "value"
    value {
      tensor {
        dtype: DT_FLOAT
        tensor_shape {
          dim {
            size: 40
          }
        }
        tensor_content: "…"
      }
    }
  }
}
node {
  name: "speech_features/normalizer/sub"
  op: "Sub"
  input: "speech_features/Mfcc"
  input: "speech_features/normalizer/sub/y"
  attr {
    key: "T"
    value {
      type: DT_FLOAT
    }
  }
}
node {
  name: "speech_features/normalizer/truediv/y"
  op: "Const"
  attr {
    key: "dtype"
    value {
      type: DT_FLOAT
    }
  }
  attr {
    key: "value"
    value {
      tensor {
        dtype: DT_FLOAT
        tensor_shape {
          dim {
            size: 40
          }
        }
        tensor_content: "…"
      }
    }
  }
}
node {
  name: "speech_features/normalizer/truediv"
  op: "RealDiv"
  input: "speech_features/normalizer/sub"
  input: "speech_features/normalizer/truediv/y"
  attr {
    key: "T"
    value {
      type: DT_FLOAT
    }
  }
}
node {
  name: "svdf_0/ExpandDims/dim"
  op: "Const"
  attr {
    key: "dtype"
    value {
      type: DT_INT32
    }
  }
  attr {
    key: "value"
    value {
      tensor {
        dtype: DT_INT32
        tensor_shape {
        }
        int_val: 2
      }
    }
  }
}
node {
  name: "svdf_0/ExpandDims"
  op: "ExpandDims"
  input: "speech_features/normalizer/truediv"
  input: "svdf_0/ExpandDims/dim"
  attr {
    key: "T"
    value {
      type: DT_FLOAT
    }
  }
  attr {
    key: "Tdim"
    value {
      type: DT_INT32
    }
  }
}
node {
  name: "svdf_0/dense/kernel/Initializer/stateless_random_uniform/shape"
  op: "Const"
  attr {
    key: "_class"
    value {
      list {
        s: "loc:@svdf_0/dense/kernel"
      }
    }
  }
  attr {
    key: "dtype"
    value {
      type: DT_INT32
    }
  }
  attr {
    key: "value"
    value {
      tensor {
        dtype: DT_INT32
        tensor_shape {
          dim {
            size: 2
          }
        }
        tensor_content: "(\000\000\000\020\000\000\000"
      }
    }
  }
}
node {
  name: "svdf_0/dense/kernel/Initializer/stateless_random_uniform/min"
  op: "Const"
  attr {
    key: "_class"
    value {
      list {
        s: "loc:@svdf_0/dense/kernel"
      }
    }
  }
  attr {
    key: "dtype"
    value {
      type: DT_FLOAT
    }
  }
  attr {
    key: "value"
    value {
      tensor {
        dtype: DT_FLOAT
        tensor_shape {
        }
        float_val: -0.32732683420181274
      }
    }
  }
}
node {
  name: "svdf_0/dense/kernel/Initializer/stateless_random_uniform/max"
  op: "Const"
  attr {
    key: "_class"
    value {
      list {
        s: "loc:@svdf_0/dense/kernel"
      }
    }
  }
  attr {
    key: "dtype"
    value {
      type: DT_FLOAT
    }
  }
  attr {
    key: "value"
    value {
      tensor {
        dtype: DT_FLOAT
        tensor_shape {
        }
        float_val: 0.32732683420181274
      }
    }
  }
}
node {
  name: "svdf_0/dense/kernel/Initializer/stateless_random_uniform/StatelessRandomGetKeyCounter/seed"
  op: "Const"
  attr {
    key: "_class"
    value {
      list {
        s: "loc:@svdf_0/dense/kernel"
      }
    }
  }
  attr {
    key: "dtype"
    value {
      type: DT_INT32
    }
  }
  attr {
    key: "value"
    value {
      tensor {
        dtype: DT_INT32
        tensor_shape {
          dim {
            size: 2
          }
        }
        tensor_content: "\222\215\300\017\000\000\000\000"
      }
    }
  }
}
node {
  name: "svdf_0/dense/kernel/Initializer/stateless_random_uniform/StatelessRandomGetKeyCounter"
  op: "StatelessRandomGetKeyCounter"
  input: "svdf_0/dense/kernel/Initializer/stateless_random_uniform/StatelessRandomGetKeyCounter/seed"
  attr {
    key: "Tseed"
    value {
      type: DT_INT32
    }
  }
  attr {
    key: "_class"
    value {
      list {
        s: "loc:@svdf_0/dense/kernel"
      }
    }
  }
}
node {
  name: "svdf_0/dense/kernel/Initializer/stateless_random_uniform/StatelessRandomUniformV2/alg"
  op: "Const"
  attr {
    key: "_class"
    value {
      list {
        s: "loc:@svdf_0/dense/kernel"
      }
    }
  }
  attr {
    key: "dtype"
    value {
      type: DT_INT32
    }
  }
  attr {
    key: "value"
    value {
      tensor {
        dtype: DT_INT32
        tensor_shape {
        }
        int_val: 3
      }
    }
  }
}
node {
  name: "svdf_0/dense/kernel/Initializer/stateless_random_uniform/StatelessRandomUniformV2"
  op: "StatelessRandomUniformV2"
  input: "svdf_0/dense/kernel/Initializer/stateless_random_uniform/shape"
  input: "svdf_0/dense/kernel/Initializer/stateless_random_uniform/StatelessRandomGetKeyCounter"
  input: "svdf_0/dense/kernel/Initializer/stateless_random_uniform/StatelessRandomGetKeyCounter:1"
  input: "svdf_0/dense/kernel/Initializer/stateless_random_uniform/StatelessRandomUniformV2/alg"
  attr {
    key: "Tshape"
    value {
      type: DT_INT32
    }
  }
  attr {
    key: "_class"
    value {
      list {
        s: "loc:@svdf_0/dense/kernel"
      }
    }
  }
  attr {
    key: "dtype"
    value {
      type: DT_FLOAT
    }
  }
}
node {
  name: "svdf_0/dense/kernel/Initializer/stateless_random_uniform/sub"
  op: "Sub"
  input: "svdf_0/dense/kernel/Initializer/stateless_random_uniform/max"
  input: "svdf_0/dense/kernel/Initializer/stateless_random_uniform/min"
  attr {
    key: "T"
    value {
      type: DT_FLOAT
    }
  }
  attr {
    key: "_class"
    value {
      list {
        s: "loc:@svdf_0/dense/kernel"
      }
    }
  }
}
node {
  name: "svdf_0/dense/kernel/Initializer/stateless_random_uniform/mul"
  op: "Mul"
  input: "svdf_0/dense/kernel/Initializer/stateless_random_uniform/StatelessRandomUniformV2"
  input: "svdf_0/dense/kernel/Initializer/stateless_random_uniform/sub"
  attr {
    key: "T"
    value {
      type: DT_FLOAT
    }
  }
  attr {
    key: "_class"
    value {
      list {
        s: "loc:@svdf_0/dense/kernel"
      }
    }
  }
}
node {
  name: "svdf_0/dense/kernel/Initializer/stateless_random_uniform"
  op: "AddV2"
  input: "svdf_0/dense/kernel/Initializer/stateless_random_uniform/mul"
  input: "svdf_0/dense/kernel/Initializer/stateless_random_uniform/min"
  attr {
    key: "T"
    value {
      type: DT_FLOAT
    }
  }
  attr {
    key: "_class"
    value {
      list {
        s: "loc:@svdf_0/dense/kernel"
      }
    }
  }
}
node {
  name: "svdf_0/dense/kernel"
  op: "VarHandleOp"
  attr {
    key: "_class"
    value {
      list {
        s: "loc:@svdf_0/dense/kernel"
      }
    }
  }
  attr {
    key: "allowed_devices"
    value {
      list {
      }
    }
  }
  attr {
    key: "container"
    value {
      s: ""
    }
  }
  attr {
    key: "dtype"
    value {
      type: DT_FLOAT
    }
  }
  attr {
    key: "shape"
    value {
      shape {
        dim {
          size: 40
        }
        dim {
          size: 16
        }
      }
    }
  }
  attr {
    key: "shared_name"
    value {
      s: "svdf_0/dense/kernel"
    }
  }
}
node {
  name: "svdf_0/dense/kernel/IsInitialized/VarIsInitializedOp"
  op: "VarIsInitializedOp"
  input: "svdf_0/dense/kernel"
}
node {
  name: "svdf_0/dense/kernel/Assign"
  op: "AssignVariableOp"
  input: "svdf_0/dense/kernel"
  input: "svdf_0/dense/kernel/Initializer/stateless_random_uniform"
  attr {
    key: "dtype"
    value {
      type: DT_FLOAT
    }
  }
  attr {
    key: "validate_shape"
    value {
      b: false
    }
  }
}
node {
  name: "svdf_0/dense/kernel/Read/ReadVariableOp"
  op: "ReadVariableOp"
  input: "svdf_0/dense/kernel"
  attr {
    key: "dtype"
    value {
      type: DT_FLOAT
    }
  }
}
node {
  name: "svdf_0/dense/Tensordot/ReadVariableOp"
  op: "ReadVariableOp"
  input: "svdf_0/dense/kernel"
  attr {
    key: "dtype"
    value {
      type: DT_FLOAT
    }
  }
}
node {
  name: "svdf_0/dense/Tensordot/Reshape/shape"
  op: "Const"
  attr {
    key: "dtype"
    value {
      type: DT_INT32
    }
  }
  attr {
    key: "value"
    value {
      tensor {
        dtype: DT_INT32
        tensor_shape {
          dim {
            size: 2
          }
        }
        tensor_content: "$\023\000\000(\000\000\000"
      }
    }
  }
}
node {
  name: "svdf_0/dense/Tensordot/Reshape"
  op: "Reshape"
  input: "svdf_0/ExpandDims"
  input: "svdf_0/dense/Tensordot/Reshape/shape"
  attr {
    key: "T"
    value {
      type: DT_FLOAT
    }
  }
  attr {
    key: "Tshape"
    value {
      type: DT_INT32
    }
  }
}
node {
  name: "svdf_0/dense/Tensordot/MatMul"
  op: "MatMul"
  input: "svdf_0/dense/Tensordot/Reshape"
  input: "svdf_0/dense/Tensordot/ReadVariableOp"
  attr {
    key: "T"
    value {
      type: DT_FLOAT
    }
  }
  attr {
    key: "transpose_a"
    value {
      b: false
    }
  }
  attr {
    key: "transpose_b"
    value {
      b: false
    }
  }
}
node {
  name: "svdf_0/dense/Tensordot/shape"
  op: "Const"
  attr {
    key: "dtype"
    value {
      type: DT_INT32
    }
  }
  attr {
    key: "value"
    value {
      tensor {
        dtype: DT_INT32
        tensor_shape {
          dim {
            size: 4
          }
        }
        tensor_content: "d\000\000\0001\000\000\000\001\000\000\000\020\000\000\000"
      }
    }
  }
}
node {
  name: "svdf_0/dense/Tensordot"
  op: "Reshape"
  input: "svdf_0/dense/Tensordot/MatMul"
  input: "svdf_0/dense/Tensordot/shape"
  attr {
    key: "T"
    value {
      type: DT_FLOAT
    }
  }
  attr {
    key: "Tshape"
    value {
      type: DT_INT32
    }
  }
}
node {
  name: "svdf_0/stream/depthwise_kernel/Initializer/stateless_random_uniform/shape"
  op: "Const"
  attr {
    key: "_class"
    value {
      list {
        s: "loc:@svdf_0/stream/depthwise_kernel"
      }
    }
  }
  attr {
    key: "dtype"
    value {
      type: DT_INT32
    }
  }
  attr {
    key: "value"
    value {
      tensor {
        dtype: DT_INT32
        tensor_shape {
          dim {
            size: 4
          }
        }
        tensor_content: "\004\000\000\000\001\000\000\000\020\000\000\000\001\000\000\000"
      }
    }
  }
}
node {
  name: "svdf_0/stream/depthwise_kernel/Initializer/stateless_random_uniform/min"
  op: "Const"
  attr {
    key: "_class"
    value {
      list {
        s: "loc:@svdf_0/stream/depthwise_kernel"
      }
    }
  }
  attr {
    key: "dtype"
    value {
      type: DT_FLOAT
    }
  }
  attr {
    key: "value"
    value {
      tensor {
        dtype: DT_FLOAT
        tensor_shape {
        }
        float_val: -0.2970442771911621
      }
    }
  }
}
node {
  name: "svdf_0/stream/depthwise_kernel/Initializer/stateless_random_uniform/max"
  op: "Const"
  attr {
    key: "_class"
    value {
      list {
        s: "loc:@svdf_0/stream/depthwise_kernel"
      }
    }
  }
  attr {
    key: "dtype"
    value {
      type: DT_FLOAT
    }
  }
  attr {
    key: "value"
    value {
      tensor {
        dtype: DT_FLOAT
        tensor_shape {
        }
        float_val: 0.2970442771911621
      }
    }
  }
}
node {
  name: "svdf_0/stream/depthwise_kernel/Initializer/stateless_random_uniform/StatelessRandomGetKeyCounter/seed"
  op: "Const"
  attr {
    key: "_class"
    value {
      list {
        s: "loc:@svdf_0/stream/depthwise_kernel"
      }
    }
  }
  attr {
    key: "dtype"
    value {
      type: DT_INT32
    }
  }
  attr {
    key: "value"
    value {
      tensor {
        dtype: DT_INT32
        tensor_shape {
          dim {
            size: 2
          }
        }
        tensor_content: "\365ds\022\000\000\000\000"
      }
    }
  }
}
node {
  name: "svdf_0/stream/depthwise_kernel/Initializer/stateless_random_uniform/StatelessRandomGetKeyCounter"
  op: "StatelessRandomGetKeyCounter"
  input: "svdf_0/stream/depthwise_kernel/Initializer/stateless_random_uniform/StatelessRandomGetKeyCounter/seed"
  attr {
    key: "Tseed"
    value {
      type: DT_INT32
    }
  }
  attr {
    key: "_class"
    value {
      list {
        s: "loc:@svdf_0/stream/depthwise_kernel"
      }
    }
  }
}
node {
  name: "svdf_0/stream/depthwise_kernel/Initializer/stateless_random_uniform/StatelessRandomUniformV2/alg"
  op: "Const"
  attr {
    key: "_class"
    value {
      list {
        s: "loc:@svdf_0/stream/depthwise_kernel"
      }
    }
  }
  attr {
    key: "dtype"
    value {
      type: DT_INT32
    }
  }
  attr {
    key: "value"
    value {
      tensor {
        dtype: DT_INT32
        tensor_shape {
        }
        int_val: 3
      }
    }
  }
}
node {
  name: "svdf_0/stream/depthwise_kernel/Initializer/stateless_random_uniform/StatelessRandomUniformV2"
  op: "StatelessRandomUniformV2"
  input: "svdf_0/stream/depthwise_kernel/Initializer/stateless_random_uniform/shape"
  input: "svdf_0/stream/depthwise_kernel/Initializer/stateless_random_uniform/StatelessRandomGetKeyCounter"
  input: "svdf_0/stream/depthwise_kernel/Initializer/stateless_random_uniform/StatelessRandomGetKeyCounter:1"
  input: "svdf_0/stream/depthwise_kernel/Initializer/stateless_random_uniform/StatelessRandomUniformV2/alg"
  attr {
    key: "Tshape"
    value {
      type: DT_INT32
    }
  }
  attr {
    key: "_class"
    value {
      list {
        s: "loc:@svdf_0/stream/depthwise_kernel"
      }
    }
  }
  attr {
    key: "dtype"
    value {
      type: DT_FLOAT
    }
  }
}
node {
  name: "svdf_0/stream/depthwise_kernel/Initializer/stateless_random_uniform/sub"
  op: "Sub"
  input: "svdf_0/stream/depthwise_kernel/Initializer/stateless_random_uniform/max"
  input: "svdf_0/stream/depthwise_kernel/Initializer/stateless_random_uniform/min"
  attr {
    key: "T"
    value {
      type: DT_FLOAT
    }
  }
  attr {
    key: "_class"
    value {
      list {
        s: "loc:@svdf_0/stream/depthwise_kernel"
      }
    }
  }
}
node {
  name: "svdf_0/stream/depthwise_kernel/Initializer/stateless_random_uniform/mul"
  op: "Mul"
  input: "svdf_0/stream/depthwise_kernel/Initializer/stateless_random_uniform/StatelessRandomUniformV2"
  input: "svdf_0/stream/depthwise_kernel/Initializer/stateless_random_uniform/sub"
  attr {
    key: "T"
    value {
      type: DT_FLOAT
    }
  }
  attr {
    key: "_class"
    value {
      list {
        s: "loc:@svdf_0/stream/depthwise_kernel"
      }
    }
  }
}
node {
  name: "svdf_0/stream/depthwise_kernel/Initializer/stateless_random_uniform"
  op: "AddV2"
  input: "svdf_0/stream/depthwise_kernel/Initializer/stateless_random_uniform/mul"
  input: "svdf_0/stream/depthwise_kernel/Initializer/stateless_random_uniform/min"
  attr {
    key: "T"
    value {
      type: DT_FLOAT
    }
  }
  attr {
    key: "_class"
    value {
      list {
        s: "loc:@svdf_0/stream/depthwise_kernel"
      }
    }
  }
}
node {
  name: "svdf_0/stream/depthwise_kernel"
  op: "VarHandleOp"
  attr {
    key: "_class"
    value {
      list {
        s: "loc:@svdf_0/stream/depthwise_kernel"
      }
    }
  }
  attr {
    key: "allowed_devices"
    value {
      list {
      }
    }
  }
  attr {
    key: "container"
    value {
      s: ""
    }
  }
  attr {
    key: "dtype"
    value {
      type: DT_FLOAT
    }
  }
  attr {
    key: "shape"
    value {
      shape {
        dim {
          size: 4
        }
        dim {
          size: 1
        }
        dim {
          size: 16
        }
        dim {
          size: 1
        }
      }
    }
  }
  attr {
    key: "shared_name"
    value {
      s: "svdf_0/stream/depthwise_kernel"
    }
  }
}
node {
  name: "svdf_0/stream/depthwise_kernel/IsInitialized/VarIsInitializedOp"
  op: "VarIsInitializedOp"
  input: "svdf_0/stream/depthwise_kernel"
}
node {
  name: "svdf_0/stream/depthwise_kernel/Assign"
  op: "AssignVariableOp"
  input: "svdf_0/stream/depthwise_kernel"
  input: "svdf_0/stream/depthwise_kernel/Initializer/stateless_random_uniform"
  attr {
    key: "dtype"
    value {
      type: DT_FLOAT
    }
  }
  attr {
    key: "validate_shape"
    value {
      b: false
    }
  }
}
node {
  name: "svdf_0/stream/depthwise_kernel/Read/ReadVariableOp"
  op: "ReadVariableOp"
  input: "svdf_0/stream/depthwise_kernel"
  attr {
    key: "dtype"
    value {
      type: DT_FLOAT
    }
  }
}
node {
  name: "svdf_0/stream/bias/Initializer/zeros"
  op: "Const"
  attr {
    key: "_class"
    value {
      list {
        s: "loc:@svdf_0/stream/bias"
      }
    }
  }
  attr {
    key: "dtype"
    value {
      type: DT_FLOAT
    }
  }
  attr {
    key: "value"
    value {
      tensor {
        dtype: DT_FLOAT
        tensor_shape {
          dim {
            size: 16
          }
        }
        float_val: 0.0
      }
    }
  }
}
node {
  name: "svdf_0/stream/bias"
  op: "VarHandleOp"
  attr {
    key: "_class"
    value {
      list {
        s: "loc:@svdf_0/stream/bias"
      }
    }
  }
  attr {
    key: "allowed_devices"
    value {
      list {
      }
    }
  }
  attr {
    key: "container"
    value {
      s: ""
    }
  }
  attr {
    key: "dtype"
    value {
      type: DT_FLOAT
    }
  }
  attr {
    key: "shape"
    value {
      shape {
        dim {
          size: 16
        }
      }
    }
  }
  attr {
    key: "shared_name"
    value {
      s: "svdf_0/stream/bias"
    }
  }
}
node {
  name: "svdf_0/stream/bias/IsInitialized/VarIsInitializedOp"
  op: "VarIsInitializedOp"
  input: "svdf_0/stream/bias"
}
node {
  name: "svdf_0/stream/bias/Assign"
  op: "AssignVariableOp"
  input: "svdf_0/stream/bias"
  input: "svdf_0/stream/bias/Initializer/zeros"
  attr {
    key: "dtype"
    value {
      type: DT_FLOAT
    }
  }
  attr {
    key: "validate_shape"
    value {
      b: false
    }
  }
}
node {
  name: "svdf_0/stream/bias/Read/ReadVariableOp"
  op: "ReadVariableOp"
  input: "svdf_0/stream/bias"
  attr {
    key: "dtype"
    value {
      type: DT_FLOAT
    }
  }
}
node {
  name: "svdf_0/stream/Pad/paddings"
  op: "Const"
  attr {
    key: "dtype"
    value {
      type: DT_INT32
    }
  }
  attr {
    key: "value"
    value {
      tensor {
        dtype: DT_INT32
        tensor_shape {
          dim {
            size: 4
          }
          dim {
            size: 2
          }
        }
        tensor_content: "…"
      }
    }
  }
}
node {
  name: "svdf_0/stream/Pad"
  op: "Pad"
  input: "svdf_0/dense/Tensordot"
  input: "svdf_0/stream/Pad/paddings"
  attr {
    key: "T"
    value {
      type: DT_FLOAT
    }
  }
  attr {
    key: "Tpaddings"
    value {
      type: DT_INT32
    }
  }
}
node {
  name: "svdf_0/stream/depthwise_conv2d/depthwise/ReadVariableOp"
  op: "ReadVariableOp"
  input: "svdf_0/stream/depthwise_kernel"
  attr {
    key: "dtype"
    value {
      type: DT_FLOAT
    }
  }
}
node {
  name: "svdf_0/stream/depthwise_conv2d/depthwise/Shape"
  op: "Const"
  attr {
    key: "dtype"
    value {
      type: DT_INT32
    }
  }
  attr {
    key: "value"
    value {
      tensor {
        dtype: DT_INT32
        tensor_shape {
          dim {
            size: 4
          }
        }
        tensor_content: "\004\000\000\000\001\000\000\000\020\000\000\000\001\000\000\000"
      }
    }
  }
}
node {
  name: "svdf_0/stream/depthwise_conv2d/depthwise/dilation_rate"
  op: "Const"
  attr {
    key: "dtype"
    value {
      type: DT_INT32
    }
  }
  attr {
    key: "value"
    value {
      tensor {
        dtype: DT_INT32
        tensor_shape {
          dim {
            size: 2
          }
        }
        tensor_content: "\001\000\000\000\001\000\000\000"
      }
    }
  }
}
node {
  name: "svdf_0/stream/depthwise_conv2d/depthwise"
  op: "DepthwiseConv2dNative"
  input: "svdf_0/stream/Pad"
  input: "svdf_0/stream/depthwise_conv2d/depthwise/ReadVariableOp"
  attr {
    key: "T"
    value {
      type: DT_FLOAT
    }
  }
  attr {
    key: "data_format"
    value {
      s: "NHWC"
    }
  }
  attr {
    key: "dilations"
    value {
      list {
        i: 1
        i: 1
        i: 1
        i: 1
      }
    }
  }
  attr {
    key: "explicit_paddings"
    value {
      list {
      }
    }
  }
  attr {
    key: "padding"
    value {
      s: "VALID"
    }
  }
  attr {
    key: "strides"
    value {
      list {
        i: 1
        i: 1
        i: 1
        i: 1
      }
    }
  }
}
node {
  name: "svdf_0/stream/depthwise_conv2d/BiasAdd/ReadVariableOp"
  op: "ReadVariableOp"
  input: "svdf_0/stream/bias"
  attr {
    key: "dtype"
    value {
      type: DT_FLOAT
    }
  }
}
node {
  name: "svdf_0/stream/depthwise_conv2d/BiasAdd"
  op: "BiasAdd"
  input: "svdf_0/stream/depthwise_conv2d/depthwise"
  input: "svdf_0/stream/depthwise_conv2d/BiasAdd/ReadVariableOp"
  attr {
    key: "T"
    value {
      type: DT_FLOAT
    }
  }
  attr {
    key: "data_format"
    value {
      s: "NHWC"
    }
  }
}
node {
  name: "svdf_0/Relu"
  op: "Relu"
  input: "svdf_0/stream/depthwise_conv2d/BiasAdd"
  attr {
    key: "T"
    value {
      type: DT_FLOAT
    }
  }
}
node {
  name: "svdf_0/dense_1/kernel/Initializer/stateless_random_uniform/shape"
  op: "Const"
  attr {
    key: "_class"
    value {
      list {
        s: "loc:@svdf_0/dense_1/kernel"
      }
    }
  }
  attr {
    key: "dtype"
    value {
      type: DT_INT32
    }
  }
  attr {
    key: "value"
    value {
      tensor {
        dtype: DT_INT32
        tensor_shape {
          dim {
            size: 2
          }
        }
        tensor_content: "\020\000\000\000(\000\000\000"
      }
    }
  }
}
node {
  name: "svdf_0/dense_1/kernel/Initializer/stateless_random_uniform/min"
  op: "Const"
  attr {
    key: "_class"
    value {
      list {
        s: "loc:@svdf_0/dense_1/kernel"
      }
    }
  }
  attr {
    key: "dtype"
    value {
      type: DT_FLOAT
    }
  }
  attr {
    key: "value"
    value {
      tensor {
        dtype: DT_FLOAT
        tensor_shape {
        }
        float_val: -0.32732683420181274
      }
    }
  }
}
node {
  name: "svdf_0/dense_1/kernel/Initializer/stateless_random_uniform/max"
  op: "Const"
  attr {
    key: "_class"
    value {
      list {
        s: "loc:@svdf_0/dense_1/kernel"
      }
    }
  }
  attr {
    key: "dtype"
    value {
      type: DT_FLOAT
    }
  }
  attr {
    key: "value"
    value {
      tensor {
        dtype: DT_FLOAT
        tensor_shape {
        }
        float_val: 0.32732683420181274
      }
    }
  }
}
node {
  name: "svdf_0/dense_1/kernel/Initializer/stateless_random_uniform/StatelessRandomGetKeyCounter/seed"
  op: "Const"
  attr {
    key: "_class"
    value {
      list {
        s: "loc:@svdf_0/dense_1/kernel"
      }
    }
  }
  attr {
    key: "dtype"
    value {
      type: DT_INT32
    }
  }
  attr {
    key: "value"
    value {
      tensor {
        dtype: DT_INT32
        tensor_shape {
          dim {
            size: 2
          }
        }
        tensor_content: "\344\325\363\010\000\000\000\000"
      }
    }
  }
}
node {
  name: "svdf_0/dense_1/kernel/Initializer/stateless_random_uniform/StatelessRandomGetKeyCounter"
  op: "StatelessRandomGetKeyCounter"
  input: "svdf_0/dense_1/kernel/Initializer/stateless_random_uniform/StatelessRandomGetKeyCounter/seed"
  attr {
    key: "Tseed"
    value {
      type: DT_INT32
    }
  }
  attr {
    key: "_class"
    value {
      list {
        s: "loc:@svdf_0/dense_1/kernel"
      }
    }
  }
}
node {
  name: "svdf_0/dense_1/kernel/Initializer/stateless_random_uniform/StatelessRandomUniformV2/alg"
  op: "Const"
  attr {
    key: "_class"
    value {
      list {
        s: "loc:@svdf_0/dense_1/kernel"
      }
    }
  }
  attr {
    key: "dtype"
    value {
      type: DT_INT32
    }
  }
  attr {
    key: "value"
    value {
      tensor {
        dtype: DT_INT32
        tensor_shape {
        }
        int_val: 3
      }
    }
  }
}
node {
  name: "svdf_0/dense_1/kernel/Initializer/stateless_random_uniform/StatelessRandomUniformV2"
  op: "StatelessRandomUniformV2"
  input: "svdf_0/dense_1/kernel/Initializer/stateless_random_uniform/shape"
  input: "svdf_0/dense_1/kernel/Initializer/stateless_random_uniform/StatelessRandomGetKeyCounter"
  input: "svdf_0/dense_1/kernel/Initializer/stateless_random_uniform/StatelessRandomGetKeyCounter:1"
  input: "svdf_0/dense_1/kernel/Initializer/stateless_random_uniform/StatelessRandomUniformV2/alg"
  attr {
    key: "Tshape"
    value {
      type: DT_INT32
    }
  }
  attr {
    key: "_class"
    value {
      list {
        s: "loc:@svdf_0/dense_1/kernel"
      }
    }
  }
  attr {
    key: "dtype"
    value {
      type: DT_FLOAT
    }
  }
}
node {
  name: "svdf_0/dense_1/kernel/Initializer/stateless_random_uniform/sub"
  op: "Sub"
  input: "svdf_0/dense_1/kernel/Initializer/stateless_random_uniform/max"
  input: "svdf_0/dense_1/kernel/Initializer/stateless_random_uniform/min"
  attr {
    key: "T"
    value {
      type: DT_FLOAT
    }
  }
  attr {
    key: "_class"
    value {
      list {
        s: "loc:@svdf_0/dense_1/kernel"
      }
    }
  }
}
node {
  name: "svdf_0/dense_1/kernel/Initializer/stateless_random_uniform/mul"
  op: "Mul"
  input: "svdf_0/dense_1/kernel/Initializer/stateless_random_uniform/StatelessRandomUniformV2"
  input: "svdf_0/dense_1/kernel/Initializer/stateless_random_uniform/sub"
  attr {
    key: "T"
    value {
      type: DT_FLOAT
    }
  }
  attr {
    key: "_class"
    value {
      list {
        s: "loc:@svdf_0/dense_1/kernel"
      }
    }
  }
}
node {
  name: "svdf_0/dense_1/kernel/Initializer/stateless_random_uniform"
  op: "AddV2"
  input: "svdf_0/dense_1/kernel/Initializer/stateless_random_uniform/mul"
  input: "svdf_0/dense_1/kernel/Initializer/stateless_random_uniform/min"
  attr {
    key: "T"
    value {
      type: DT_FLOAT
    }
  }
  attr {
    key: "_class"
    value {
      list {
        s: "loc:@svdf_0/dense_1/kernel"
      }
    }
  }
}
node {
  name: "svdf_0/dense_1/kernel"
  op: "VarHandleOp"
  attr {
    key: "_class"
    value {
      list {
        s: "loc:@svdf_0/dense_1/kernel"
      }
    }
  }
  attr {
    key: "allowed_devices"
    value {
      list {
      }
    }
  }
  attr {
    key: "container"
    value {
      s: ""
    }
  }
  attr {
    key: "dtype"
    value {
      type: DT_FLOAT
    }
  }
  attr {
    key: "shape"
    value {
      shape {
        dim {
          size: 16
        }
        dim {
          size: 40
        }
      }
    }
  }
  attr {
    key: "shared_name"
    value {
      s: "svdf_0/dense_1/kernel"
    }
  }
}
node {
  name: "svdf_0/dense_1/kernel/IsInitialized/VarIsInitializedOp"
  op: "VarIsInitializedOp"
  input: "svdf_0/dense_1/kernel"
}
node {
  name: "svdf_0/dense_1/kernel/Assign"
  op: "AssignVariableOp"
  input: "svdf_0/dense_1/kernel"
  input: "svdf_0/dense_1/kernel/Initializer/stateless_random_uniform"
  attr {
    key: "dtype"
    value {
      type: DT_FLOAT
    }
  }
  attr {
    key: "validate_shape"
    value {
      b: false
    }
  }
}
node {
  name: "svdf_0/dense_1/kernel/Read/ReadVariableOp"
  op: "ReadVariableOp"
  input: "svdf_0/dense_1/kernel"
  attr {
    key: "dtype"
    value {
      type: DT_FLOAT
    }
  }
}
node {
  name: "svdf_0/dense_1/bias/Initializer/zeros"
  op: "Const"
  attr {
    key: "_class"
    value {
      list {
        s: "loc:@svdf_0/dense_1/bias"
      }
    }
  }
  attr {
    key: "dtype"
    value {
      type: DT_FLOAT
    }
  }
  attr {
    key: "value"
    value {
      tensor {
        dtype: DT_FLOAT
        tensor_shape {
          dim {
            size: 40
          }
        }
        float_val: 0.0
      }
    }
  }
}
node {
  name: "svdf_0/dense_1/bias"
  op: "VarHandleOp"
  attr {
    key: "_class"
    value {
      list {
        s: "loc:@svdf_0/dense_1/bias"
      }
    }
  }
  attr {
    key: "allowed_devices"
    value {
      list {
      }
    }
  }
  attr {
    key: "container"
    value {
      s: ""
    }
  }
  attr {
    key: "dtype"
    value {
      type: DT_FLOAT
    }
  }
  attr {
    key: "shape"
    value {
      shape {
        dim {
          size: 40
        }
      }
    }
  }
  attr {
    key: "shared_name"
    value {
      s: "svdf_0/dense_1/bias"
    }
  }
}
node {
  name: "svdf_0/dense_1/bias/IsInitialized/VarIsInitializedOp"
  op: "VarIsInitializedOp"
  input: "svdf_0/dense_1/bias"
}
node {
  name: "svdf_0/dense_1/bias/Assign"
  op: "AssignVariableOp"
  input: "svdf_0/dense_1/bias"
  input: "svdf_0/dense_1/bias/Initializer/zeros"
  attr {
    key: "dtype"
    value {
      type: DT_FLOAT
    }
  }
  attr {
    key: "validate_shape"
    value {
      b: false
    }
  }
}
node {
  name: "svdf_0/dense_1/bias/Read/ReadVariableOp"
  op: "ReadVariableOp"
  input: "svdf_0/dense_1/bias"
  attr {
    key: "dtype"
    value {
      type: DT_FLOAT
    }
  }
}
node {
  name: "svdf_0/dense_1/Tensordot/ReadVariableOp"
  op: "ReadVariableOp"
  input: "svdf_0/dense_1/kernel"
  attr {
    key: "dtype"
    value {
      type: DT_FLOAT
    }
  }
}
node {
  name: "svdf_0/dense_1/Tensordot/Reshape/shape"
  op: "Const"
  attr {
    key: "dtype"
    value {
      type: DT_INT32
    }
  }
  attr {
    key: "value"
    value {
      tensor {
        dtype: DT_INT32
        tensor_shape {
          dim {
            size: 2
          }
        }
        tensor_content: "\370\021\000\000\020\000\000\000"
      }
    }
  }
}
node {
  name: "svdf_0/dense_1/Tensordot/Reshape"
  op: "Reshape"
  input: "svdf_0/Relu"
  input: "svdf_0/dense_1/Tensordot/Reshape/shape"
  attr {
    key: "T"
    value {
      type: DT_FLOAT
    }
  }
  attr {
    key: "Tshape"
    value {
      type: DT_INT32
    }
  }
}
node {
  name: "svdf_0/dense_1/Tensordot/MatMul"
  op: "MatMul"
  input: "svdf_0/dense_1/Tensordot/Reshape"
  input: "svdf_0/dense_1/Tensordot/ReadVariableOp"
  attr {
    key: "T"
    value {
      type: DT_FLOAT
    }
  }
  attr {
    key: "transpose_a"
    value {
      b: false
    }
  }
  attr {
    key: "transpose_b"
    value {
      b: false
    }
  }
}
node {
  name: "svdf_0/dense_1/Tensordot/shape"
  op: "Const"
  attr {
    key: "dtype"
    value {
      type: DT_INT32
    }
  }
  attr {
    key: "value"
    value {
      tensor {
        dtype: DT_INT32
        tensor_shape {
          dim {
            size: 4
          }
        }
        tensor_content: "d\000\000\000.\000\000\000\001\000\000\000(\000\000\000"
      }
    }
  }
}
node {
  name: "svdf_0/dense_1/Tensordot"
  op: "Reshape"
  input: "svdf_0/dense_1/Tensordot/MatMul"
  input: "svdf_0/dense_1/Tensordot/shape"
  attr {
    key: "T"
    value {
      type: DT_FLOAT
    }
  }
  attr {
    key: "Tshape"
    value {
      type: DT_INT32
    }
  }
}
node {
  name: "svdf_0/dense_1/BiasAdd/ReadVariableOp"
  op: "ReadVariableOp"
  input: "svdf_0/dense_1/bias"
  attr {
    key: "dtype"
    value {
      type: DT_FLOAT
    }
  }
}
node {
  name: "svdf_0/dense_1/BiasAdd"
  op: "BiasAdd"
  input: "svdf_0/dense_1/Tensordot"
  input: "svdf_0/dense_1/BiasAdd/ReadVariableOp"
  attr {
    key: "T"
    value {
      type: DT_FLOAT
    }
  }
  attr {
    key: "data_format"
    value {
      s: "NHWC"
    }
  }
}
node {
  name: "svdf_0/Squeeze"
  op: "Squeeze"
  input: "svdf_0/dense_1/BiasAdd"
  attr {
    key: "T"
    value {
      type: DT_FLOAT
    }
  }
  attr {
    key: "squeeze_dims"
    value {
      list {
        i: 2
      }
    }
  }
}
node {
  name: "svdf_1/ExpandDims/dim"
  op: "Const"
  attr {
    key: "dtype"
    value {
      type: DT_INT32
    }
  }
  attr {
    key: "value"
    value {
      tensor {
        dtype: DT_INT32
        tensor_shape {
        }
        int_val: 2
      }
    }
  }
}
node {
  name: "svdf_1/ExpandDims"
  op: "ExpandDims"
  input: "svdf_0/Squeeze"
  input: "svdf_1/ExpandDims/dim"
  attr {
    key: "T"
    value {
      type: DT_FLOAT
    }
  }
  attr {
    key: "Tdim"
    value {
      type: DT_INT32
    }
  }
}
node {
  name: "svdf_1/dense_2/kernel/Initializer/stateless_random_uniform/shape"
  op: "Const"
  attr {
    key: "_class"
    value {
      list {
        s: "loc:@svdf_1/dense_2/kernel"
      }
    }
  }
  attr {
    key: "dtype"
    value {
      type: DT_INT32
    }
  }
  attr {
    key: "value"
    value {
      tensor {
        dtype: DT_INT32
        tensor_shape {
          dim {
            size: 2
          }
        }
        tensor_content: "(\000\000\000 \000\000\000"
      }
    }
  }
}
node {
  name: "svdf_1/dense_2/kernel/Initializer/stateless_random_uniform/min"
  op: "Const"
  attr {
    key: "_class"
    value {
      list {
        s: "loc:@svdf_1/dense_2/kernel"
      }
    }
  }
  attr {
    key: "dtype"
    value {
      type: DT_FLOAT
    }
  }
  attr {
    key: "value"
    value {
      tensor {
        dtype: DT_FLOAT
        tensor_shape {
        }
        float_val: -0.28867512941360474
      }
    }
  }
}
node {
  name: "svdf_1/dense_2/kernel/Initializer/stateless_random_uniform/max"
  op: "Const"
  attr {
    key: "_class"
    value {
      list {
        s: "loc:@svdf_1/dense_2/kernel"
      }
    }
  }
  attr {
    key: "dtype"
    value {
      type: DT_FLOAT
    }
  }
  attr {
    key: "value"
    value {
      tensor {
        dtype: DT_FLOAT
        tensor_shape {
        }
        float_val: 0.28867512941360474
      }
    }
  }
}
node {
  name: "svdf_1/dense_2/kernel/Initializer/stateless_random_uniform/StatelessRandomGetKeyCounter/seed"
  op: "Const"
  attr {
    key: "_class"
    value {
      list {
        s: "loc:@svdf_1/dense_2/kernel"
      }
    }
  }
  attr {
    key: "dtype"
    value {
      type: DT_INT32
    }
  }
  attr {
    key: "value"
    value {
      tensor {
        dtype: DT_INT32
        tensor_shape {
          dim {
            size: 2
          }
        }
        tensor_content: "h\316\014\037\000\000\000\000"
      }
    }
  }
}
node {
  name: "svdf_1/dense_2/kernel/Initializer/stateless_random_uniform/StatelessRandomGetKeyCounter"
  op: "StatelessRandomGetKeyCounter"
  input: "svdf_1/dense_2/kernel/Initializer/stateless_random_uniform/StatelessRandomGetKeyCounter/seed"
  attr {
    key: "Tseed"
    value {
      type: DT_INT32
    }
  }
  attr {
    key: "_class"
    value {
      list {
        s: "loc:@svdf_1/dense_2/kernel"
      }
    }
  }
}
node {
  name: "svdf_1/dense_2/kernel/Initializer/stateless_random_uniform/StatelessRandomUniformV2/alg"
  op: "Const"
  attr {
    key: "_class"
    value {
      list {
        s: "loc:@svdf_1/dense_2/kernel"
      }
    }
  }
  attr {
    key: "dtype"
    value {
      type: DT_INT32
    }
  }
  attr {
    key: "value"
    value {
      tensor {
        dtype: DT_INT32
        tensor_shape {
        }
        int_val: 3
      }
    }
  }
}
node {
  name: "svdf_1/dense_2/kernel/Initializer/stateless_random_uniform/StatelessRandomUniformV2"
  op: "StatelessRandomUniformV2"
  input: "svdf_1/dense_2/kernel/Initializer/stateless_random_uniform/shape"
  input: "svdf_1/dense_2/kernel/Initializer/stateless_random_uniform/StatelessRandomGetKeyCounter"
  input: "svdf_1/dense_2/kernel/Initializer/stateless_random_uniform/StatelessRandomGetKeyCounter:1"
  input: "svdf_1/dense_2/kernel/Initializer/stateless_random_uniform/StatelessRandomUniformV2/alg"
  attr {
    key: "Tshape"
    value {
      type: DT_INT32
    }
  }
  attr {
    key: "_class"
    value {
      list {
        s: "loc:@svdf_1/dense_2/kernel"
      }
    }
  }
  attr {
    key: "dtype"
    value {
      type: DT_FLOAT
    }
  }
}
node {
  name: "svdf_1/dense_2/kernel/Initializer/stateless_random_uniform/sub"
  op: "Sub"
  input: "svdf_1/dense_2/kernel/Initializer/stateless_random_uniform/max"
  input: "svdf_1/dense_2/kernel/Initializer/stateless_random_uniform/min"
  attr {
    key: "T"
    value {
      type: DT_FLOAT
    }
  }
  attr {
    key: "_class"
    value {
      list {
        s: "loc:@svdf_1/dense_2/kernel"
      }
    }
  }
}
node {
  name: "svdf_1/dense_2/kernel/Initializer/stateless_random_uniform/mul"
  op: "Mul"
  input: "svdf_1/dense_2/kernel/Initializer/stateless_random_uniform/StatelessRandomUniformV2"
  input: "svdf_1/dense_2/kernel/Initializer/stateless_random_uniform/sub"
  attr {
    key: "T"
    value {
      type: DT_FLOAT
    }
  }
  attr {
    key: "_class"
    value {
      list {
        s: "loc:@svdf_1/dense_2/kernel"
      }
    }
  }
}
node {
  name: "svdf_1/dense_2/kernel/Initializer/stateless_random_uniform"
  op: "AddV2"
  input: "svdf_1/dense_2/kernel/Initializer/stateless_random_uniform/mul"
  input: "svdf_1/dense_2/kernel/Initializer/stateless_random_uniform/min"
  attr {
    key: "T"
    value {
      type: DT_FLOAT
    }
  }
  attr {
    key: "_class"
    value {
      list {
        s: "loc:@svdf_1/dense_2/kernel"
      }
    }
  }
}
node {
  name: "svdf_1/dense_2/kernel"
  op: "VarHandleOp"
  attr {
    key: "_class"
    value {
      list {
        s: "loc:@svdf_1/dense_2/kernel"
      }
    }
  }
  attr {
    key: "allowed_devices"
    value {
      list {
      }
    }
  }
  attr {
    key: "container"
    value {
      s: ""
    }
  }
  attr {
    key: "dtype"
    value {
      type: DT_FLOAT
    }
  }
  attr {
    key: "shape"
    value {
      shape {
        dim {
          size: 40
        }
        dim {
          size: 32
        }
      }
    }
  }
  attr {
    key: "shared_name"
    value {
      s: "svdf_1/dense_2/kernel"
    }
  }
}
node {
  name: "svdf_1/dense_2/kernel/IsInitialized/VarIsInitializedOp"
  op: "VarIsInitializedOp"
  input: "svdf_1/dense_2/kernel"
}
node {
  name: "svdf_1/dense_2/kernel/Assign"
  op: "AssignVariableOp"
  input: "svdf_1/dense_2/kernel"
  input: "svdf_1/dense_2/kernel/Initializer/stateless_random_uniform"
  attr {
    key: "dtype"
    value {
      type: DT_FLOAT
    }
  }
  attr {
    key: "validate_shape"
    value {
      b: false
    }
  }
}
node {
  name: "svdf_1/dense_2/kernel/Read/ReadVariableOp"
  op: "ReadVariableOp"
  input: "svdf_1/dense_2/kernel"
  attr {
    key: "dtype"
    value {
      type: DT_FLOAT
    }
  }
}
node {
  name: "svdf_1/dense_2/Tensordot/ReadVariableOp"
  op: "ReadVariableOp"
  input: "svdf_1/dense_2/kernel"
  attr {
    key: "dtype"
    value {
      type: DT_FLOAT
    }
  }
}
node {
  name: "svdf_1/dense_2/Tensordot/Reshape/shape"
  op: "Const"
  attr {
    key: "dtype"
    value {
      type: DT_INT32
    }
  }
  attr {
    key: "value"
    value {
      tensor {
        dtype: DT_INT32
        tensor_shape {
          dim {
            size: 2
          }
        }
        tensor_content: "\370\021\000\000(\000\000\000"
      }
    }
  }
}
node {
  name: "svdf_1/dense_2/Tensordot/Reshape"
  op: "Reshape"
  input: "svdf_1/ExpandDims"
  input: "svdf_1/dense_2/Tensordot/Reshape/shape"
  attr {
    key: "T"
    value {
      type: DT_FLOAT
    }
  }
  attr {
    key: "Tshape"
    value {
      type: DT_INT32
    }
  }
}
node {
  name: "svdf_1/dense_2/Tensordot/MatMul"
  op: "MatMul"
  input: "svdf_1/dense_2/Tensordot/Reshape"
  input: "svdf_1/dense_2/Tensordot/ReadVariableOp"
  attr {
    key: "T"
    value {
      type: DT_FLOAT
    }
  }
  attr {
    key: "transpose_a"
    value {
      b: false
    }
  }
  attr {
    key: "transpose_b"
    value {
      b: false
    }
  }
}
node {
  name: "svdf_1/dense_2/Tensordot/shape"
  op: "Const"
  attr {
    key: "dtype"
    value {
      type: DT_INT32
    }
  }
  attr {
    key: "value"
    value {
      tensor {
        dtype: DT_INT32
        tensor_shape {
          dim {
            size: 4
          }
        }
        tensor_content: "d\000\000\000.\000\000\000\001\000\000\000 \000\000\000"
      }
    }
  }
}
node {
  name: "svdf_1/dense_2/Tensordot"
  op: "Reshape"
  input: "svdf_1/dense_2/Tensordot/MatMul"
  input: "svdf_1/dense_2/Tensordot/shape"
  attr {
    key: "T"
    value {
      type: DT_FLOAT
    }
  }
  attr {
    key: "Tshape"
    value {
      type: DT_INT32
    }
  }
}
node {
  name: "svdf_1/stream_1/depthwise_kernel/Initializer/stateless_random_uniform/shape"
  op: "Const"
  attr {
    key: "_class"
    value {
      list {
        s: "loc:@svdf_1/stream_1/depthwise_kernel"
      }
    }
  }
  attr {
    key: "dtype"
    value {
      type: DT_INT32
    }
  }
  attr {
    key: "value"
    value {
      tensor {
        dtype: DT_INT32
        tensor_shape {
          dim {
            size: 4
          }
        }
        tensor_content: "\n\000\000\000\001\000\000\000 \000\000\000\001\000\000\000"
      }
    }
  }
}
node {
  name: "svdf_1/stream_1/depthwise_kernel/Initializer/stateless_random_uniform/min"
  op: "Const"
  attr {
    key: "_class"
    value {
      list {
        s: "loc:@svdf_1/stream_1/depthwise_kernel"
      }
    }
  }
  attr {
    key: "dtype"
    value {
      type: DT_FLOAT
    }
  }
  attr {
    key: "value"
    value {
      tensor {
        dtype: DT_FLOAT
        tensor_shape {
        }
        float_val: -0.1348399668931961
      }
    }
  }
}
node {
  name: "svdf_1/stream_1/depthwise_kernel/Initializer/stateless_random_uniform/max"
  op: "Const"
  attr {
    key: "_class"
    value {
      list {
        s: "loc:@svdf_1/stream_1/depthwise_kernel"
      }
    }
  }
  attr {
    key: "dtype"
    value {
      type: DT_FLOAT
    }
  }
  attr {
    key: "value"
    value {
      tensor {
        dtype: DT_FLOAT
        tensor_shape {
        }
        float_val: 0.1348399668931961
      }
    }
  }
}
node {
  name: "svdf_1/stream_1/depthwise_kernel/Initializer/stateless_random_uniform/StatelessRandomGetKeyCounter/seed"
  op: "Const"
  attr {
    key: "_class"
    value {
      list {
        s: "loc:@svdf_1/stream_1/depthwise_kernel"
      }
    }
  }
  attr {
    key: "dtype"
    value {
      type: DT_INT32
    }
  }
  attr {
    key: "value"
    value {
      tensor {
        dtype: DT_INT32
        tensor_shape {
          dim {
            size: 2
          }
        }
        tensor_content: "7\211\207\033\000\000\000\000"
      }
    }
  }
}
node {
  name: "svdf_1/stream_1/depthwise_kernel/Initializer/stateless_random_uniform/StatelessRandomGetKeyCounter"
  op: "StatelessRandomGetKeyCounter"
  input: "svdf_1/stream_1/depthwise_kernel/Initializer/stateless_random_uniform/StatelessRandomGetKeyCounter/seed"
  attr {
    key: "Tseed"
    value {
      type: DT_INT32
    }
  }
  attr {
    key: "_class"
    value {
      list {
        s: "loc:@svdf_1/stream_1/depthwise_kernel"
      }
    }
  }
}
node {
  name: "svdf_1/stream_1/depthwise_kernel/Initializer/stateless_random_uniform/StatelessRandomUniformV2/alg"
  op: "Const"
  attr {
    key: "_class"
    value {
      list {
        s: "loc:@svdf_1/stream_1/depthwise_kernel"
      }
    }
  }
  attr {
    key: "dtype"
    value {
      type: DT_INT32
    }
  }
  attr {
    key: "value"
    value {
      tensor {
        dtype: DT_INT32
        tensor_shape {
        }
        int_val: 3
      }
    }
  }
}
node {
  name: "svdf_1/stream_1/depthwise_kernel/Initializer/stateless_random_uniform/StatelessRandomUniformV2"
  op: "StatelessRandomUniformV2"
  input: "svdf_1/stream_1/depthwise_kernel/Initializer/stateless_random_uniform/shape"
  input: "svdf_1/stream_1/depthwise_kernel/Initializer/stateless_random_uniform/StatelessRandomGetKeyCounter"
  input: "svdf_1/stream_1/depthwise_kernel/Initializer/stateless_random_uniform/StatelessRandomGetKeyCounter:1"
  input: "svdf_1/stream_1/depthwise_kernel/Initializer/stateless_random_uniform/StatelessRandomUniformV2/alg"
  attr {
    key: "Tshape"
    value {
      type: DT_INT32
    }
  }
  attr {
    key: "_class"
    value {
      list {
        s: "loc:@svdf_1/stream_1/depthwise_kernel"
      }
    }
  }
  attr {
    key: "dtype"
    value {
      type: DT_FLOAT
    }
  }
}
node {
  name: "svdf_1/stream_1/depthwise_kernel/Initializer/stateless_random_uniform/sub"
  op: "Sub"
  input: "svdf_1/stream_1/depthwise_kernel/Initializer/stateless_random_uniform/max"
  input: "svdf_1/stream_1/depthwise_kernel/Initializer/stateless_random_uniform/min"
  attr {
    key: "T"
    value {
      type: DT_FLOAT
    }
  }
  attr {
    key: "_class"
    value {
      list {
        s: "loc:@svdf_1/stream_1/depthwise_kernel"
      }
    }
  }
}
node {
  name: "svdf_1/stream_1/depthwise_kernel/Initializer/stateless_random_uniform/mul"
  op: "Mul"
  input: "svdf_1/stream_1/depthwise_kernel/Initializer/stateless_random_uniform/StatelessRandomUniformV2"
  input: "svdf_1/stream_1/depthwise_kernel/Initializer/stateless_random_uniform/sub"
  attr {
    key: "T"
    value {
      type: DT_FLOAT
    }
  }
  attr {
    key: "_class"
    value {
      list {
        s: "loc:@svdf_1/stream_1/depthwise_kernel"
      }
    }
  }
}
node {
  name: "svdf_1/stream_1/depthwise_kernel/Initializer/stateless_random_uniform"
  op: "AddV2"
  input: "svdf_1/stream_1/depthwise_kernel/Initializer/stateless_random_uniform/mul"
  input: "svdf_1/stream_1/depthwise_kernel/Initializer/stateless_random_uniform/min"
  attr {
    key: "T"
    value {
      type: DT_FLOAT
    }
  }
  attr {
    key: "_class"
    value {
      list {
        s: "loc:@svdf_1/stream_1/depthwise_kernel"
      }
    }
  }
}
node {
  name: "svdf_1/stream_1/depthwise_kernel"
  op: "VarHandleOp"
  attr {
    key: "_class"
    value {
      list {
        s: "loc:@svdf_1/stream_1/depthwise_kernel"
      }
    }
  }
  attr {
    key: "allowed_devices"
    value {
      list {
      }
    }
  }
  attr {
    key: "container"
    value {
      s: ""
    }
  }
  attr {
    key: "dtype"
    value {
      type: DT_FLOAT
    }
  }
  attr {
    key: "shape"
    value {
      shape {
        dim {
          size: 10
        }
        dim {
          size: 1
        }
        dim {
          size: 32
        }
        dim {
          size: 1
        }
      }
    }
  }
  attr {
    key: "shared_name"
    value {
      s: "svdf_1/stream_1/depthwise_kernel"
    }
  }
}
node {
  name: "svdf_1/stream_1/depthwise_kernel/IsInitialized/VarIsInitializedOp"
  op: "VarIsInitializedOp"
  input: "svdf_1/stream_1/depthwise_kernel"
}
node {
  name: "svdf_1/stream_1/depthwise_kernel/Assign"
  op: "AssignVariableOp"
  input: "svdf_1/stream_1/depthwise_kernel"
  input: "svdf_1/stream_1/depthwise_kernel/Initializer/stateless_random_uniform"
  attr {
    key: "dtype"
    value {
      type: DT_FLOAT
    }
  }
  attr {
    key: "validate_shape"
    value {
      b: false
    }
  }
}
node {
  name: "svdf_1/stream_1/depthwise_kernel/Read/ReadVariableOp"
  op: "ReadVariableOp"
  input: "svdf_1/stream_1/depthwise_kernel"
  attr {
    key: "dtype"
    value {
      type: DT_FLOAT
    }
  }
}
node {
  name: "svdf_1/stream_1/bias/Initializer/zeros"
  op: "Const"
  attr {
    key: "_class"
    value {
      list {
        s: "loc:@svdf_1/stream_1/bias"
      }
    }
  }
  attr {
    key: "dtype"
    value {
      type: DT_FLOAT
    }
  }
  attr {
    key: "value"
    value {
      tensor {
        dtype: DT_FLOAT
        tensor_shape {
          dim {
            size: 32
          }
        }
        float_val: 0.0
      }
    }
  }
}
node {
  name: "svdf_1/stream_1/bias"
  op: "VarHandleOp"
  attr {
    key: "_class"
    value {
      list {
        s: "loc:@svdf_1/stream_1/bias"
      }
    }
  }
  attr {
    key: "allowed_devices"
    value {
      list {
      }
    }
  }
  attr {
    key: "container"
    value {
      s: ""
    }
  }
  attr {
    key: "dtype"
    value {
      type: DT_FLOAT
    }
  }
  attr {
    key: "shape"
    value {
      shape {
        dim {
          size: 32
        }
      }
    }
  }
  attr {
    key: "shared_name"
    value {
      s: "svdf_1/stream_1/bias"
    }
  }
}
node {
  name: "svdf_1/stream_1/bias/IsInitialized/VarIsInitializedOp"
  op: "VarIsInitializedOp"
  input: "svdf_1/stream_1/bias"
}
node {
  name: "svdf_1/stream_1/bias/Assign"
  op: "AssignVariableOp"
  input: "svdf_1/stream_1/bias"
  input: "svdf_1/stream_1/bias/Initializer/zeros"
  attr {
    key: "dtype"
    value {
      type: DT_FLOAT
    }
  }
  attr {
    key: "validate_shape"
    value {
      b: false
    }
  }
}
node {
  name: "svdf_1/stream_1/bias/Read/ReadVariableOp"
  op: "ReadVariableOp"
  input: "svdf_1/stream_1/bias"
  attr {
    key: "dtype"
    value {
      type: DT_FLOAT
    }
  }
}
node {
  name: "svdf_1/stream_1/Pad/paddings"
  op: "Const"
  attr {
    key: "dtype"
    value {
      type: DT_INT32
    }
  }
  attr {
    key: "value"
    value {
      tensor {
        dtype: DT_INT32
        tensor_shape {
          dim {
            size: 4
          }
          dim {
            size: 2
          }
        }
        tensor_content: "…"
      }
    }
  }
}
node {
  name: "svdf_1/stream_1/Pad"
  op: "Pad"
  input: "svdf_1/dense_2/Tensordot"
  input: "svdf_1/stream_1/Pad/paddings"
  attr {
    key: "T"
    value {
      type: DT_FLOAT
    }
  }
  attr {
    key: "Tpaddings"
    value {
      type: DT_INT32
    }
  }
}
node {
  name: "svdf_1/stream_1/depthwise_conv2d_1/depthwise/ReadVariableOp"
  op: "ReadVariableOp"
  input: "svdf_1/stream_1/depthwise_kernel"
  attr {
    key: "dtype"
    value {
      type: DT_FLOAT
    }
  }
}
node {
  name: "svdf_1/stream_1/depthwise_conv2d_1/depthwise/Shape"
  op: "Const"
  attr {
    key: "dtype"
    value {
      type: DT_INT32
    }
  }
  attr {
    key: "value"
    value {
      tensor {
        dtype: DT_INT32
        tensor_shape {
          dim {
            size: 4
          }
        }
        tensor_content: "\n\000\000\000\001\000\000\000 \000\000\000\001\000\000\000"
      }
    }
  }
}
node {
  name: "svdf_1/stream_1/depthwise_conv2d_1/depthwise/dilation_rate"
  op: "Const"
  attr {
    key: "dtype"
    value {
      type: DT_INT32
    }
  }
  attr {
    key: "value"
    value {
      tensor {
        dtype: DT_INT32
        tensor_shape {
          dim {
            size: 2
          }
        }
        tensor_content: "\001\000\000\000\001\000\000\000"
      }
    }
  }
}
node {
  name: "svdf_1/stream_1/depthwise_conv2d_1/depthwise"
  op: "DepthwiseConv2dNative"
  input: "svdf_1/stream_1/Pad"
  input: "svdf_1/stream_1/depthwise_conv2d_1/depthwise/ReadVariableOp"
  attr {
    key: "T"
    value {
      type: DT_FLOAT
    }
  }
  attr {
    key: "data_format"
    value {
      s: "NHWC"
    }
  }
  attr {
    key: "dilations"
    value {
      list {
        i: 1
        i: 1
        i: 1
        i: 1
      }
    }
  }
  attr {
    key: "explicit_paddings"
    value {
      list {
      }
    }
  }
  attr {
    key: "padding"
    value {
      s: "VALID"
    }
  }
  attr {
    key: "strides"
    value {
      list {
        i: 1
        i: 1
        i: 1
        i: 1
      }
    }
  }
}
node {
  name: "svdf_1/stream_1/depthwise_conv2d_1/BiasAdd/ReadVariableOp"
  op: "ReadVariableOp"
  input: "svdf_1/stream_1/bias"
  attr {
    key: "dtype"
    value {
      type: DT_FLOAT
    }
  }
}
node {
  name: "svdf_1/stream_1/depthwise_conv2d_1/BiasAdd"
  op: "BiasAdd"
  input: "svdf_1/stream_1/depthwise_conv2d_1/depthwise"
  input: "svdf_1/stream_1/depthwise_conv2d_1/BiasAdd/ReadVariableOp"
  attr {
    key: "T"
    value {
      type: DT_FLOAT
    }
  }
  attr {
    key: "data_format"
    value {
      s: "NHWC"
    }
  }
}
node {
  name: "svdf_1/Relu"
  op: "Relu"
  input: "svdf_1/stream_1/depthwise_conv2d_1/BiasAdd"
  attr {
    key: "T"
    value {
      type: DT_FLOAT
    }
  }
}
node {
  name: "svdf_1/dense_3/kernel/Initializer/stateless_random_uniform/shape"
  op: "Const"
  attr {
    key: "_class"
    value {
      list {
        s: "loc:@svdf_1/dense_3/kernel"
      }
    }
  }
  attr {
    key: "dtype"
    value {
      type: DT_INT32
    }
  }
  attr {
    key: "value"
    value {
      tensor {
        dtype: DT_INT32
        tensor_shape {
          dim {
            size: 2
          }
        }
        tensor_content: " \000\000\000(\000\000\000"
      }
    }
  }
}
node {
  name: "svdf_1/dense_3/kernel/Initializer/stateless_random_uniform/min"
  op: "Const"
  attr {
    key: "_class"
    value {
      list {
        s: "loc:@svdf_1/dense_3/kernel"
      }
    }
  }
  attr {
    key: "dtype"
    value {
      type: DT_FLOAT
    }
  }
  attr {
    key: "value"
    value {
      tensor {
        dtype: DT_FLOAT
        tensor_shape {
        }
        float_val: -0.28867512941360474
      }
    }
  }
}
node {
  name: "svdf_1/dense_3/kernel/Initializer/stateless_random_uniform/max"
  op: "Const"
  attr {
    key: "_class"
    value {
      list {
        s: "loc:@svdf_1/dense_3/kernel"
      }
    }
  }
  attr {
    key: "dtype"
    value {
      type: DT_FLOAT
    }
  }
  attr {
    key: "value"
    value {
      tensor {
        dtype: DT_FLOAT
        tensor_shape {
        }
        float_val: 0.28867512941360474
      }
    }
  }
}
node {
  name: "svdf_1/dense_3/kernel/Initializer/stateless_random_uniform/StatelessRandomGetKeyCounter/seed"
  op: "Const"
  attr {
    key: "_class"
    value {
      list {
        s: "loc:@svdf_1/dense_3/kernel"
      }
    }
  }
  attr {
    key: "dtype"
    value {
      type: DT_INT32
    }
  }
  attr {
    key: "value"
    value {
      tensor {
        dtype: DT_INT32
        tensor_shape {
          dim {
            size: 2
          }
        }
        tensor_content: "iG\202#\000\000\000\000"
      }
    }
  }
}
node {
  name: "svdf_1/dense_3/kernel/Initializer/stateless_random_uniform/StatelessRandomGetKeyCounter"
  op: "StatelessRandomGetKeyCounter"
  input: "svdf_1/dense_3/kernel/Initializer/stateless_random_uniform/StatelessRandomGetKeyCounter/seed"
  attr {
    key: "Tseed"
    value {
      type: DT_INT32
    }
  }
  attr {
    key: "_class"
    value {
      list {
        s: "loc:@svdf_1/dense_3/kernel"
      }
    }
  }
}
node {
  name: "svdf_1/dense_3/kernel/Initializer/stateless_random_uniform/StatelessRandomUniformV2/alg"
  op: "Const"
  attr {
    key: "_class"
    value {
      list {
        s: "loc:@svdf_1/dense_3/kernel"
      }
    }
  }
  attr {
    key: "dtype"
    value {
      type: DT_INT32
    }
  }
  attr {
    key: "value"
    value {
      tensor {
        dtype: DT_INT32
        tensor_shape {
        }
        int_val: 3
      }
    }
  }
}
node {
  name: "svdf_1/dense_3/kernel/Initializer/stateless_random_uniform/StatelessRandomUniformV2"
  op: "StatelessRandomUniformV2"
  input: "svdf_1/dense_3/kernel/Initializer/stateless_random_uniform/shape"
  input: "svdf_1/dense_3/kernel/Initializer/stateless_random_uniform/StatelessRandomGetKeyCounter"
  input: "svdf_1/dense_3/kernel/Initializer/stateless_random_uniform/StatelessRandomGetKeyCounter:1"
  input: "svdf_1/dense_3/kernel/Initializer/stateless_random_uniform/StatelessRandomUniformV2/alg"
  attr {
    key: "Tshape"
    value {
      type: DT_INT32
    }
  }
  attr {
    key: "_class"
    value {
      list {
        s: "loc:@svdf_1/dense_3/kernel"
      }
    }
  }
  attr {
    key: "dtype"
    value {
      type: DT_FLOAT
    }
  }
}
node {
  name: "svdf_1/dense_3/kernel/Initializer/stateless_random_uniform/sub"
  op: "Sub"
  input: "svdf_1/dense_3/kernel/Initializer/stateless_random_uniform/max"
  input: "svdf_1/dense_3/kernel/Initializer/stateless_random_uniform/min"
  attr {
    key: "T"
    value {
      type: DT_FLOAT
    }
  }
  attr {
    key: "_class"
    value {
      list {
        s: "loc:@svdf_1/dense_3/kernel"
      }
    }
  }
}
node {
  name: "svdf_1/dense_3/kernel/Initializer/stateless_random_uniform/mul"
  op: "Mul"
  input: "svdf_1/dense_3/kernel/Initializer/stateless_random_uniform/StatelessRandomUniformV2"
  input: "svdf_1/dense_3/kernel/Initializer/stateless_random_uniform/sub"
  attr {
    key: "T"
    value {
      type: DT_FLOAT
    }
  }
  attr {
    key: "_class"
    value {
      list {
        s: "loc:@svdf_1/dense_3/kernel"
      }
    }
  }
}
node {
  name: "svdf_1/dense_3/kernel/Initializer/stateless_random_uniform"
  op: "AddV2"
  input: "svdf_1/dense_3/kernel/Initializer/stateless_random_uniform/mul"
  input: "svdf_1/dense_3/kernel/Initializer/stateless_random_uniform/min"
  attr {
    key: "T"
    value {
      type: DT_FLOAT
    }
  }
  attr {
    key: "_class"
    value {
      list {
        s: "loc:@svdf_1/dense_3/kernel"
      }
    }
  }
}
node {
  name: "svdf_1/dense_3/kernel"
  op: "VarHandleOp"
  attr {
    key: "_class"
    value {
      list {
        s: "loc:@svdf_1/dense_3/kernel"
      }
    }
  }
  attr {
    key: "allowed_devices"
    value {
      list {
      }
    }
  }
  attr {
    key: "container"
    value {
      s: ""
    }
  }
  attr {
    key: "dtype"
    value {
      type: DT_FLOAT
    }
  }
  attr {
    key: "shape"
    value {
      shape {
        dim {
          size: 32
        }
        dim {
          size: 40
        }
      }
    }
  }
  attr {
    key: "shared_name"
    value {
      s: "svdf_1/dense_3/kernel"
    }
  }
}
node {
  name: "svdf_1/dense_3/kernel/IsInitialized/VarIsInitializedOp"
  op: "VarIsInitializedOp"
  input: "svdf_1/dense_3/kernel"
}
node {
  name: "svdf_1/dense_3/kernel/Assign"
  op: "AssignVariableOp"
  input: "svdf_1/dense_3/kernel"
  input: "svdf_1/dense_3/kernel/Initializer/stateless_random_uniform"
  attr {
    key: "dtype"
    value {
      type: DT_FLOAT
    }
  }
  attr {
    key: "validate_shape"
    value {
      b: false
    }
  }
}
node {
  name: "svdf_1/dense_3/kernel/Read/ReadVariableOp"
  op: "ReadVariableOp"
  input: "svdf_1/dense_3/kernel"
  attr {
    key: "dtype"
    value {
      type: DT_FLOAT
    }
  }
}
node {
  name: "svdf_1/dense_3/bias/Initializer/zeros"
  op: "Const"
  attr {
    key: "_class"
    value {
      list {
        s: "loc:@svdf_1/dense_3/bias"
      }
    }
  }
  attr {
    key: "dtype"
    value {
      type: DT_FLOAT
    }
  }
  attr {
    key: "value"
    value {
      tensor {
        dtype: DT_FLOAT
        tensor_shape {
          dim {
            size: 40
          }
        }
        float_val: 0.0
      }
    }
  }
}
node {
  name: "svdf_1/dense_3/bias"
  op: "VarHandleOp"
  attr {
    key: "_class"
    value {
      list {
        s: "loc:@svdf_1/dense_3/bias"
      }
    }
  }
  attr {
    key: "allowed_devices"
    value {
      list {
      }
    }
  }
  attr {
    key: "container"
    value {
      s: ""
    }
  }
  attr {
    key: "dtype"
    value {
      type: DT_FLOAT
    }
  }
  attr {
    key: "shape"
    value {
      shape {
        dim {
          size: 40
        }
      }
    }
  }
  attr {
    key: "shared_name"
    value {
      s: "svdf_1/dense_3/bias"
    }
  }
}
node {
  name: "svdf_1/dense_3/bias/IsInitialized/VarIsInitializedOp"
  op: "VarIsInitializedOp"
  input: "svdf_1/dense_3/bias"
}
node {
  name: "svdf_1/dense_3/bias/Assign"
  op: "AssignVariableOp"
  input: "svdf_1/dense_3/bias"
  input: "svdf_1/dense_3/bias/Initializer/zeros"
  attr {
    key: "dtype"
    value {
      type: DT_FLOAT
    }
  }
  attr {
    key: "validate_shape"
    value {
      b: false
    }
  }
}
node {
  name: "svdf_1/dense_3/bias/Read/ReadVariableOp"
  op: "ReadVariableOp"
  input: "svdf_1/dense_3/bias"
  attr {
    key: "dtype"
    value {
      type: DT_FLOAT
    }
  }
}
node {
  name: "svdf_1/dense_3/Tensordot/ReadVariableOp"
  op: "ReadVariableOp"
  input: "svdf_1/dense_3/kernel"
  attr {
    key: "dtype"
    value {
      type: DT_FLOAT
    }
  }
}
node {
  name: "svdf_1/dense_3/Tensordot/Reshape/shape"
  op: "Const"
  attr {
    key: "dtype"
    value {
      type: DT_INT32
    }
  }
  attr {
    key: "value"
    value {
      tensor {
        dtype: DT_INT32
        tensor_shape {
          dim {
            size: 2
          }
        }
        tensor_content: "t\016\000\000 \000\000\000"
      }
    }
  }
}
node {
  name: "svdf_1/dense_3/Tensordot/Reshape"
  op: "Reshape"
  input: "svdf_1/Relu"
  input: "svdf_1/dense_3/Tensordot/Reshape/shape"
  attr {
    key: "T"
    value {
      type: DT_FLOAT
    }
  }
  attr {
    key: "Tshape"
    value {
      type: DT_INT32
    }
  }
}
node {
  name: "svdf_1/dense_3/Tensordot/MatMul"
  op: "MatMul"
  input: "svdf_1/dense_3/Tensordot/Reshape"
  input: "svdf_1/dense_3/Tensordot/ReadVariableOp"
  attr {
    key: "T"
    value {
      type: DT_FLOAT
    }
  }
  attr {
    key: "transpose_a"
    value {
      b: false
    }
  }
  attr {
    key: "transpose_b"
    value {
      b: false
    }
  }
}
node {
  name: "svdf_1/dense_3/Tensordot/shape"
  op: "Const"
  attr {
    key: "dtype"
    value {
      type: DT_INT32
    }
  }
  attr {
    key: "value"
    value {
      tensor {
        dtype: DT_INT32
        tensor_shape {
          dim {
            size: 4
          }
        }
        tensor_content: "d\000\000\000%\000\000\000\001\000\000\000(\000\000\000"
      }
    }
  }
}
node {
  name: "svdf_1/dense_3/Tensordot"
  op: "Reshape"
  input: "svdf_1/dense_3/Tensordot/MatMul"
  input: "svdf_1/dense_3/Tensordot/shape"
  attr {
    key: "T"
    value {
      type: DT_FLOAT
    }
  }
  attr {
    key: "Tshape"
    value {
      type: DT_INT32
    }
  }
}
node {
  name: "svdf_1/dense_3/BiasAdd/ReadVariableOp"
  op: "ReadVariableOp"
  input: "svdf_1/dense_3/bias"
  attr {
    key: "dtype"
    value {
      type: DT_FLOAT
    }
  }
}
node {
  name: "svdf_1/dense_3/BiasAdd"
  op: "BiasAdd"
  input: "svdf_1/dense_3/Tensordot"
  input: "svdf_1/dense_3/BiasAdd/ReadVariableOp"
  attr {
    key: "T"
    value {
      type: DT_FLOAT
    }
  }
  attr {
    key: "data_format"
    value {
      s: "NHWC"
    }
  }
}
node {
  name: "svdf_1/Squeeze"
  op: "Squeeze"
  input: "svdf_1/dense_3/BiasAdd"
  attr {
    key: "T"
    value {
      type: DT_FLOAT
    }
  }
  attr {
    key: "squeeze_dims"
    value {
      list {
        i: 2
      }
    }
  }
}
node {
  name: "svdf_2/ExpandDims/dim"
  op: "Const"
  attr {
    key: "dtype"
    value {
      type: DT_INT32
    }
  }
  attr {
    key: "value"
    value {
      tensor {
        dtype: DT_INT32
        tensor_shape {
        }
        int_val: 2
      }
    }
  }
}
node {
  name: "svdf_2/ExpandDims"
  op: "ExpandDims"
  input: "svdf_1/Squeeze"
  input: "svdf_2/ExpandDims/dim"
  attr {
    key: "T"
    value {
      type: DT_FLOAT
    }
  }
  attr {
    key: "Tdim"
    value {
      type: DT_INT32
    }
  }
}
node {
  name: "svdf_2/dense_4/kernel/Initializer/stateless_random_uniform/shape"
  op: "Const"
  attr {
    key: "_class"
    value {
      list {
        s: "loc:@svdf_2/dense_4/kernel"
      }
    }
  }
  attr {
    key: "dtype"
    value {
      type: DT_INT32
    }
  }
  attr {
    key: "value"
    value {
      tensor {
        dtype: DT_INT32
        tensor_shape {
          dim {
            size: 2
          }
        }
        tensor_content: "(\000\000\000 \000\000\000"
      }
    }
  }
}
node {
  name: "svdf_2/dense_4/kernel/Initializer/stateless_random_uniform/min"
  op: "Const"
  attr {
    key: "_class"
    value {
      list {
        s: "loc:@svdf_2/dense_4/kernel"
      }
    }
  }
  attr {
    key: "dtype"
    value {
      type: DT_FLOAT
    }
  }
  attr {
    key: "value"
    value {
      tensor {
        dtype: DT_FLOAT
        tensor_shape {
        }
        float_val: -0.28867512941360474
      }
    }
  }
}
node {
  name: "svdf_2/dense_4/kernel/Initializer/stateless_random_uniform/max"
  op: "Const"
  attr {
    key: "_class"
    value {
      list {
        s: "loc:@svdf_2/dense_4/kernel"
      }
    }
  }
  attr {
    key: "dtype"
    value {
      type: DT_FLOAT
    }
  }
  attr {
    key: "value"
    value {
      tensor {
        dtype: DT_FLOAT
        tensor_shape {
        }
        float_val: 0.28867512941360474
      }
    }
  }
}
node {
  name: "svdf_2/dense_4/kernel/Initializer/stateless_random_uniform/StatelessRandomGetKeyCounter/seed"
  op: "Const"
  attr {
    key: "_class"
    value {
      list {
        s: "loc:@svdf_2/dense_4/kernel"
      }
    }
  }
  attr {
    key: "dtype"
    value {
      type: DT_INT32
    }
  }
  attr {
    key: "value"
    value {
      tensor {
        dtype: DT_INT32
        tensor_shape {
          dim {
            size: 2
          }
        }
        tensor_content: "\364\005\006\000\000\000\000\000"
      }
    }
  }
}
node {
  name: "svdf_2/dense_4/kernel/Initializer/stateless_random_uniform/StatelessRandomGetKeyCounter"
  op: "StatelessRandomGetKeyCounter"
  input: "svdf_2/dense_4/kernel/Initializer/stateless_random_uniform/StatelessRandomGetKeyCounter/seed"
  attr {
    key: "Tseed"
    value {
      type: DT_INT32
    }
  }
  attr {
    key: "_class"
    value {
      list {
        s: "loc:@svdf_2/dense_4/kernel"
      }
    }
  }
}
node {
  name: "svdf_2/dense_4/kernel/Initializer/stateless_random_uniform/StatelessRandomUniformV2/alg"
  op: "Const"
  attr {
    key: "_class"
    value {
      list {
        s: "loc:@svdf_2/dense_4/kernel"
      }
    }
  }
  attr {
    key: "dtype"
    value {
      type: DT_INT32
    }
  }
  attr {
    key: "value"
    value {
      tensor {
        dtype: DT_INT32
        tensor_shape {
        }
        int_val: 3
      }
    }
  }
}
node {
  name: "svdf_2/dense_4/kernel/Initializer/stateless_random_uniform/StatelessRandomUniformV2"
  op: "StatelessRandomUniformV2"
  input: "svdf_2/dense_4/kernel/Initializer/stateless_random_uniform/shape"
  input: "svdf_2/dense_4/kernel/Initializer/stateless_random_uniform/StatelessRandomGetKeyCounter"
  input: "svdf_2/dense_4/kernel/Initializer/stateless_random_uniform/StatelessRandomGetKeyCounter:1"
  input: "svdf_2/dense_4/kernel/Initializer/stateless_random_uniform/StatelessRandomUniformV2/alg"
  attr {
    key: "Tshape"
    value {
      type: DT_INT32
    }
  }
  attr {
    key: "_class"
    value {
      list {
        s: "loc:@svdf_2/dense_4/kernel"
      }
    }
  }
  attr {
    key: "dtype"
    value {
      type: DT_FLOAT
    }
  }
}
node {
  name: "svdf_2/dense_4/kernel/Initializer/stateless_random_uniform/sub"
  op: "Sub"
  input: "svdf_2/dense_4/kernel/Initializer/stateless_random_uniform/max"
  input: "svdf_2/dense_4/kernel/Initializer/stateless_random_uniform/min"
  attr {
    key: "T"
    value {
      type: DT_FLOAT
    }
  }
  attr {
    key: "_class"
    value {
      list {
        s: "loc:@svdf_2/dense_4/kernel"
      }
    }
  }
}
node {
  name: "svdf_2/dense_4/kernel/Initializer/stateless_random_uniform/mul"
  op: "Mul"
  input: "svdf_2/dense_4/kernel/Initializer/stateless_random_uniform/StatelessRandomUniformV2"
  input: "svdf_2/dense_4/kernel/Initializer/stateless_random_uniform/sub"
  attr {
    key: "T"
    value {
      type: DT_FLOAT
    }
  }
  attr {
    key: "_class"
    value {
      list {
        s: "loc:@svdf_2/dense_4/kernel"
      }
    }
  }
}
node {
  name: "svdf_2/dense_4/kernel/Initializer/stateless_random_uniform"
  op: "AddV2"
  input: "svdf_2/dense_4/kernel/Initializer/stateless_random_uniform/mul"
  input: "svdf_2/dense_4/kernel/Initializer/stateless_random_uniform/min"
  attr {
    key: "T"
    value {
      type: DT_FLOAT
    }
  }
  attr {
    key: "_class"
    value {
      list {
        s: "loc:@svdf_2/dense_4/kernel"
      }
    }
  }
}
node {
  name: "svdf_2/dense_4/kernel"
  op: "VarHandleOp"
  attr {
    key: "_class"
    value {
      list {
        s: "loc:@svdf_2/dense_4/kernel"
      }
    }
  }
  attr {
    key: "allowed_devices"
    value {
      list {
      }
    }
  }
  attr {
    key: "container"
    value {
      s: ""
    }
  }
  attr {
    key: "dtype"
    value {
      type: DT_FLOAT
    }
  }
  attr {
    key: "shape"
    value {
      shape {
        dim {
          size: 40
        }
        dim {
          size: 32
        }
      }
    }
  }
  attr {
    key: "shared_name"
    value {
      s: "svdf_2/dense_4/kernel"
    }
  }
}
node {
  name: "svdf_2/dense_4/kernel/IsInitialized/VarIsInitializedOp"
  op: "VarIsInitializedOp"
  input: "svdf_2/dense_4/kernel"
}
node {
  name: "svdf_2/dense_4/kernel/Assign"
  op: "AssignVariableOp"
  input: "svdf_2/dense_4/kernel"
  input: "svdf_2/dense_4/kernel/Initializer/stateless_random_uniform"
  attr {
    key: "dtype"
    value {
      type: DT_FLOAT
    }
  }
  attr {
    key: "validate_shape"
    value {
      b: false
    }
  }
}
node {
  name: "svdf_2/dense_4/kernel/Read/ReadVariableOp"
  op: "ReadVariableOp"
  input: "svdf_2/dense_4/kernel"
  attr {
    key: "dtype"
    value {
      type: DT_FLOAT
    }
  }
}
node {
  name: "svdf_2/dense_4/Tensordot/ReadVariableOp"
  op: "ReadVariableOp"
  input: "svdf_2/dense_4/kernel"
  attr {
    key: "dtype"
    value {
      type: DT_FLOAT
    }
  }
}
node {
  name: "svdf_2/dense_4/Tensordot/Reshape/shape"
  op: "Const"
  attr {
    key: "dtype"
    value {
      type: DT_INT32
    }
  }
  attr {
    key: "value"
    value {
      tensor {
        dtype: DT_INT32
        tensor_shape {
          dim {
            size: 2
          }
        }
        tensor_content: "t\016\000\000(\000\000\000"
      }
    }
  }
}
node {
  name: "svdf_2/dense_4/Tensordot/Reshape"
  op: "Reshape"
  input: "svdf_2/ExpandDims"
  input: "svdf_2/dense_4/Tensordot/Reshape/shape"
  attr {
    key: "T"
    value {
      type: DT_FLOAT
    }
  }
  attr {
    key: "Tshape"
    value {
      type: DT_INT32
    }
  }
}
node {
  name: "svdf_2/dense_4/Tensordot/MatMul"
  op: "MatMul"
  input: "svdf_2/dense_4/Tensordot/Reshape"
  input: "svdf_2/dense_4/Tensordot/ReadVariableOp"
  attr {
    key: "T"
    value {
      type: DT_FLOAT
    }
  }
  attr {
    key: "transpose_a"
    value {
      b: false
    }
  }
  attr {
    key: "transpose_b"
    value {
      b: false
    }
  }
}
node {
  name: "svdf_2/dense_4/Tensordot/shape"
  op: "Const"
  attr {
    key: "dtype"
    value {
      type: DT_INT32
    }
  }
  attr {
    key: "value"
    value {
      tensor {
        dtype: DT_INT32
        tensor_shape {
          dim {
            size: 4
          }
        }
        tensor_content: "d\000\000\000%\000\000\000\001\000\000\000 \000\000\000"
      }
    }
  }
}
node {
  name: "svdf_2/dense_4/Tensordot"
  op: "Reshape"
  input: "svdf_2/dense_4/Tensordot/MatMul"
  input: "svdf_2/dense_4/Tensordot/shape"
  attr {
    key: "T"
    value {
      type: DT_FLOAT
    }
  }
  attr {
    key: "Tshape"
    value {
      type: DT_INT32
    }
  }
}
node {
  name: "svdf_2/stream_2/depthwise_kernel/Initializer/stateless_random_uniform/shape"
  op: "Const"
  attr {
    key: "_class"
    value {
      list {
        s: "loc:@svdf_2/stream_2/depthwise_kernel"
      }
    }
  }
  attr {
    key: "dtype"
    value {
      type: DT_INT32
    }
  }
  attr {
    key: "value"
    value {
      tensor {
        dtype: DT_INT32
        tensor_shape {
          dim {
            size: 4
          }
        }
        tensor_content: "\n\000\000\000\001\000\000\000 \000\000\000\001\000\000\000"
      }
    }
  }
}
node {
  name: "svdf_2/stream_2/depthwise_kernel/Initializer/stateless_random_uniform/min"
  op: "Const"
  attr {
    key: "_class"
    value {
      list {
        s: "loc:@svdf_2/stream_2/depthwise_kernel"
      }
    }
  }
  attr {
    key: "dtype"
    value {
      type: DT_FLOAT
    }
  }
  attr {
    key: "value"
    value {
      tensor {
        dtype: DT_FLOAT
        tensor_shape {
        }
        float_val: -0.1348399668931961
      }
    }
  }
}
node {
  name: "svdf_2/stream_2/depthwise_kernel/Initializer/stateless_random_uniform/max"
  op: "Const"
  attr {
    key: "_class"
    value {
      list {
        s: "loc:@svdf_2/stream_2/depthwise_kernel"
      }
    }
  }
  attr {
    key: "dtype"
    value {
      type: DT_FLOAT
    }
  }
  attr {
    key: "value"
    value {
      tensor {
        dtype: DT_FLOAT
        tensor_shape {
        }
        float_val: 0.1348399668931961
      }
    }
  }
}
node {
  name: "svdf_2/stream_2/depthwise_kernel/Initializer/stateless_random_uniform/StatelessRandomGetKeyCounter/seed"
  op: "Const"
  attr {
    key: "_class"
    value {
      list {
        s: "loc:@svdf_2/stream_2/depthwise_kernel"
      }
    }
  }
  attr {
    key: "dtype"
    value {
      type: DT_INT32
    }
  }
  attr {
    key: "value"
    value {
      tensor {
        dtype: DT_INT32
        tensor_shape {
          dim {
            size: 2
          }
        }
        tensor_content: "j\211\0351\000\000\000\000"
      }
    }
  }
}
node {
  name: "svdf_2/stream_2/depthwise_kernel/Initializer/stateless_random_uniform/StatelessRandomGetKeyCounter"
  op: "StatelessRandomGetKeyCounter"
  input: "svdf_2/stream_2/depthwise_kernel/Initializer/stateless_random_uniform/StatelessRandomGetKeyCounter/seed"
  attr {
    key: "Tseed"
    value {
      type: DT_INT32
    }
  }
…
        float_val: 0.0
      }
    }
  }
}
node {
  name: "svdf_4/dense_9/bias"
  op: "VarHandleOp"
  attr {
    key: "_class"
    value {
      list {
        s: "loc:@svdf_4/dense_9/bias"
      }
    }
  }
  attr {
    key: "allowed_devices"
    value {
      list {
      }
    }
  }
  attr {
    key: "container"
    value {
      s: ""
    }
  }
  attr {
    key: "dtype"
    value {
      type: DT_FLOAT
    }
  }
  attr {
    key: "shape"
    value {
      shape {
        dim {
          size: 64
        }
      }
    }
  }
  attr {
    key: "shared_name"
    value {
      s: "svdf_4/dense_9/bias"
    }
  }
}
node {
  name: "svdf_4/dense_9/bias/IsInitialized/VarIsInitializedOp"
  op: "VarIsInitializedOp"
  input: "svdf_4/dense_9/bias"
}
node {
  name: "svdf_4/dense_9/bias/Assign"
  op: "AssignVariableOp"
  input: "svdf_4/dense_9/bias"
  input: "svdf_4/dense_9/bias/Initializer/zeros"
  attr {
    key: "dtype"
    value {
      type: DT_FLOAT
    }
  }
  attr {
    key: "validate_shape"
    value {
      b: false
    }
  }
}
node {
  name: "svdf_4/dense_9/bias/Read/ReadVariableOp"
  op: "ReadVariableOp"
  input: "svdf_4/dense_9/bias"
  attr {
    key: "dtype"
    value {
      type: DT_FLOAT
    }
  }
}
node {
  name: "svdf_4/dense_9/Tensordot/ReadVariableOp"
  op: "ReadVariableOp"
  input: "svdf_4/dense_9/kernel"
  attr {
    key: "dtype"
    value {
      type: DT_FLOAT
    }
  }
}
node {
  name: "svdf_4/dense_9/Tensordot/Reshape/shape"
  op: "Const"
  attr {
    key: "dtype"
    value {
      type: DT_INT32
    }
  }
  attr {
    key: "value"
    value {
      tensor {
        dtype: DT_INT32
        tensor_shape {
          dim {
            size: 2
          }
        }
        tensor_content: "\350\003\000\000@\000\000\000"
      }
    }
  }
}
node {
  name: "svdf_4/dense_9/Tensordot/Reshape"
  op: "Reshape"
  input: "svdf_4/Relu"
  input: "svdf_4/dense_9/Tensordot/Reshape/shape"
  attr {
    key: "T"
    value {
      type: DT_FLOAT
    }
  }
  attr {
    key: "Tshape"
    value {
      type: DT_INT32
    }
  }
}
node {
  name: "svdf_4/dense_9/Tensordot/MatMul"
  op: "MatMul"
  input: "svdf_4/dense_9/Tensordot/Reshape"
  input: "svdf_4/dense_9/Tensordot/ReadVariableOp"
  attr {
    key: "T"
    value {
      type: DT_FLOAT
    }
  }
  attr {
    key: "transpose_a"
    value {
      b: false
    }
  }
  attr {
    key: "transpose_b"
    value {
      b: false
    }
  }
}
node {
  name: "svdf_4/dense_9/Tensordot/shape"
  op: "Const"
  attr {
    key: "dtype"
    value {
      type: DT_INT32
    }
  }
  attr {
    key: "value"
    value {
      tensor {
        dtype: DT_INT32
        tensor_shape {
          dim {
            size: 4
          }
        }
        tensor_content: "d\000\000\000\n\000\000\000\001\000\000\000@\000\000\000"
      }
    }
  }
}
node {
  name: "svdf_4/dense_9/Tensordot"
  op: "Reshape"
  input: "svdf_4/dense_9/Tensordot/MatMul"
  input: "svdf_4/dense_9/Tensordot/shape"
  attr {
    key: "T"
    value {
      type: DT_FLOAT
    }
  }
  attr {
    key: "Tshape"
    value {
      type: DT_INT32
    }
  }
}
node {
  name: "svdf_4/dense_9/BiasAdd/ReadVariableOp"
  op: "ReadVariableOp"
  input: "svdf_4/dense_9/bias"
  attr {
    key: "dtype"
    value {
      type: DT_FLOAT
    }
  }
}
node {
  name: "svdf_4/dense_9/BiasAdd"
  op: "BiasAdd"
  input: "svdf_4/dense_9/Tensordot"
  input: "svdf_4/dense_9/BiasAdd/ReadVariableOp"
  attr {
    key: "T"
    value {
      type: DT_FLOAT
    }
  }
  attr {
    key: "data_format"
    value {
      s: "NHWC"
    }
  }
}
node {
  name: "svdf_4/Squeeze"
  op: "Squeeze"
  input: "svdf_4/dense_9/BiasAdd"
  attr {
    key: "T"
    value {
      type: DT_FLOAT
    }
  }
  attr {
    key: "squeeze_dims"
    value {
      list {
        i: 2
      }
    }
  }
}
node {
  name: "svdf_5/ExpandDims/dim"
  op: "Const"
  attr {
    key: "dtype"
    value {
      type: DT_INT32
    }
  }
  attr {
    key: "value"
    value {
      tensor {
        dtype: DT_INT32
        tensor_shape {
        }
        int_val: 2
      }
    }
  }
}
node {
  name: "svdf_5/ExpandDims"
  op: "ExpandDims"
  input: "svdf_4/Squeeze"
  input: "svdf_5/ExpandDims/dim"
  attr {
    key: "T"
    value {
      type: DT_FLOAT
    }
  }
  attr {
    key: "Tdim"
    value {
      type: DT_INT32
    }
  }
}
node {
  name: "svdf_5/dense_10/kernel/Initializer/stateless_random_uniform/shape"
  op: "Const"
  attr {
    key: "_class"
    value {
      list {
        s: "loc:@svdf_5/dense_10/kernel"
      }
    }
  }
  attr {
    key: "dtype"
    value {
      type: DT_INT32
    }
  }
  attr {
    key: "value"
    value {
      tensor {
        dtype: DT_INT32
        tensor_shape {
          dim {
            size: 2
          }
        }
        tensor_content: "@\000\000\000\200\000\000\000"
      }
    }
  }
}
node {
  name: "svdf_5/dense_10/kernel/Initializer/stateless_random_uniform/min"
  op: "Const"
  attr {
    key: "_class"
    value {
      list {
        s: "loc:@svdf_5/dense_10/kernel"
      }
    }
  }
  attr {
    key: "dtype"
    value {
      type: DT_FLOAT
    }
  }
  attr {
    key: "value"
    value {
      tensor {
        dtype: DT_FLOAT
        tensor_shape {
        }
        float_val: -0.1767766922712326
      }
    }
  }
}
node {
  name: "svdf_5/dense_10/kernel/Initializer/stateless_random_uniform/max"
  op: "Const"
  attr {
    key: "_class"
    value {
      list {
        s: "loc:@svdf_5/dense_10/kernel"
      }
    }
  }
  attr {
    key: "dtype"
    value {
      type: DT_FLOAT
    }
  }
  attr {
    key: "value"
    value {
      tensor {
        dtype: DT_FLOAT
        tensor_shape {
        }
        float_val: 0.1767766922712326
      }
    }
  }
}
node {
  name: "svdf_5/dense_10/kernel/Initializer/stateless_random_uniform/StatelessRandomGetKeyCounter/seed"
  op: "Const"
  attr {
    key: "_class"
    value {
      list {
        s: "loc:@svdf_5/dense_10/kernel"
      }
    }
  }
  attr {
    key: "dtype"
    value {
      type: DT_INT32
    }
  }
  attr {
    key: "value"
    value {
      tensor {
        dtype: DT_INT32
        tensor_shape {
          dim {
            size: 2
          }
        }
        tensor_content: "~\300.\026\000\000\000\000"
      }
    }
  }
}
node {
  name: "svdf_5/dense_10/kernel/Initializer/stateless_random_uniform/StatelessRandomGetKeyCounter"
  op: "StatelessRandomGetKeyCounter"
  input: "svdf_5/dense_10/kernel/Initializer/stateless_random_uniform/StatelessRandomGetKeyCounter/seed"
  attr {
    key: "Tseed"
    value {
      type: DT_INT32
    }
  }
  attr {
    key: "_class"
    value {
      list {
        s: "loc:@svdf_5/dense_10/kernel"
      }
    }
  }
}
node {
  name: "svdf_5/dense_10/kernel/Initializer/stateless_random_uniform/StatelessRandomUniformV2/alg"
  op: "Const"
  attr {
    key: "_class"
    value {
      list {
        s: "loc:@svdf_5/dense_10/kernel"
      }
    }
  }
  attr {
    key: "dtype"
    value {
      type: DT_INT32
    }
  }
  attr {
    key: "value"
    value {
      tensor {
        dtype: DT_INT32
        tensor_shape {
        }
        int_val: 3
      }
    }
  }
}
node {
  name: "svdf_5/dense_10/kernel/Initializer/stateless_random_uniform/StatelessRandomUniformV2"
  op: "StatelessRandomUniformV2"
  input: "svdf_5/dense_10/kernel/Initializer/stateless_random_uniform/shape"
  input: "svdf_5/dense_10/kernel/Initializer/stateless_random_uniform/StatelessRandomGetKeyCounter"
  input: "svdf_5/dense_10/kernel/Initializer/stateless_random_uniform/StatelessRandomGetKeyCounter:1"
  input: "svdf_5/dense_10/kernel/Initializer/stateless_random_uniform/StatelessRandomUniformV2/alg"
  attr {
    key: "Tshape"
    value {
      type: DT_INT32
    }
  }
  attr {
    key: "_class"
    value {
      list {
        s: "loc:@svdf_5/dense_10/kernel"
      }
    }
  }
  attr {
    key: "dtype"
    value {
      type: DT_FLOAT
    }
  }
}
node {
  name: "svdf_5/dense_10/kernel/Initializer/stateless_random_uniform/sub"
  op: "Sub"
  input: "svdf_5/dense_10/kernel/Initializer/stateless_random_uniform/max"
  input: "svdf_5/dense_10/kernel/Initializer/stateless_random_uniform/min"
  attr {
    key: "T"
    value {
      type: DT_FLOAT
    }
  }
  attr {
    key: "_class"
    value {
      list {
        s: "loc:@svdf_5/dense_10/kernel"
      }
    }
  }
}
node {
  name: "svdf_5/dense_10/kernel/Initializer/stateless_random_uniform/mul"
  op: "Mul"
  input: "svdf_5/dense_10/kernel/Initializer/stateless_random_uniform/StatelessRandomUniformV2"
  input: "svdf_5/dense_10/kernel/Initializer/stateless_random_uniform/sub"
  attr {
    key: "T"
    value {
      type: DT_FLOAT
    }
  }
  attr {
    key: "_class"
    value {
      list {
        s: "loc:@svdf_5/dense_10/kernel"
      }
    }
  }
}
node {
  name: "svdf_5/dense_10/kernel/Initializer/stateless_random_uniform"
  op: "AddV2"
  input: "svdf_5/dense_10/kernel/Initializer/stateless_random_uniform/mul"
  input: "svdf_5/dense_10/kernel/Initializer/stateless_random_uniform/min"
  attr {
    key: "T"
    value {
      type: DT_FLOAT
    }
  }
  attr {
    key: "_class"
    value {
      list {
        s: "loc:@svdf_5/dense_10/kernel"
      }
    }
  }
}
node {
  name: "svdf_5/dense_10/kernel"
  op: "VarHandleOp"
  attr {
    key: "_class"
    value {
      list {
        s: "loc:@svdf_5/dense_10/kernel"
      }
    }
  }
  attr {
    key: "allowed_devices"
    value {
      list {
      }
    }
  }
  attr {
    key: "container"
    value {
      s: ""
    }
  }
  attr {
    key: "dtype"
    value {
      type: DT_FLOAT
    }
  }
  attr {
    key: "shape"
    value {
      shape {
        dim {
          size: 64
        }
        dim {
          size: 128
        }
      }
    }
  }
  attr {
    key: "shared_name"
    value {
      s: "svdf_5/dense_10/kernel"
    }
  }
}
node {
  name: "svdf_5/dense_10/kernel/IsInitialized/VarIsInitializedOp"
  op: "VarIsInitializedOp"
  input: "svdf_5/dense_10/kernel"
}
node {
  name: "svdf_5/dense_10/kernel/Assign"
  op: "AssignVariableOp"
  input: "svdf_5/dense_10/kernel"
  input: "svdf_5/dense_10/kernel/Initializer/stateless_random_uniform"
  attr {
    key: "dtype"
    value {
      type: DT_FLOAT
    }
  }
  attr {
    key: "validate_shape"
    value {
      b: false
    }
  }
}
node {
  name: "svdf_5/dense_10/kernel/Read/ReadVariableOp"
  op: "ReadVariableOp"
  input: "svdf_5/dense_10/kernel"
  attr {
    key: "dtype"
    value {
      type: DT_FLOAT
    }
  }
}
node {
  name: "svdf_5/dense_10/Tensordot/ReadVariableOp"
  op: "ReadVariableOp"
  input: "svdf_5/dense_10/kernel"
  attr {
    key: "dtype"
    value {
      type: DT_FLOAT
    }
  }
}
node {
  name: "svdf_5/dense_10/Tensordot/Reshape/shape"
  op: "Const"
  attr {
    key: "dtype"
    value {
      type: DT_INT32
    }
  }
  attr {
    key: "value"
    value {
      tensor {
        dtype: DT_INT32
        tensor_shape {
          dim {
            size: 2
          }
        }
        tensor_content: "\350\003\000\000@\000\000\000"
      }
    }
  }
}
node {
  name: "svdf_5/dense_10/Tensordot/Reshape"
  op: "Reshape"
  input: "svdf_5/ExpandDims"
  input: "svdf_5/dense_10/Tensordot/Reshape/shape"
  attr {
    key: "T"
    value {
      type: DT_FLOAT
    }
  }
  attr {
    key: "Tshape"
    value {
      type: DT_INT32
    }
  }
}
node {
  name: "svdf_5/dense_10/Tensordot/MatMul"
  op: "MatMul"
  input: "svdf_5/dense_10/Tensordot/Reshape"
  input: "svdf_5/dense_10/Tensordot/ReadVariableOp"
  attr {
    key: "T"
    value {
      type: DT_FLOAT
    }
  }
  attr {
    key: "transpose_a"
    value {
      b: false
    }
  }
  attr {
    key: "transpose_b"
    value {
      b: false
    }
  }
}
node {
  name: "svdf_5/dense_10/Tensordot/shape"
  op: "Const"
  attr {
    key: "dtype"
    value {
      type: DT_INT32
    }
  }
  attr {
    key: "value"
    value {
      tensor {
        dtype: DT_INT32
        tensor_shape {
          dim {
            size: 4
          }
        }
        tensor_content: "d\000\000\000\n\000\000\000\001\000\000\000\200\000\000\000"
      }
    }
  }
}
node {
  name: "svdf_5/dense_10/Tensordot"
  op: "Reshape"
  input: "svdf_5/dense_10/Tensordot/MatMul"
  input: "svdf_5/dense_10/Tensordot/shape"
  attr {
    key: "T"
    value {
      type: DT_FLOAT
    }
  }
  attr {
    key: "Tshape"
    value {
      type: DT_INT32
    }
  }
}
node {
  name: "svdf_5/stream_5/depthwise_kernel/Initializer/stateless_random_uniform/shape"
  op: "Const"
  attr {
    key: "_class"
    value {
      list {
        s: "loc:@svdf_5/stream_5/depthwise_kernel"
      }
    }
  }
  attr {
    key: "dtype"
    value {
      type: DT_INT32
    }
  }
  attr {
    key: "value"
    value {
      tensor {
        dtype: DT_INT32
        tensor_shape {
          dim {
            size: 4
          }
        }
        tensor_content: "\n\000\000\000\001\000\000\000\200\000\000\000\001\000\000\000"
      }
    }
  }
}
node {
  name: "svdf_5/stream_5/depthwise_kernel/Initializer/stateless_random_uniform/min"
  op: "Const"
  attr {
    key: "_class"
    value {
      list {
        s: "loc:@svdf_5/stream_5/depthwise_kernel"
      }
    }
  }
  attr {
    key: "dtype"
    value {
      type: DT_FLOAT
    }
  }
  attr {
    key: "value"
    value {
      tensor {
        dtype: DT_FLOAT
        tensor_shape {
        }
        float_val: -0.06819943338632584
      }
    }
  }
}
node {
  name: "svdf_5/stream_5/depthwise_kernel/Initializer/stateless_random_uniform/max"
  op: "Const"
  attr {
    key: "_class"
    value {
      list {
        s: "loc:@svdf_5/stream_5/depthwise_kernel"
      }
    }
  }
  attr {
    key: "dtype"
    value {
      type: DT_FLOAT
    }
  }
  attr {
    key: "value"
    value {
      tensor {
        dtype: DT_FLOAT
        tensor_shape {
        }
        float_val: 0.06819943338632584
      }
    }
  }
}
node {
  name: "svdf_5/stream_5/depthwise_kernel/Initializer/stateless_random_uniform/StatelessRandomGetKeyCounter/seed"
  op: "Const"
  attr {
    key: "_class"
    value {
      list {
        s: "loc:@svdf_5/stream_5/depthwise_kernel"
      }
    }
  }
  attr {
    key: "dtype"
    value {
      type: DT_INT32
    }
  }
  attr {
    key: "value"
    value {
      tensor {
        dtype: DT_INT32
        tensor_shape {
          dim {
            size: 2
          }
        }
        tensor_content: "\251\255\213\022\000\000\000\000"
      }
    }
  }
}
node {
  name: "svdf_5/stream_5/depthwise_kernel/Initializer/stateless_random_uniform/StatelessRandomGetKeyCounter"
  op: "StatelessRandomGetKeyCounter"
  input: "svdf_5/stream_5/depthwise_kernel/Initializer/stateless_random_uniform/StatelessRandomGetKeyCounter/seed"
  attr {
    key: "Tseed"
    value {
      type: DT_INT32
    }
  }
  attr {
    key: "_class"
    value {
      list {
        s: "loc:@svdf_5/stream_5/depthwise_kernel"
      }
    }
  }
}
node {
  name: "svdf_5/stream_5/depthwise_kernel/Initializer/stateless_random_uniform/StatelessRandomUniformV2/alg"
  op: "Const"
  attr {
    key: "_class"
    value {
      list {
        s: "loc:@svdf_5/stream_5/depthwise_kernel"
      }
    }
  }
  attr {
    key: "dtype"
    value {
      type: DT_INT32
    }
  }
  attr {
    key: "value"
    value {
      tensor {
        dtype: DT_INT32
        tensor_shape {
        }
        int_val: 3
      }
    }
  }
}
node {
  name: "svdf_5/stream_5/depthwise_kernel/Initializer/stateless_random_uniform/StatelessRandomUniformV2"
  op: "StatelessRandomUniformV2"
  input: "svdf_5/stream_5/depthwise_kernel/Initializer/stateless_random_uniform/shape"
  input: "svdf_5/stream_5/depthwise_kernel/Initializer/stateless_random_uniform/StatelessRandomGetKeyCounter"
  input: "svdf_5/stream_5/depthwise_kernel/Initializer/stateless_random_uniform/StatelessRandomGetKeyCounter:1"
  input: "svdf_5/stream_5/depthwise_kernel/Initializer/stateless_random_uniform/StatelessRandomUniformV2/alg"
  attr {
    key: "Tshape"
    value {
      type: DT_INT32
    }
  }
  attr {
    key: "_class"
    value {
      list {
        s: "loc:@svdf_5/stream_5/depthwise_kernel"
      }
    }
  }
  attr {
    key: "dtype"
    value {
      type: DT_FLOAT
    }
  }
}
node {
  name: "svdf_5/stream_5/depthwise_kernel/Initializer/stateless_random_uniform/sub"
  op: "Sub"
  input: "svdf_5/stream_5/depthwise_kernel/Initializer/stateless_random_uniform/max"
  input: "svdf_5/stream_5/depthwise_kernel/Initializer/stateless_random_uniform/min"
  attr {
    key: "T"
    value {
      type: DT_FLOAT
    }
  }
  attr {
    key: "_class"
    value {
      list {
        s: "loc:@svdf_5/stream_5/depthwise_kernel"
      }
    }
  }
}
node {
  name: "svdf_5/stream_5/depthwise_kernel/Initializer/stateless_random_uniform/mul"
  op: "Mul"
  input: "svdf_5/stream_5/depthwise_kernel/Initializer/stateless_random_uniform/StatelessRandomUniformV2"
  input: "svdf_5/stream_5/depthwise_kernel/Initializer/stateless_random_uniform/sub"
  attr {
    key: "T"
    value {
      type: DT_FLOAT
    }
  }
  attr {
    key: "_class"
    value {
      list {
        s: "loc:@svdf_5/stream_5/depthwise_kernel"
      }
    }
  }
}
node {
  name: "svdf_5/stream_5/depthwise_kernel/Initializer/stateless_random_uniform"
  op: "AddV2"
  input: "svdf_5/stream_5/depthwise_kernel/Initializer/stateless_random_uniform/mul"
  input: "svdf_5/stream_5/depthwise_kernel/Initializer/stateless_random_uniform/min"
  attr {
    key: "T"
    value {
      type: DT_FLOAT
    }
  }
  attr {
    key: "_class"
    value {
      list {
        s: "loc:@svdf_5/stream_5/depthwise_kernel"
      }
    }
  }
}
node {
  name: "svdf_5/stream_5/depthwise_kernel"
  op: "VarHandleOp"
  attr {
    key: "_class"
    value {
      list {
        s: "loc:@svdf_5/stream_5/depthwise_kernel"
      }
    }
  }
  attr {
    key: "allowed_devices"
    value {
      list {
      }
    }
  }
  attr {
    key: "container"
    value {
      s: ""
    }
  }
  attr {
    key: "dtype"
    value {
      type: DT_FLOAT
    }
  }
  attr {
    key: "shape"
    value {
      shape {
        dim {
          size: 10
        }
        dim {
          size: 1
        }
        dim {
          size: 128
        }
        dim {
          size: 1
        }
      }
    }
  }
  attr {
    key: "shared_name"
    value {
      s: "svdf_5/stream_5/depthwise_kernel"
    }
  }
}
node {
  name: "svdf_5/stream_5/depthwise_kernel/IsInitialized/VarIsInitializedOp"
  op: "VarIsInitializedOp"
  input: "svdf_5/stream_5/depthwise_kernel"
}
node {
  name: "svdf_5/stream_5/depthwise_kernel/Assign"
  op: "AssignVariableOp"
  input: "svdf_5/stream_5/depthwise_kernel"
  input: "svdf_5/stream_5/depthwise_kernel/Initializer/stateless_random_uniform"
  attr {
    key: "dtype"
    value {
      type: DT_FLOAT
    }
  }
  attr {
    key: "validate_shape"
    value {
      b: false
    }
  }
}
node {
  name: "svdf_5/stream_5/depthwise_kernel/Read/ReadVariableOp"
  op: "ReadVariableOp"
  input: "svdf_5/stream_5/depthwise_kernel"
  attr {
    key: "dtype"
    value {
      type: DT_FLOAT
    }
  }
}
node {
  name: "svdf_5/stream_5/bias/Initializer/zeros"
  op: "Const"
  attr {
    key: "_class"
    value {
      list {
        s: "loc:@svdf_5/stream_5/bias"
      }
    }
  }
  attr {
    key: "dtype"
    value {
      type: DT_FLOAT
    }
  }
  attr {
    key: "value"
    value {
      tensor {
        dtype: DT_FLOAT
        tensor_shape {
          dim {
            size: 128
          }
        }
        float_val: 0.0
      }
    }
  }
}
node {
  name: "svdf_5/stream_5/bias"
  op: "VarHandleOp"
  attr {
    key: "_class"
    value {
      list {
        s: "loc:@svdf_5/stream_5/bias"
      }
    }
  }
  attr {
    key: "allowed_devices"
    value {
      list {
      }
    }
  }
  attr {
    key: "container"
    value {
      s: ""
    }
  }
  attr {
    key: "dtype"
    value {
      type: DT_FLOAT
    }
  }
  attr {
    key: "shape"
    value {
      shape {
        dim {
          size: 128
        }
      }
    }
  }
  attr {
    key: "shared_name"
    value {
      s: "svdf_5/stream_5/bias"
    }
  }
}
node {
  name: "svdf_5/stream_5/bias/IsInitialized/VarIsInitializedOp"
  op: "VarIsInitializedOp"
  input: "svdf_5/stream_5/bias"
}
node {
  name: "svdf_5/stream_5/bias/Assign"
  op: "AssignVariableOp"
  input: "svdf_5/stream_5/bias"
  input: "svdf_5/stream_5/bias/Initializer/zeros"
  attr {
    key: "dtype"
    value {
      type: DT_FLOAT
    }
  }
  attr {
    key: "validate_shape"
    value {
      b: false
    }
  }
}
node {
  name: "svdf_5/stream_5/bias/Read/ReadVariableOp"
  op: "ReadVariableOp"
  input: "svdf_5/stream_5/bias"
  attr {
    key: "dtype"
    value {
      type: DT_FLOAT
    }
  }
}
node {
  name: "svdf_5/stream_5/Pad/paddings"
  op: "Const"
  attr {
    key: "dtype"
    value {
      type: DT_INT32
    }
  }
  attr {
    key: "value"
    value {
      tensor {
        dtype: DT_INT32
        tensor_shape {
          dim {
            size: 4
          }
          dim {
            size: 2
          }
        }
        tensor_content: "…"
      }
    }
  }
}
node {
  name: "svdf_5/stream_5/Pad"
  op: "Pad"
  input: "svdf_5/dense_10/Tensordot"
  input: "svdf_5/stream_5/Pad/paddings"
  attr {
    key: "T"
    value {
      type: DT_FLOAT
    }
  }
  attr {
    key: "Tpaddings"
    value {
      type: DT_INT32
    }
  }
}
node {
  name: "svdf_5/stream_5/depthwise_conv2d_5/depthwise/ReadVariableOp"
  op: "ReadVariableOp"
  input: "svdf_5/stream_5/depthwise_kernel"
  attr {
    key: "dtype"
    value {
      type: DT_FLOAT
    }
  }
}
node {
  name: "svdf_5/stream_5/depthwise_conv2d_5/depthwise/Shape"
  op: "Const"
  attr {
    key: "dtype"
    value {
      type: DT_INT32
    }
  }
  attr {
    key: "value"
    value {
      tensor {
        dtype: DT_INT32
        tensor_shape {
          dim {
            size: 4
          }
        }
        tensor_content: "\n\000\000\000\001\000\000\000\200\000\000\000\001\000\000\000"
      }
    }
  }
}
node {
  name: "svdf_5/stream_5/depthwise_conv2d_5/depthwise/dilation_rate"
  op: "Const"
  attr {
    key: "dtype"
    value {
      type: DT_INT32
    }
  }
  attr {
    key: "value"
    value {
      tensor {
        dtype: DT_INT32
        tensor_shape {
          dim {
            size: 2
          }
        }
        tensor_content: "\001\000\000\000\001\000\000\000"
      }
    }
  }
}
node {
  name: "svdf_5/stream_5/depthwise_conv2d_5/depthwise"
  op: "DepthwiseConv2dNative"
  input: "svdf_5/stream_5/Pad"
  input: "svdf_5/stream_5/depthwise_conv2d_5/depthwise/ReadVariableOp"
  attr {
    key: "T"
    value {
      type: DT_FLOAT
    }
  }
  attr {
    key: "data_format"
    value {
      s: "NHWC"
    }
  }
  attr {
    key: "dilations"
    value {
      list {
        i: 1
        i: 1
        i: 1
        i: 1
      }
    }
  }
  attr {
    key: "explicit_paddings"
    value {
      list {
      }
    }
  }
  attr {
    key: "padding"
    value {
      s: "VALID"
    }
  }
  attr {
    key: "strides"
    value {
      list {
        i: 1
        i: 1
        i: 1
        i: 1
      }
    }
  }
}
node {
  name: "svdf_5/stream_5/depthwise_conv2d_5/BiasAdd/ReadVariableOp"
  op: "ReadVariableOp"
  input: "svdf_5/stream_5/bias"
  attr {
    key: "dtype"
    value {
      type: DT_FLOAT
    }
  }
}
node {
  name: "svdf_5/stream_5/depthwise_conv2d_5/BiasAdd"
  op: "BiasAdd"
  input: "svdf_5/stream_5/depthwise_conv2d_5/depthwise"
  input: "svdf_5/stream_5/depthwise_conv2d_5/BiasAdd/ReadVariableOp"
  attr {
    key: "T"
    value {
      type: DT_FLOAT
    }
  }
  attr {
    key: "data_format"
    value {
      s: "NHWC"
    }
  }
}
node {
  name: "svdf_5/Relu"
  op: "Relu"
  input: "svdf_5/stream_5/depthwise_conv2d_5/BiasAdd"
  attr {
    key: "T"
    value {
      type: DT_FLOAT
    }
  }
}
node {
  name: "svdf_5/Squeeze"
  op: "Squeeze"
  input: "svdf_5/Relu"
  attr {
    key: "T"
    value {
      type: DT_FLOAT
    }
  }
  attr {
    key: "squeeze_dims"
    value {
      list {
        i: 2
      }
    }
  }
}
node {
  name: "stream_6/flatten/Const"
  op: "Const"
  attr {
    key: "dtype"
    value {
      type: DT_INT32
    }
  }
  attr {
    key: "value"
    value {
      tensor {
        dtype: DT_INT32
        tensor_shape {
          dim {
            size: 2
          }
        }
        tensor_content: "\377\377\377\377\200\000\000\000"
      }
    }
  }
}
node {
  name: "stream_6/flatten/Reshape"
  op: "Reshape"
  input: "svdf_5/Squeeze"
  input: "stream_6/flatten/Const"
  attr {
    key: "T"
    value {
      type: DT_FLOAT
    }
  }
  attr {
    key: "Tshape"
    value {
      type: DT_INT32
    }
  }
}
node {
  name: "dropout/Identity"
  op: "Identity"
  input: "stream_6/flatten/Reshape"
  attr {
    key: "T"
    value {
      type: DT_FLOAT
    }
  }
}
node {
  name: "dense_11/kernel/Initializer/stateless_random_uniform/shape"
  op: "Const"
  attr {
    key: "_class"
    value {
      list {
        s: "loc:@dense_11/kernel"
      }
    }
  }
  attr {
    key: "dtype"
    value {
      type: DT_INT32
    }
  }
  attr {
    key: "value"
    value {
      tensor {
        dtype: DT_INT32
        tensor_shape {
          dim {
            size: 2
          }
        }
        tensor_content: "\200\000\000\000\014\000\000\000"
      }
    }
  }
}
node {
  name: "dense_11/kernel/Initializer/stateless_random_uniform/min"
  op: "Const"
  attr {
    key: "_class"
    value {
      list {
        s: "loc:@dense_11/kernel"
      }
    }
  }
  attr {
    key: "dtype"
    value {
      type: DT_FLOAT
    }
  }
  attr {
    key: "value"
    value {
      tensor {
        dtype: DT_FLOAT
        tensor_shape {
        }
        float_val: -0.20701967179775238
      }
    }
  }
}
node {
  name: "dense_11/kernel/Initializer/stateless_random_uniform/max"
  op: "Const"
  attr {
    key: "_class"
    value {
      list {
        s: "loc:@dense_11/kernel"
      }
    }
  }
  attr {
    key: "dtype"
    value {
      type: DT_FLOAT
    }
  }
  attr {
    key: "value"
    value {
      tensor {
        dtype: DT_FLOAT
        tensor_shape {
        }
        float_val: 0.20701967179775238
      }
    }
  }
}
node {
  name: "dense_11/kernel/Initializer/stateless_random_uniform/StatelessRandomGetKeyCounter/seed"
  op: "Const"
  attr {
    key: "_class"
    value {
      list {
        s: "loc:@dense_11/kernel"
      }
    }
  }
  attr {
    key: "dtype"
    value {
      type: DT_INT32
    }
  }
  attr {
    key: "value"
    value {
      tensor {
        dtype: DT_INT32
        tensor_shape {
          dim {
            size: 2
          }
        }
        tensor_content: "c\363\2501\000\000\000\000"
      }
    }
  }
}
node {
  name: "dense_11/kernel/Initializer/stateless_random_uniform/StatelessRandomGetKeyCounter"
  op: "StatelessRandomGetKeyCounter"
  input: "dense_11/kernel/Initializer/stateless_random_uniform/StatelessRandomGetKeyCounter/seed"
  attr {
    key: "Tseed"
    value {
      type: DT_INT32
    }
  }
  attr {
    key: "_class"
    value {
      list {
        s: "loc:@dense_11/kernel"
      }
    }
  }
}
node {
  name: "dense_11/kernel/Initializer/stateless_random_uniform/StatelessRandomUniformV2/alg"
  op: "Const"
  attr {
    key: "_class"
    value {
      list {
        s: "loc:@dense_11/kernel"
      }
    }
  }
  attr {
    key: "dtype"
    value {
      type: DT_INT32
    }
  }
  attr {
    key: "value"
    value {
      tensor {
        dtype: DT_INT32
        tensor_shape {
        }
        int_val: 3
      }
    }
  }
}
node {
  name: "dense_11/kernel/Initializer/stateless_random_uniform/StatelessRandomUniformV2"
  op: "StatelessRandomUniformV2"
  input: "dense_11/kernel/Initializer/stateless_random_uniform/shape"
  input: "dense_11/kernel/Initializer/stateless_random_uniform/StatelessRandomGetKeyCounter"
  input: "dense_11/kernel/Initializer/stateless_random_uniform/StatelessRandomGetKeyCounter:1"
  input: "dense_11/kernel/Initializer/stateless_random_uniform/StatelessRandomUniformV2/alg"
  attr {
    key: "Tshape"
    value {
      type: DT_INT32
    }
  }
  attr {
    key: "_class"
    value {
      list {
        s: "loc:@dense_11/kernel"
      }
    }
  }
  attr {
    key: "dtype"
    value {
      type: DT_FLOAT
    }
  }
}
node {
  name: "dense_11/kernel/Initializer/stateless_random_uniform/sub"
  op: "Sub"
  input: "dense_11/kernel/Initializer/stateless_random_uniform/max"
  input: "dense_11/kernel/Initializer/stateless_random_uniform/min"
  attr {
    key: "T"
    value {
      type: DT_FLOAT
    }
  }
  attr {
    key: "_class"
    value {
      list {
        s: "loc:@dense_11/kernel"
      }
    }
  }
}
node {
  name: "dense_11/kernel/Initializer/stateless_random_uniform/mul"
  op: "Mul"
  input: "dense_11/kernel/Initializer/stateless_random_uniform/StatelessRandomUniformV2"
  input: "dense_11/kernel/Initializer/stateless_random_uniform/sub"
  attr {
    key: "T"
    value {
      type: DT_FLOAT
    }
  }
  attr {
    key: "_class"
    value {
      list {
        s: "loc:@dense_11/kernel"
      }
    }
  }
}
node {
  name: "dense_11/kernel/Initializer/stateless_random_uniform"
  op: "AddV2"
  input: "dense_11/kernel/Initializer/stateless_random_uniform/mul"
  input: "dense_11/kernel/Initializer/stateless_random_uniform/min"
  attr {
    key: "T"
    value {
      type: DT_FLOAT
    }
  }
  attr {
    key: "_class"
    value {
      list {
        s: "loc:@dense_11/kernel"
      }
    }
  }
}
node {
  name: "dense_11/kernel"
  op: "VarHandleOp"
  attr {
    key: "_class"
    value {
      list {
        s: "loc:@dense_11/kernel"
      }
    }
  }
  attr {
    key: "allowed_devices"
    value {
      list {
      }
    }
  }
  attr {
    key: "container"
    value {
      s: ""
    }
  }
  attr {
    key: "dtype"
    value {
      type: DT_FLOAT
    }
  }
  attr {
    key: "shape"
    value {
      shape {
        dim {
          size: 128
        }
        dim {
          size: 12
        }
      }
    }
  }
  attr {
    key: "shared_name"
    value {
      s: "dense_11/kernel"
    }
  }
}
node {
  name: "dense_11/kernel/IsInitialized/VarIsInitializedOp"
  op: "VarIsInitializedOp"
  input: "dense_11/kernel"
}
node {
  name: "dense_11/kernel/Assign"
  op: "AssignVariableOp"
  input: "dense_11/kernel"
  input: "dense_11/kernel/Initializer/stateless_random_uniform"
  attr {
    key: "dtype"
    value {
      type: DT_FLOAT
    }
  }
  attr {
    key: "validate_shape"
    value {
      b: false
    }
  }
}
node {
  name: "dense_11/kernel/Read/ReadVariableOp"
  op: "ReadVariableOp"
  input: "dense_11/kernel"
  attr {
    key: "dtype"
    value {
      type: DT_FLOAT
    }
  }
}
node {
  name: "dense_11/bias/Initializer/zeros"
  op: "Const"
  attr {
    key: "_class"
    value {
      list {
        s: "loc:@dense_11/bias"
      }
    }
  }
  attr {
    key: "dtype"
    value {
      type: DT_FLOAT
    }
  }
  attr {
    key: "value"
    value {
      tensor {
        dtype: DT_FLOAT
        tensor_shape {
          dim {
            size: 12
          }
        }
        float_val: 0.0
      }
    }
  }
}
node {
  name: "dense_11/bias"
  op: "VarHandleOp"
  attr {
    key: "_class"
    value {
      list {
        s: "loc:@dense_11/bias"
      }
    }
  }
  attr {
    key: "allowed_devices"
    value {
      list {
      }
    }
  }
  attr {
    key: "container"
    value {
      s: ""
    }
  }
  attr {
    key: "dtype"
    value {
      type: DT_FLOAT
    }
  }
  attr {
    key: "shape"
    value {
      shape {
        dim {
          size: 12
        }
      }
    }
  }
  attr {
    key: "shared_name"
    value {
      s: "dense_11/bias"
    }
  }
}
node {
  name: "dense_11/bias/IsInitialized/VarIsInitializedOp"
  op: "VarIsInitializedOp"
  input: "dense_11/bias"
}
node {
  name: "dense_11/bias/Assign"
  op: "AssignVariableOp"
  input: "dense_11/bias"
  input: "dense_11/bias/Initializer/zeros"
  attr {
    key: "dtype"
    value {
      type: DT_FLOAT
    }
  }
  attr {
    key: "validate_shape"
    value {
      b: false
    }
  }
}
node {
  name: "dense_11/bias/Read/ReadVariableOp"
  op: "ReadVariableOp"
  input: "dense_11/bias"
  attr {
    key: "dtype"
    value {
      type: DT_FLOAT
    }
  }
}
node {
  name: "dense_11/MatMul/ReadVariableOp"
  op: "ReadVariableOp"
  input: "dense_11/kernel"
  attr {
    key: "dtype"
    value {
      type: DT_FLOAT
    }
  }
}
node {
  name: "dense_11/MatMul"
  op: "MatMul"
  input: "dropout/Identity"
  input: "dense_11/MatMul/ReadVariableOp"
  attr {
    key: "T"
    value {
      type: DT_FLOAT
    }
  }
  attr {
    key: "transpose_a"
    value {
      b: false
    }
  }
  attr {
    key: "transpose_b"
    value {
      b: false
    }
  }
}
node {
  name: "dense_11/BiasAdd/ReadVariableOp"
  op: "ReadVariableOp"
  input: "dense_11/bias"
  attr {
    key: "dtype"
    value {
      type: DT_FLOAT
    }
  }
}
node {
  name: "dense_11/BiasAdd"
  op: "BiasAdd"
  input: "dense_11/MatMul"
  input: "dense_11/BiasAdd/ReadVariableOp"
  attr {
    key: "T"
    value {
      type: DT_FLOAT
    }
  }
  attr {
    key: "data_format"
    value {
      s: "NHWC"
    }
  }
}
node {
  name: "dense_11_target"
  op: "Placeholder"
  attr {
    key: "dtype"
    value {
      type: DT_FLOAT
    }
  }
  attr {
    key: "shape"
    value {
      shape {
        dim {
          size: -1
        }
        dim {
          size: -1
        }
      }
    }
  }
}
node {
  name: "total/Initializer/zeros"
  op: "Const"
  attr {
    key: "_class"
    value {
      list {
        s: "loc:@total"
      }
    }
  }
  attr {
    key: "dtype"
    value {
      type: DT_FLOAT
    }
  }
  attr {
    key: "value"
    value {
      tensor {
        dtype: DT_FLOAT
        tensor_shape {
        }
        float_val: 0.0
      }
    }
  }
}
node {
  name: "total"
  op: "VarHandleOp"
  attr {
    key: "_class"
    value {
      list {
        s: "loc:@total"
      }
    }
  }
  attr {
    key: "allowed_devices"
    value {
      list {
      }
    }
  }
  attr {
    key: "container"
    value {
      s: ""
    }
  }
  attr {
    key: "dtype"
    value {
      type: DT_FLOAT
    }
  }
  attr {
    key: "shape"
    value {
      shape {
      }
    }
  }
  attr {
    key: "shared_name"
    value {
      s: "total"
    }
  }
}
node {
  name: "total/IsInitialized/VarIsInitializedOp"
  op: "VarIsInitializedOp"
  input: "total"
}
node {
  name: "total/Assign"
  op: "AssignVariableOp"
  input: "total"
  input: "total/Initializer/zeros"
  attr {
    key: "dtype"
    value {
      type: DT_FLOAT
    }
  }
  attr {
    key: "validate_shape"
    value {
      b: false
    }
  }
}
node {
  name: "total/Read/ReadVariableOp"
  op: "ReadVariableOp"
  input: "total"
  attr {
    key: "dtype"
    value {
      type: DT_FLOAT
    }
  }
}
node {
  name: "count/Initializer/zeros"
  op: "Const"
  attr {
    key: "_class"
    value {
      list {
        s: "loc:@count"
      }
    }
  }
  attr {
    key: "dtype"
    value {
      type: DT_FLOAT
    }
  }
  attr {
    key: "value"
    value {
      tensor {
        dtype: DT_FLOAT
        tensor_shape {
        }
        float_val: 0.0
      }
    }
  }
}
node {
  name: "count"
  op: "VarHandleOp"
  attr {
    key: "_class"
    value {
      list {
        s: "loc:@count"
      }
    }
  }
  attr {
    key: "allowed_devices"
    value {
      list {
      }
    }
  }
  attr {
    key: "container"
    value {
      s: ""
    }
  }
  attr {
    key: "dtype"
    value {
      type: DT_FLOAT
    }
  }
  attr {
    key: "shape"
    value {
      shape {
      }
    }
  }
  attr {
    key: "shared_name"
    value {
      s: "count"
    }
  }
}
node {
  name: "count/IsInitialized/VarIsInitializedOp"
  op: "VarIsInitializedOp"
  input: "count"
}
node {
  name: "count/Assign"
  op: "AssignVariableOp"
  input: "count"
  input: "count/Initializer/zeros"
  attr {
    key: "dtype"
    value {
      type: DT_FLOAT
    }
  }
  attr {
    key: "validate_shape"
    value {
      b: false
    }
  }
}
node {
  name: "count/Read/ReadVariableOp"
  op: "ReadVariableOp"
  input: "count"
  attr {
    key: "dtype"
    value {
      type: DT_FLOAT
    }
  }
}
node {
  name: "metrics/accuracy/Shape"
  op: "Shape"
  input: "dense_11_target"
  attr {
    key: "T"
    value {
      type: DT_FLOAT
    }
  }
  attr {
    key: "out_type"
    value {
      type: DT_INT32
    }
  }
}
node {
  name: "metrics/accuracy/Squeeze"
  op: "Squeeze"
  input: "dense_11_target"
  attr {
    key: "T"
    value {
      type: DT_FLOAT
    }
  }
  attr {
    key: "squeeze_dims"
    value {
      list {
        i: -1
      }
    }
  }
}
node {
  name: "metrics/accuracy/ArgMax/dimension"
  op: "Const"
  attr {
    key: "dtype"
    value {
      type: DT_INT32
    }
  }
  attr {
    key: "value"
    value {
      tensor {
        dtype: DT_INT32
        tensor_shape {
        }
        int_val: -1
      }
    }
  }
}
node {
  name: "metrics/accuracy/ArgMax"
  op: "ArgMax"
  input: "dense_11/BiasAdd"
  input: "metrics/accuracy/ArgMax/dimension"
  attr {
    key: "T"
    value {
      type: DT_FLOAT
    }
  }
  attr {
    key: "Tidx"
    value {
      type: DT_INT32
    }
  }
  attr {
    key: "output_type"
    value {
      type: DT_INT64
    }
  }
}
node {
  name: "metrics/accuracy/Cast"
  op: "Cast"
  input: "metrics/accuracy/ArgMax"
  attr {
    key: "DstT"
    value {
      type: DT_FLOAT
    }
  }
  attr {
    key: "SrcT"
    value {
      type: DT_INT64
    }
  }
  attr {
    key: "Truncate"
    value {
      b: false
    }
  }
}
node {
  name: "metrics/accuracy/Equal"
  op: "Equal"
  input: "metrics/accuracy/Squeeze"
  input: "metrics/accuracy/Cast"
  attr {
    key: "T"
    value {
      type: DT_FLOAT
    }
  }
  attr {
    key: "incompatible_shape_error"
    value {
      b: true
    }
  }
}
node {
  name: "metrics/accuracy/Cast_1"
  op: "Cast"
  input: "metrics/accuracy/Equal"
  attr {
    key: "DstT"
    value {
      type: DT_FLOAT
    }
  }
  attr {
    key: "SrcT"
    value {
      type: DT_BOOL
    }
  }
  attr {
    key: "Truncate"
    value {
      b: false
    }
  }
}
node {
  name: "metrics/accuracy/Reshape"
  op: "Reshape"
  input: "metrics/accuracy/Cast_1"
  input: "metrics/accuracy/Shape"
  attr {
    key: "T"
    value {
      type: DT_FLOAT
    }
  }
  attr {
    key: "Tshape"
    value {
      type: DT_INT32
    }
  }
}
node {
  name: "metrics/accuracy/Const"
  op: "Const"
  attr {
    key: "dtype"
    value {
      type: DT_INT32
    }
  }
  attr {
    key: "value"
    value {
      tensor {
        dtype: DT_INT32
        tensor_shape {
          dim {
            size: 2
          }
        }
        tensor_content: "\000\000\000\000\001\000\000\000"
      }
    }
  }
}
node {
  name: "metrics/accuracy/Sum"
  op: "Sum"
  input: "metrics/accuracy/Reshape"
  input: "metrics/accuracy/Const"
  attr {
    key: "T"
    value {
      type: DT_FLOAT
    }
  }
  attr {
    key: "Tidx"
    value {
      type: DT_INT32
    }
  }
  attr {
    key: "_has_manual_control_dependencies"
    value {
      b: true
    }
  }
  attr {
    key: "keep_dims"
    value {
      b: false
    }
  }
}
node {
  name: "metrics/accuracy/AssignAddVariableOp"
  op: "AssignAddVariableOp"
  input: "total"
  input: "metrics/accuracy/Sum"
  attr {
    key: "_has_manual_control_dependencies"
    value {
      b: true
    }
  }
  attr {
    key: "dtype"
    value {
      type: DT_FLOAT
    }
  }
}
node {
  name: "metrics/accuracy/ReadVariableOp"
  op: "ReadVariableOp"
  input: "total"
  input: "^metrics/accuracy/AssignAddVariableOp"
  input: "^metrics/accuracy/Sum"
  attr {
    key: "dtype"
    value {
      type: DT_FLOAT
    }
  }
}
node {
  name: "metrics/accuracy/Size"
  op: "Size"
  input: "metrics/accuracy/Reshape"
  attr {
    key: "T"
    value {
      type: DT_FLOAT
    }
  }
  attr {
    key: "out_type"
    value {
      type: DT_INT32
    }
  }
}
node {
  name: "metrics/accuracy/Cast_2"
  op: "Cast"
  input: "metrics/accuracy/Size"
  attr {
    key: "DstT"
    value {
      type: DT_FLOAT
    }
  }
  attr {
    key: "SrcT"
    value {
      type: DT_INT32
    }
  }
  attr {
    key: "Truncate"
    value {
      b: false
    }
  }
}
node {
  name: "metrics/accuracy/AssignAddVariableOp_1"
  op: "AssignAddVariableOp"
  input: "count"
  input: "metrics/accuracy/Cast_2"
  input: "^metrics/accuracy/AssignAddVariableOp"
  attr {
    key: "_has_manual_control_dependencies"
    value {
      b: true
    }
  }
  attr {
    key: "dtype"
    value {
      type: DT_FLOAT
    }
  }
}
node {
  name: "metrics/accuracy/ReadVariableOp_1"
  op: "ReadVariableOp"
  input: "count"
  input: "^metrics/accuracy/AssignAddVariableOp"
  input: "^metrics/accuracy/AssignAddVariableOp_1"
  attr {
    key: "dtype"
    value {
      type: DT_FLOAT
    }
  }
}
node {
  name: "metrics/accuracy/div_no_nan/ReadVariableOp"
  op: "ReadVariableOp"
  input: "total"
  input: "^metrics/accuracy/AssignAddVariableOp_1"
  attr {
    key: "dtype"
    value {
      type: DT_FLOAT
    }
  }
}
node {
  name: "metrics/accuracy/div_no_nan/ReadVariableOp_1"
  op: "ReadVariableOp"
  input: "count"
  input: "^metrics/accuracy/AssignAddVariableOp_1"
  attr {
    key: "dtype"
    value {
      type: DT_FLOAT
    }
  }
}
node {
  name: "metrics/accuracy/div_no_nan"
  op: "DivNoNan"
  input: "metrics/accuracy/div_no_nan/ReadVariableOp"
  input: "metrics/accuracy/div_no_nan/ReadVariableOp_1"
  attr {
    key: "T"
    value {
      type: DT_FLOAT
    }
  }
}
node {
  name: "metrics/accuracy/Identity"
  op: "Identity"
  input: "metrics/accuracy/div_no_nan"
  attr {
    key: "T"
    value {
      type: DT_FLOAT
    }
  }
}
node {
  name: "loss/dense_11_loss/Cast"
  op: "Cast"
  input: "dense_11_target"
  attr {
    key: "DstT"
    value {
      type: DT_INT64
    }
  }
  attr {
    key: "SrcT"
    value {
      type: DT_FLOAT
    }
  }
  attr {
    key: "Truncate"
    value {
      b: false
    }
  }
}
node {
  name: "loss/dense_11_loss/Shape"
  op: "Const"
  attr {
    key: "dtype"
    value {
      type: DT_INT32
    }
  }
  attr {
    key: "value"
    value {
      tensor {
        dtype: DT_INT32
        tensor_shape {
          dim {
            size: 2
          }
        }
        tensor_content: "d\000\000\000\014\000\000\000"
      }
    }
  }
}
node {
  name: "loss/dense_11_loss/Reshape/shape"
  op: "Const"
  attr {
    key: "dtype"
    value {
      type: DT_INT32
    }
  }
  attr {
    key: "value"
    value {
      tensor {
        dtype: DT_INT32
        tensor_shape {
          dim {
            size: 1
          }
        }
        int_val: -1
      }
    }
  }
}
node {
  name: "loss/dense_11_loss/Reshape"
  op: "Reshape"
  input: "loss/dense_11_loss/Cast"
  input: "loss/dense_11_loss/Reshape/shape"
  attr {
    key: "T"
    value {
      type: DT_INT64
    }
  }
  attr {
    key: "Tshape"
    value {
      type: DT_INT32
    }
  }
}
node {
  name: "loss/dense_11_loss/strided_slice/stack"
  op: "Const"
  attr {
    key: "dtype"
    value {
      type: DT_INT32
    }
  }
  attr {
    key: "value"
    value {
      tensor {
        dtype: DT_INT32
        tensor_shape {
          dim {
            size: 1
          }
        }
        int_val: -1
      }
    }
  }
}
node {
  name: "loss/dense_11_loss/strided_slice/stack_1"
  op: "Const"
  attr {
    key: "dtype"
    value {
      type: DT_INT32
    }
  }
  attr {
    key: "value"
    value {
      tensor {
        dtype: DT_INT32
        tensor_shape {
          dim {
            size: 1
          }
        }
        int_val: 0
      }
    }
  }
}
node {
  name: "loss/dense_11_loss/strided_slice/stack_2"
  op: "Const"
  attr {
    key: "dtype"
    value {
      type: DT_INT32
    }
  }
  attr {
    key: "value"
    value {
      tensor {
        dtype: DT_INT32
        tensor_shape {
          dim {
            size: 1
          }
        }
        int_val: 1
      }
    }
  }
}
node {
  name: "loss/dense_11_loss/strided_slice"
  op: "StridedSlice"
  input: "loss/dense_11_loss/Shape"
  input: "loss/dense_11_loss/strided_slice/stack"
  input: "loss/dense_11_loss/strided_slice/stack_1"
  input: "loss/dense_11_loss/strided_slice/stack_2"
  attr {
    key: "Index"
    value {
      type: DT_INT32
    }
  }
  attr {
    key: "T"
    value {
      type: DT_INT32
    }
  }
  attr {
    key: "begin_mask"
    value {
      i: 0
    }
  }
  attr {
    key: "ellipsis_mask"
    value {
      i: 0
    }
  }
  attr {
    key: "end_mask"
    value {
      i: 0
    }
  }
  attr {
    key: "new_axis_mask"
    value {
      i: 0
    }
  }
  attr {
    key: "shrink_axis_mask"
    value {
      i: 1
    }
  }
}
node {
  name: "loss/dense_11_loss/Reshape_1/shape/0"
  op: "Const"
  attr {
    key: "dtype"
    value {
      type: DT_INT32
    }
  }
  attr {
    key: "value"
    value {
      tensor {
        dtype: DT_INT32
        tensor_shape {
        }
        int_val: -1
      }
    }
  }
}
node {
  name: "loss/dense_11_loss/Reshape_1/shape"
  op: "Pack"
  input: "loss/dense_11_loss/Reshape_1/shape/0"
  input: "loss/dense_11_loss/strided_slice"
  attr {
    key: "N"
    value {
      i: 2
    }
  }
  attr {
    key: "T"
    value {
      type: DT_INT32
    }
  }
  attr {
    key: "axis"
    value {
      i: 0
    }
  }
}
node {
  name: "loss/dense_11_loss/Reshape_1"
  op: "Reshape"
  input: "dense_11/BiasAdd"
  input: "loss/dense_11_loss/Reshape_1/shape"
  attr {
    key: "T"
    value {
      type: DT_FLOAT
    }
  }
  attr {
    key: "Tshape"
    value {
      type: DT_INT32
    }
  }
}
node {
  name: "loss/dense_11_loss/SparseSoftmaxCrossEntropyWithLogits/Shape"
  op: "Shape"
  input: "loss/dense_11_loss/Reshape"
  attr {
    key: "T"
    value {
      type: DT_INT64
    }
  }
  attr {
    key: "out_type"
    value {
      type: DT_INT32
    }
  }
}
node {
  name: "loss/dense_11_loss/SparseSoftmaxCrossEntropyWithLogits/SparseSoftmaxCrossEntropyWithLogits"
  op: "SparseSoftmaxCrossEntropyWithLogits"
  input: "loss/dense_11_loss/Reshape_1"
  input: "loss/dense_11_loss/Reshape"
  attr {
    key: "T"
    value {
      type: DT_FLOAT
    }
  }
  attr {
    key: "Tlabels"
    value {
      type: DT_INT64
    }
  }
}
node {
  name: "loss/dense_11_loss/weighted_loss/Const"
  op: "Const"
  attr {
    key: "dtype"
    value {
      type: DT_FLOAT
    }
  }
  attr {
    key: "value"
    value {
      tensor {
        dtype: DT_FLOAT
        tensor_shape {
        }
        float_val: 1.0
      }
    }
  }
}
node {
  name: "loss/dense_11_loss/weighted_loss/Mul"
  op: "Mul"
  input: "loss/dense_11_loss/SparseSoftmaxCrossEntropyWithLogits/SparseSoftmaxCrossEntropyWithLogits"
  input: "loss/dense_11_loss/weighted_loss/Const"
  attr {
    key: "T"
    value {
      type: DT_FLOAT
    }
  }
}
node {
  name: "loss/dense_11_loss/Const"
  op: "Const"
  attr {
    key: "dtype"
    value {
      type: DT_INT32
    }
  }
  attr {
    key: "value"
    value {
      tensor {
        dtype: DT_INT32
        tensor_shape {
          dim {
            size: 1
          }
        }
        int_val: 0
      }
    }
  }
}
node {
  name: "loss/dense_11_loss/Sum"
  op: "Sum"
  input: "loss/dense_11_loss/weighted_loss/Mul"
  input: "loss/dense_11_loss/Const"
  attr {
    key: "T"
    value {
      type: DT_FLOAT
    }
  }
  attr {
    key: "Tidx"
    value {
      type: DT_INT32
    }
  }
  attr {
    key: "keep_dims"
    value {
      b: false
    }
  }
}
node {
  name: "loss/dense_11_loss/num_elements"
  op: "Const"
  attr {
    key: "dtype"
    value {
      type: DT_INT32
    }
  }
  attr {
    key: "value"
    value {
      tensor {
        dtype: DT_INT32
        tensor_shape {
        }
        int_val: 100
      }
    }
  }
}
node {
  name: "loss/dense_11_loss/num_elements/Cast"
  op: "Cast"
  input: "loss/dense_11_loss/num_elements"
  attr {
    key: "DstT"
    value {
      type: DT_FLOAT
    }
  }
  attr {
    key: "SrcT"
    value {
      type: DT_INT32
    }
  }
  attr {
    key: "Truncate"
    value {
      b: false
    }
  }
}
node {
  name: "loss/dense_11_loss/Rank"
  op: "Const"
  attr {
    key: "dtype"
    value {
      type: DT_INT32
    }
  }
  attr {
    key: "value"
    value {
      tensor {
        dtype: DT_INT32
        tensor_shape {
        }
        int_val: 0
      }
    }
  }
}
node {
  name: "loss/dense_11_loss/range/start"
  op: "Const"
  attr {
    key: "dtype"
    value {
      type: DT_INT32
    }
  }
  attr {
    key: "value"
    value {
      tensor {
        dtype: DT_INT32
        tensor_shape {
        }
        int_val: 0
      }
    }
  }
}
node {
  name: "loss/dense_11_loss/range/delta"
  op: "Const"
  attr {
    key: "dtype"
    value {
      type: DT_INT32
    }
  }
  attr {
    key: "value"
    value {
      tensor {
        dtype: DT_INT32
        tensor_shape {
        }
        int_val: 1
      }
    }
  }
}
node {
  name: "loss/dense_11_loss/range"
  op: "Range"
  input: "loss/dense_11_loss/range/start"
  input: "loss/dense_11_loss/Rank"
  input: "loss/dense_11_loss/range/delta"
  attr {
    key: "Tidx"
    value {
      type: DT_INT32
    }
  }
}
node {
  name: "loss/dense_11_loss/Sum_1"
  op: "Sum"
  input: "loss/dense_11_loss/Sum"
  input: "loss/dense_11_loss/range"
  attr {
    key: "T"
    value {
      type: DT_FLOAT
    }
  }
  attr {
    key: "Tidx"
    value {
      type: DT_INT32
    }
  }
  attr {
    key: "keep_dims"
    value {
      b: false
    }
  }
}
node {
  name: "loss/dense_11_loss/value"
  op: "DivNoNan"
  input: "loss/dense_11_loss/Sum_1"
  input: "loss/dense_11_loss/num_elements/Cast"
  attr {
    key: "T"
    value {
      type: DT_FLOAT
    }
  }
}
node {
  name: "loss/mul/x"
  op: "Const"
  attr {
    key: "dtype"
    value {
      type: DT_FLOAT
    }
  }
  attr {
    key: "value"
    value {
      tensor {
        dtype: DT_FLOAT
        tensor_shape {
        }
        float_val: 1.0
      }
    }
  }
}
node {
  name: "loss/mul"
  op: "Mul"
  input: "loss/mul/x"
  input: "loss/dense_11_loss/value"
  attr {
    key: "T"
    value {
      type: DT_FLOAT
    }
  }
}
versions {
  producer: 1286
}
